models/model_rnnd.pth (torch, 101659 bytes, 8 tensors)

rnn.weight_ih_l0 f4 [100, 35]
00000000: be81 6c3f ded0 38be 2fd8 5cbe 30b0 613d
00000010: 772a 3dc1 ccb1 ac3d 51cb 573f e7a9 e4bd
00000020: dbfd 72c0 f626 813c 2c0f 683e 40eb 43c1
00000030: 8b65 33bc 07c3 45be f2f3 03bf 1001 693f
00000040: 4441 fcc0 96fe 6ec1 bb33 a8bf 1c9d 79c0
00000050: d933 7fc0 3778 6ec1 5515 2ec1 1ecc 00c0
00000060: 8e0b 3c3f 8a54 6abf a543 f2bf 7b3e 3abe
00000070: d055 543f ff90 8c3f 9f48 63bf f4aa 0440
00000080: 0534 a43f 8691 d73f 124f 16bf 41d7 bfbe
00000090: 3b6b 183f f63d 6c3e 7e53 fdbe 9392 0ec1
000000a0: 52eb d4be 95e1 febe 2b21 973e 403a b041
000000b0: c0d5 f2be aa5e 88be 5436 7841 7514 803d
000000c0: 9600 8f3e 64a1 ccbe adc6 45bf be04 eabf
000000d0: 4f7e 9bc1 8c8f 8dbe a8a3 1440 07d3 a9c0
000000e0: 03e3 04c1 fa22 cec0 bcc5 98bf c914 c2be
000000f0: 0c81 a3be efb4 e6bf 6b7d 22bf 18b2 05bf
00000100: 37eb 713d 1b6f 12bc c302 aebd db2f 9a3d
00000110: d010 c5bf 8a2b 11c0 2af7 51bf 8621 16bd
00000120: c607 7a3e c101 8140 c692 8d41 695d 55bf
00000130: 9bcb 43bf de00 103e 753f 9a40 c23b eebe
00000140: 0114 5ebe 138c 1541 6e23 7c3e 620b a83e
00000150: edd2 7e40 de11 5140 582e 5741 568d a541
00000160: 1ac4 8040 fa4a a640 786b 9840 3c8d 9641
00000170: f676 7b41 ecb4 9240 9ac8 1640 5825 6e40
00000180: 4d87 d640 d260 3f40 5c6f 7d3f c4cb 80bf
00000190: 1068 513f ef66 43be 9863 e6be fb5a 333f
000001a0: 453f 3240 d77b 1e3f 5dab 993f 9f9c 973f
000001b0: 6535 efbf eea0 3340 44f3 a3bf 2cf4 393f
000001c0: 0a98 aabd 5e69 33c0 2535 c13c 625c 203e
000001d0: b724 4fc1 9d85 99bc 772b dabe 93ea f7bf
000001e0: 56e8 91bf 1f9d 48bc 4c46 ce40 0acd de3f
000001f0: af05 bebd ab92 de3f 1952 2441 b01a eb40
00000200: 5d01 4340 1087 0440 15d1 0240 5b19 a340
00000210: acfc 923c a747 64bf 06b9 3cbe 0998 91be
00000220: af2c cabf e221 0cc0 4081 e63f a826 3840
00000230: e956 943f c10f 47bc c24a 113d edd5 d0bf
00000240: 8362 2ac1 513f 1e3f 32b9 823f e367 82be
00000250: 0d47 403e d0e8 0a3f 415d 2c3e b2d0 0dc0
00000260: 5aa8 93be 91b1 0cbf 9513 89c0 2a0b 7440
00000270: 2190 1ac1 056c 16c1 7eec ae3f 20ec 5cc0
00000280: a656 01c0 774d 84c1 73c7 57c1 ee2c 9dc0
00000290: 8938 1bc0 5d67 3bc0 d2cf a83e 84ac 6bbe
000002a0: c1d3 ffbe 1584 4a3f a4db 41bf d443 13bf
000002b0: c280 bbbf 51d6 90bf 842d 39c0 b432 7a3e
000002c0: ae8a 12bf aa62 06be 5eb6 2241 f6f1 9441
000002d0: f734 10bf e8ff f73d ad80 88c1 055f 983f
000002e0: ce0b 0bbe 8fcd f63e cbf6 e3c0 40d8 bb3e
000002f0: 88a8 c5bb 0dae f340 cea4 6741 d848 4b41
00000300: 81db e541 c375 0b40 1a32 903e cb67 6e40
00000310: d8b1 9341 4989 8941 2eea cc40 b75e c240
00000320: b016 bc40 befa 1d41 c12b 023f 5850 793e
00000330: 5b2e 30bf 1a71 68be 6bd0 62bf 52cd 8dbf
00000340: 0200 ca40 0605 d840 5cb7 80bf d4ec 95bb
00000350: b85f 54bd 0ac6 8ec0 0dee 87c0 5dad a2bd
00000360: eadf 72bf 3949 0bbd d2e6 bc3f d2e5 abbb
00000370: 99e5 62be 17a5 4d41 d2f9 dcbd 6a95 803e
00000380: 4317 b1bf c944 27c1 86b8 00c0 957a 02c1
00000390: 422d f2bf bd79 0740 02f0 843f db5a 8540
000003a0: 76f4 db3f b2eb c63e 8eee bdbf 4f0c b2bf
000003b0: 9b14 aec0 01ae d0bd 0563 323f c7dd 19bf
000003c0: b375 463f 6b28 a63f 4310 0240 6824 45c0
000003d0: 6800 d9bf 3694 143f 9ab8 a6be e315 09bf
000003e0: be6e a83e f99f 10c1 24de 933e 57df 023f
000003f0: cfe7 a5bd 3a8f 0fc1 22d9 dd3d d139 4c3e
0.9238547 -0.18048427 -0.21566842 0.055099666 -11.822867 0.084323496 0.8429461 -0.11165219
-3.796744 0.015765648 0.22662038 -12.244934 -0.010949503 -0.19312678 -0.51544106 0.91017246
-7.882967 -14.937155 -1.3140787 -3.9002142 -3.9875395 -14.904349 -10.880208 -2.0124583
0.7345513 -0.91535246 -1.8926893 -0.18187897 0.8294344 1.0981749 -0.88782686 2.0729342
1.2828375 1.6841285 -0.587144 -0.37468913 0.5953862 0.23070511 -0.49477762 -8.910785
-0.41585785 -0.4978148 0.29517493 22.028442 -0.47428703 -0.26634723 15.513264 0.06253902
0.27930135 -0.3996688 -0.7725628 -1.8282697 -19.436674 -0.2764858 2.3224888 -5.30701
-8.305423 -6.4417696 -1.1935344 -0.37906483 -0.31934392 -1.8023967 -0.6347262 -0.52224874
0.05906221 -0.008937622 -0.084966205 0.07528659 -1.5395756 -2.2682824 -0.8201777 -0.036653064
0.24417028 4.031464 17.696667 -0.8334566 -0.7648255 0.14062831 4.820246 -0.46529967
-0.21687318 9.346698 0.2462289 0.32821184 3.981624 3.2667155 13.448814 20.694012
4.023938 5.1966524 4.7631187 18.818962 15.716543 4.584585 2.3559937 3.7210293
6.704016 2.9902844 0.98998046 -1.0062184 0.8179941 -0.19082235 -0.4499786 0.700607
2.7851117 0.61907715 1.2005421 1.1844672 -1.868817 2.8066974 -1.2808614 0.726382
-0.083297804 -2.803306 0.023584912 0.15660241 -12.946464 -0.01874047 -0.42611286 -1.9368461
-1.1399028 -0.012244492 6.446081 1.7406323 -0.09278428 1.738851 10.270043 7.3470078
3.0469582 2.0707436 2.0440114 5.096845 0.017942749 -0.8917183 -0.18429956 -0.28436306
-1.5794886 -2.189568 1.8008194 2.8773594 1.1589023 -0.012149752 0.035471685 -1.6315285
-10.649051 0.61815363 1.0212767 -0.25469884 0.18777104 0.54261494 0.16832449 -2.2158628
-0.2883938 -0.54958445 -4.2836404 3.8131814 -9.660188 -9.401372 1.3665922 -3.451912
-2.0209136 -16.537825 -13.486194 -4.9117346 -2.4253256 -2.9281838 0.32971054 -0.23015028
-0.49966243 0.7910779 -0.7572577 -0.5752537 -1.4648669 -1.1315404 -2.893403 0.24433404
-0.5724286 -0.13123575 10.169523 18.618145 -0.5633082 0.12109357 -17.06283 1.1903998
-0.13578722 0.48203704 -7.123876 0.36688423 -0.0060320534 7.6149964 14.4777355 12.705284
28.73218 2.1790626 0.28163224 3.725085 18.461838 17.192034 6.4035864 6.074062
5.8777695 9.873716 0.50848013 0.24347055 -0.6882073 -0.22699395 -0.8859927 -1.1078284
6.312501 6.750613 -1.0055957 -0.0045753513 -0.051849097 -4.4616747 -4.247809 -0.07943223
-0.94872916 -0.034005377 1.4757941 -0.0052459026 -0.22157897 12.852805 -0.10789837 0.25113994
-1.3835224 -10.454293 -2.0112624 -8.154927 -1.8920062 2.1168053 1.0385745 4.1673408
1.7183979 0.38851696 -1.4838426 -1.3910006 -5.4400153 -0.101894386 0.6968234 -0.6010403
0.77523345 1.2981085 2.0322425 -3.080347 -1.6953249 0.5803865 -0.32562715 -0.5354902
0.3289699 -9.039056 0.28880417 0.5112204 -0.081008546 -8.972467 0.108324304 0.1994393

rnn.weight_hh_l0 f4 [100, 100]
00000000: 74b0 90bb fd5f 113b 6624 34bb 6127 a43b
00000010: 7a94 c2bb 74e0 4e39 56ce 0e3c f47e 393c
00000020: 5c38 303c 9bd6 09bb ad47 53ba c034 b23b
00000030: 0db7 d43b 8471 5339 2088 a33b dc33 883a
00000040: 983c 04bb 0fe0 2b3b 0997 c7bb 4d81 98bb
00000050: f97a c9bb de07 15b9 31f1 cdb8 14e1 4eba
00000060: cac0 463b fb8d 11bc a88b 1bba 6602 b93b
00000070: 9652 44ba a1e5 53bc e9fd afba 363d 723b
00000080: 10cf 063b 9b5a cc3b 9a8d cebb 14c9 bc3a
00000090: c840 2dbc 6095 d83b d80b 4cbb c52e cf3a
000000a0: 7853 64bb aaf0 24bc b9ca d339 e248 333b
000000b0: 2856 863b 16bd 97b8 fc7e 093c 9d72 113c
000000c0: 0fa8 19bc 2c88 d83a e722 d63b 138c 473c
000000d0: 4999 343b aa2a 62bb ebf7 14bb 13b0 0c3c
000000e0: b3be 553b dba5 543c 6d11 9e3b 6368 5cbb
000000f0: 1bbd 0dbc da8e babb 2a62 2a3b b64d 123b
00000100: df50 d4bb d1f1 95bb 1a0b b4bb 150d 8fbb
00000110: f2b9 8e3b 68cf ac3b f455 b63a d1fc 463a
00000120: 04bf fd3a cdfc 9dbb 48b8 983b 2538 90ba
00000130: c966 15bb 63b8 34bc d68b 5e3a d56e f33b
00000140: d5ce 7d3b 9f39 6ebb ea36 243c 8b08 1bbc
00000150: 8bd0 f73b c30b 19bb 6c88 9bbb 3e39 25ba
00000160: ac3f 81b9 b5c4 a0bb fde8 df3b 9537 2bbc
00000170: 37aa 893b e52d cbbb 7943 ab3b a82b 03bb
00000180: 4f84 103b cf18 de39 c91c 1b3b 0c67 75bb
00000190: 100e e5bb 1f30 b7bb 7a7c 6fbb 6aac 38bb
000001a0: 1712 173a 6bb0 a13b e1b8 24bb eb3a 293a
000001b0: af48 c6ba fcc1 59bb 6dd8 bfbb a99b 86bb
000001c0: b905 b53b feef fe3a b298 61ba c4b9 3cbb
000001d0: ff87 9abb 50f6 963a 719b 873b 6df7 8bba
000001e0: f75f e53b e6f5 183a 320e 82bb 8535 43bb
000001f0: e2c7 87bb 6f34 043a a92c ba3b 8fba 53bb
00000200: 31d1 72bb 5d5e bbb9 9e58 0cbc 91ea 66bb
00000210: 9312 48bb ae51 6d39 17e6 d6bb ed7d 5abb
00000220: c79b 07bc 3795 82ba f0eb 713b ef11 0bbb
00000230: 4ed2 f8bb 65f5 04bb d5fe ab3b d38d b63a
00000240: 636f 18b9 5357 34bb 6d16 e6bb c618 66ba
00000250: 325c 81bb b687 9cb8 6ffe bc3a 7307 b8bb
00000260: 548f bcba d0b7 2cbb d04a 8e3b cc30 32bb
00000270: 9770 833a a630 9d3b aa29 3f3b 89bd 1a3b
00000280: f3e2 133b ccc0 73b9 5283 8b3b 9f9f abbb
00000290: b3f1 c5ba e07a acbb 9c6b 2fbc 9592 d3b9
000002a0: 6a18 f03b 573e 68bb 030d 2d3c 3206 95bb
000002b0: fce3 eaba f3b6 3d3c 5238 61bb 0aaf f93a
000002c0: 0e93 dbbb 6b7e 273b cf23 a13a 5929 05bc
000002d0: eda2 9a3b 246b 923b f02b c8bb 4bbd c93b
000002e0: 38ef 1c3b 015e 81ba ab0f c23a 5ecf 9eba
000002f0: 123e 53bb 085d c43b d3eb 5a3b 769b 8d3b
00000300: df34 c4b8 3351 2938 4462 9fbb 1755 1bbb
00000310: 5707 02bc 29fc bd3a 98c2 9736 1bb1 95bb
00000320: b887 a0bb 2c08 9f3b c608 19b9 4ae7 12bc
00000330: 3b36 20ba 0dbc 2dbc 5775 16bc 14ee d5bb
00000340: 8f6a 8bbc d65f 7cbb 2585 923a d29d 083c
00000350: 303c 2dbc 88e5 c03b a6a4 ff3b 9cb5 a13b
00000360: 7eee aa3c 9e4c 333b f929 55ba 93e1 7cbb
00000370: 119e 8b3a 1965 5b38 89b7 493c 37dc 663c
00000380: 5ea0 b63b a240 093c ad09 fa3b b554 00bc
00000390: 5e40 133c d6d6 aa3b eb0a d33a 04ea 01bb
000003a0: 239a a6bb dc1d 61bc f352 683b ad11 84bc
000003b0: cb7e d63a e29c 35bc edd5 9a3b 7b0b 36bb
000003c0: 4a6e ee3a c9f1 6c3b d86a 563c 86e8 e0bb
000003d0: d5f6 e1b8 176e 85bc 5a7d 5ebc 1f16 e3bb
000003e0: 9f1b b83a 792a 31bc 0f24 ebba 3ddd 8e3b
000003f0: 0276 7e3a 7592 413b 0e17 c2ba 1d3d 78bc
-0.004415566 0.0022182458 -0.0027487515 0.005009577 -0.00593811 0.00019729306 0.0087161865 0.011321772
0.010755625 -0.0021032456 -0.0008059692 0.005438417 0.006491548 0.00020164816 0.0049905926 0.0010391432
-0.0020177718 0.0026226079 -0.006091003 -0.0046540857 -0.0061486927 -0.00014212678 -9.820087e-05 -0.00078918156
0.0030327314 -0.008883948 -0.0005933591 0.005646038 -0.0007489113 -0.012933166 -0.0013427112 0.0036962754
0.0020570196 0.006236387 -0.0063035013 0.0014403188 -0.010574527 0.0066096038 -0.003113499 0.0015806785
-0.003483979 -0.010067144 0.00040396096 0.0027356674 0.004099626 -7.235461e-05 0.008392092 0.008877424
-0.009378447 0.0016520075 0.0065349224 0.012179392 0.0027557185 -0.0034510293 -0.0022730778 0.008586901
0.0032614886 0.012978996 0.0048238547 -0.0033631555 -0.008651043 -0.0056932988 0.0025998452 0.0022324151
-0.006479367 -0.004575946 -0.0054944875 -0.004365573 0.0043556625 0.005273748 0.0013911114 0.0007590773
0.0019359295 -0.004821396 0.00466064 -0.001100306 -0.002279686 -0.011030289 0.0008489465 0.0074289837
0.0038728018 -0.0036350263 0.010022858 -0.009462486 0.007562702 -0.0023352958 -0.0047464874 -0.000630278
-0.00024652237 -0.004906262 0.0068331943 -0.0104502635 0.0042011994 -0.0062005394 0.005226549 -0.0020015035
0.0022051518 0.00042361623 0.002366828 -0.0037445454 -0.006990202 -0.0055904533 -0.00365427 -0.0028178939
0.00057628885 0.0049343607 -0.002513461 0.0006455618 -0.0015127863 -0.0033227196 -0.0058546574 -0.0041079116
0.005524364 0.0019450185 -0.0008605822 -0.0028797248 -0.004715919 0.0011517499 0.004138403 -0.0010678597
0.0069999653 0.00058349816 -0.0039689774 -0.0029786539 -0.004143701 0.00050432136 0.0056815934 -0.0032307243
-0.0037050957 -0.00035737726 -0.00856605 -0.0035235027 -0.003052865 0.0002263251 -0.0065581906 -0.0033339218
-0.008276886 -0.0009962682 0.0036914311 -0.0021220406 -0.0075934296 -0.0020287868 0.005248884 0.0013927765
-0.00014537344 -0.002751787 -0.0070217163 -0.0008777495 -0.003947758 -7.463938e-05 0.0014419089 -0.0056161224
-0.0014385977 -0.0026354678 0.0043424144 -0.002718973 0.0010028061 0.004797059 0.002916912 0.0023611507
0.0022565692 -0.00023246108 0.004257598 -0.005237534 -0.0015101939 -0.0052636713 -0.010706808 -0.00040354268
0.007327129 -0.0035437548 0.010562184 -0.0045478577 -0.0017920728 0.011579263 -0.0034365845 0.0019049358
-0.00670088 0.0025557529 0.0012293997 -0.008127534 0.0047191293 0.0044683386 -0.0061087534 0.0061565987
0.0023946296 -0.0009869934 0.0014805695 -0.0012116244 -0.0032233042 0.0059925355 0.0033404722 0.004321511
-9.355856e-05 4.0368363e-05 -0.004864009 -0.002370184 -0.00793632 0.0014494705 4.5228044e-06 -0.0045682318
-0.0048989914 0.004853269 -0.00014594485 -0.008966276 -0.00061115966 -0.010603917 -0.009183249 -0.0065286253
-0.017018585 -0.003850927 0.0011178596 0.008338409 -0.010573432 0.0058867373 0.00780161 0.0049349796
0.020865675 0.00273589 -0.00081315596 -0.00385866 0.0010651966 5.2307823e-05 0.012311825 0.014090589
0.0055733165 0.008377226 0.007630548 -0.007832696 0.008987514 0.0052135987 0.0016101276 -0.0019823322
-0.0050842925 -0.013740029 0.0035449832 -0.01612171 0.0016364692 -0.011084767 0.004725209 -0.002777784
0.0018190828 0.0036154857 0.013086997 -0.0068636565 -0.00010774812 -0.016287846 -0.013579691 -0.0069301273
0.0014046318 -0.010813349 -0.0017939823 0.0043598698 0.00097069156 0.0029536758 -0.0014807896 -0.015151289

rnn.bias_ih_l0 f4 [100]
00000000: 1709 0bbf 6b6e 5a3e e7db 0b3f b97b 15be
00000010: 8e06 0fbf f414 163e 7822 033f 8c35 f1be
00000020: bba3 bd3e ccec efbe 7bdf f73e 17ec 543e
00000030: 9761 c5be 64fc 1a3f 694b 2e3e 4c02 60be
00000040: aa65 a13d b792 ebbe c9a2 26bf ae47 87be
00000050: 5b33 efbe 2306 193f 5d99 033f ab61 0b3f
00000060: ab11 0fbf 9b63 ffbe da4e 8bbe 15a5 323f
00000070: cf50 703c 22af 843e c556 f7bd 2d11 053f
00000080: 0f5e 133f bb53 333f 07cf 3e3f ff28 eebe
00000090: 4be1 15be ee35 323f 19cb 753e c057 56be
000000a0: 0af5 09bf 9173 01bf 9546 e93e 5d07 363f
000000b0: 7dca 6e3e 2571 fcbd e9d6 fdbe 511b 943e
000000c0: 69e7 4dbf 98f2 673e 582c 813e 4ea6 2c3f
000000d0: 3dea 1c3f 15ea ac3e e80a fa3e ee1a 2fbf
000000e0: ea22 133e 0b57 b6be cde7 343e feeb 2cbe
000000f0: 6715 02bf 0666 5a3e b804 8c3e 49ae 0cbf
00000100: bc31 4b3e ebf7 273f 2c68 4c3d 1801 e9be
00000110: 2cad 0dbf 7225 243f 92c7 323d 29ff 323f
00000120: 63fa 1ebf 664c e93e f891 03bf 99a4 55be
00000130: 5f7d d0be e473 54be a746 423f bfdb 0e3f
00000140: 6080 f2be 53b7 d2be cb68 493e e93e 203f
00000150: ff3e 613d 607e 98be 56a3 e53e 50aa dabe
00000160: aafe 2a3f 6b07 bdbe 9aeb 0e3f fc1c f23e
00000170: f862 2abf ac50 1d3f 045c 8d3e 736b afbe
00000180: a904 46be 417a 02be c449 0cbe 302f fb3e
-0.54310745 0.21331184 0.5463242 -0.14597978 -0.55869377 0.1465643 0.5122447 -0.47111166
0.3703898 -0.4686035 0.4841269 0.20793186 -0.38551018 0.6054137 0.17020954 -0.21875876
0.07880719 -0.46010372 -0.6509214 -0.26421875 -0.4671887 0.5977499 0.5140589 0.54445904
-0.55886334 -0.4988068 -0.27208596 0.69783145 0.014667704 0.25914866 -0.12077097 0.51979333
0.575654 0.7004964 0.7453465 -0.46515653 -0.14636724 0.6961354 0.24003257 -0.20931911
-0.53889525 -0.50566965 0.45561662 0.71104985 0.2331943 -0.12326268 -0.49578026 0.2892709
-0.8043123 0.22651136 0.25229144 0.6744126 0.6129492 0.3377234 0.48836446 -0.68400466
0.14368787 -0.35613284 0.1766655 -0.16886899 -0.5081391 0.21327981 0.2734735 -0.5495344
0.19843191 0.6561267 0.049904034 -0.45508647 -0.55342364 0.64119637 0.043647356 0.69920594
-0.6210081 0.455661 -0.51394606 -0.2086357 -0.4072065 -0.20747334 0.75889057 0.55804056
-0.47363567 -0.4115549 0.19668882 0.62595993 0.05499172 -0.29783916 0.44851178 -0.42708063
0.66794837 -0.36919722 0.5582825 0.47287738 -0.66557264 0.6145122 0.27609265 -0.34261665
-0.19337715 -0.12741949 -0.13700014 0.4905944

rnn.bias_hh_l0 f4 [100]
00000000: bed4 13bf 32c4 453e 41a9 ef3e 52e4 aabd
00000010: ba7d 19bf 6261 da3d e008 e33e 98ba dbbe
00000020: 454a 9b3e 5211 fdbe bdb6 1b3f 24c8 ec3d
00000030: ed1b ecbe f84a 163f dd24 733e 246f 91be
00000040: 00ef f03d 99c8 1dbf aa39 13bf 9de3 a9be
00000050: 397c 24bf 1088 293f ab95 143f c2e6 043f
00000060: c891 1dbf 00fd f6be 6f72 6fbe dc65 223f
00000070: b894 533d 4be9 cc3e 6bc7 0abd c885 143f
00000080: bbb0 1d3f f869 2c3f 7e4b 2a3f 715f e4be
00000090: 79af 8fbd 2b90 1e3f 4696 5c3e 14b9 40be
000000a0: ed75 e2be e401 18bf 2a7a 0b3f 2df7 2f3f
000000b0: d0b3 743e 9e26 a7bd a67c 0ebf 6bfa 883e
000000c0: 19b7 3fbf 506f 6e3d c622 ae3e 74be 183f
000000d0: 9dfd 073f 5451 5d3e 5e0c d13e 9f6a 3abf
000000e0: f7b9 fd3d 346c cebe 7879 413e d42b 0abe
000000f0: 270e 01bf 44ab 4c3e 427c 583e 8208 2cbf
00000100: c844 a23e 4f2a 2a3f 2b32 043d 9496 21bf
00000110: c624 3abf 6e39 1e3f 8e6e 1e3d 1b18 2b3f
00000120: a828 3bbf 76c4 083f 2e25 18bf a203 d3bd
00000130: 6f01 bdbe a152 34be c296 383f 6a6c f63e
00000140: 4dc7 05bf 4ee8 c1be 4e8a ff3d f448 033f
00000150: adfa 83bd 330e 32be db0f ea3e 39d2 dabe
00000160: 701c 353f 6c82 9cbe 83fb 343f 2c84 ec3e
00000170: b2e3 2dbf 3e9f 2a3f 23f3 b03e 0ed8 dbbe
00000180: 1690 a8bd 2c20 95be 475c 2cbd fda2 0c3f
-0.57746494 0.19313124 0.46808818 -0.0834433 -0.5995747 0.106631055 0.4434271 -0.42915797
0.303301 -0.49427277 0.6082571 0.11561611 -0.46115056 0.58708143 0.23744531 -0.28405106
0.11764336 -0.6163421 -0.57509863 -0.33181468 -0.6425205 0.6622324 0.58040875 0.5191461
-0.6155057 -0.482399 -0.23383497 0.63436675 0.0516555 0.40021738 -0.033881586 0.58016634
0.61597794 0.67349195 0.6652144 -0.44604066 -0.07015891 0.6193873 0.215417 -0.18820602
-0.44230595 -0.59377885 0.5448328 0.68736535 0.23896718 -0.081616625 -0.5565895 0.26753554
-0.7488876 0.058211625 0.34010905 0.5966561 0.5312136 0.21613055 0.40829748 -0.7281894
0.123889856 -0.40316927 0.18893993 -0.13493282 -0.5041222 0.19987208 0.2114115 -0.6720048
0.316931 0.6647081 0.032274406 -0.6312039 -0.7271236 0.6180638 0.038679652 0.6683366
-0.7310891 0.53424776 -0.5943173 -0.10303427 -0.36915156 -0.17609645 0.7210504 0.48129588
-0.52257234 -0.37872547 0.124775514 0.5128319 -0.06444297 -0.17388229 0.45715222 -0.42738512
0.7074652 -0.30568254 0.70696276 0.4619459 -0.6792556 0.66649234 0.345605 -0.42938274
-0.08230607 -0.29126108 -0.04208019 0.549362

fc.weight f4 [100, 100]
00000000: 0e2b 6dbd db49 17bd 9c5f b7bc e0fb cf3d
00000010: 0dc1 693a a37a b3bd 3fb7 293d 575f 313e
00000020: 1709 eabd 4b40 83be aa67 2cbe 1e77 b63d
00000030: ff5a 7f3e 581e 5a3e 6606 82bc b4be 3bbe
00000040: c487 24bd 7517 95be 2a39 5c3a a043 ac3d
00000050: 1ba8 99bb 104c 2dbd 3256 9bbe f01e 343e
00000060: 2b5e c83c cb08 c3bd 4909 cabd 6b9e e63d
00000070: bd85 8e3d fbdf 68be 1b93 2c3e 8877 e8bd
00000080: f0da ab3d 5498 363c 358f af3c 4c00 b23e
00000090: 7c5c 43be 88b1 20bd 61a0 5f3c 5bab 9dbd
000000a0: 7381 b9bd 7071 dabd a72c 933d 7c6d 143c
000000b0: 26ab 093d dfc3 c4be a8c9 42bd 60d1 c13c
000000c0: a5f4 febd eda9 6bbd 9642 c4bd 8727 d2bb
000000d0: 2a6d eb3d c79d 7c3d 75e7 cbbd f45e 953e
000000e0: fbe5 fabe 0d7f ea3e 6dc6 9b3e 2ee6 9d3c
000000f0: 31bc a2bc 4f8d c93c 4d07 f2bd 36d0 833e
00000100: 3908 95bd 25df 26bf 676a 933d 8981 9f3d
00000110: dc53 9c3d e7c3 c43c 87c6 c53e 7e08 1ebf
00000120: 9233 0a3e b5d1 0d3c 805a 2f3e e754 09bf
00000130: 39e0 213e 7731 023e 4491 21bd 61e0 f83b
00000140: a96a e9bd fc36 a23c 28e2 393f 2fec 8c3c
00000150: 9361 3c3e a636 523d 7cf3 a93d 59bf 9f3a
00000160: c9df 08be f517 1fbd d839 e2bd 3a86 fa3d
00000170: ded4 c43e 1709 2e3d 9f0a 0abe 3a33 0d3e
00000180: 6bca 1cbe 7aef 1d3d 140c a6bc 343a 4c3e
00000190: eef6 463e 0624 b13d 2888 f9bc 2f4f 613e
000001a0: 680d 353c 519d b4be 05ee da3c 827f cc3d
000001b0: 56e4 a53d a3e8 193e 5f8d 8fbd 207f 283e
000001c0: 444d d23d fddb 2a3e c763 c4ba 320b ad3d
000001d0: cd5b 8fbd e330 87bd dd4c 07bb 071d e83d
000001e0: 8d2f f13d 4153 633d 3904 eabc 50d2 1a3d
000001f0: 4b34 b73d fcdb 8b3c aa17 f53d fb39 683e
00000200: 85ca 1e3e b3fb db3c 5b5f a9bd ae44 75bd
00000210: c4ba 24be 7a08 503d 37c0 3f3c 16bd 94bc
00000220: a803 6abe ad64 14bd baf4 0cbe 4c56 6abd
00000230: 83ac 0d3d baee 903d b521 9bbd d7a1 973d
00000240: 62b3 d0bd 6eea 003f ee8e 8abc 859d fcbd
00000250: 16fd b93c 6689 c33d 0769 48bd 1839 d23d
00000260: 5167 a13d 84a0 d13c 0092 8cbd 31d1 afbc
00000270: 10fe c13d 94a9 403d 422c 0fbd 269c 6e3e
00000280: d045 7c3e 3bc5 25bd 9fb7 07bd e146 273e
00000290: a054 84bd 3fbf 03bf d156 27be 2f08 533c
000002a0: c2b1 bd3d aaf0 8c3c 61b0 50be 34bc 1abf
000002b0: 053f 7abd 09e4 40bc 2836 603f cb21 ae3e
000002c0: 5e5c 2d3e 62c1 1b3d 989d d8bd 11a6 093d
000002d0: c195 0bbd 66d9 06bd 8a1d 4fbf ff3a 923c
000002e0: fe39 ff3c eefc de3d 2768 1abd 340c d2bd
000002f0: 749c 55be 7130 b53d 35f1 ae3c b28a 42bd
00000300: 7164 bf3e ff6b 09be 0e16 64be dc84 7a3e
00000310: 9eb0 9bbc c229 82bc 1060 123d cb00 643e
00000320: 39a6 923e 49ac c7bd a29c b3bc 8a5b debe
00000330: 6682 58be 3391 ba3e 8c8b 16be 6d9a 3f3e
00000340: eafd 6dbe 308f 7f3f 12af 843c 71bb f03b
00000350: 0493 b4bd dde0 5abd b6f1 a73d 695a 823e
00000360: 29e6 283e ff73 35be f2df 8c3e 2bb5 04be
00000370: 79cd 3f3e 682d dfbe 1dce bcbe a976 8abd
00000380: 1310 11be 322e 2fbd dc5c 603e 9d1a 8dbd
00000390: 1004 ee3e 8255 db3d 9249 563c 5583 923e
000003a0: 7f47 66be ab90 b0bd c750 813e d2d7 15bf
000003b0: b324 363c 3b9c c53d 2681 a5bd eed3 b63e
000003c0: c537 12be 312f e33d e982 2bbe 7653 babd
000003d0: d3b4 473d ec46 b63e ca63 d83d 1d1d 873e
000003e0: 67a4 fa3d a5c4 773e 1b32 f73d 49bd 9fbd
000003f0: e1dd 5cbe 32cf 29bc cf3c 94bd 2bd9 8abd
-0.05790239 -0.03693567 -0.022384457 0.10155463 0.00089170114 -0.087636255 0.041434523 0.17321526
-0.11427515 -0.2563499 -0.1683642 0.089094386 0.24937056 0.21300638 -0.015872192 -0.18334466
-0.04016854 -0.2911946 0.0008400852 0.08411336 -0.004689229 -0.042308867 -0.303392 0.17589927
0.024458965 -0.095231615 -0.09865052 0.112606846 0.06959102 -0.22741692 0.16852991 -0.11350924
0.083913684 0.011144716 0.021430591 0.34765851 -0.19078249 -0.039231807 0.013649077 -0.07698699
-0.090578936 -0.10666168 0.07186251 0.009059306 0.033610485 -0.38430688 -0.047555596 0.023659408
-0.12449006 -0.0575351 -0.09583013 -0.0064134034 0.11495431 0.061673906 -0.09956256 0.29174006
-0.49003586 0.45800057 0.30424824 0.019274797 -0.019865127 0.024603514 -0.11817799 0.2574479
-0.07276959 -0.6518424 0.07198029 0.07788379 0.076331824 0.024019195 0.38628027 -0.6173171
0.13496235 0.008655955 0.17124367 -0.53645176 0.1580819 0.12714182 -0.039445177 0.0075951074
-0.11397297 0.01980161 0.7261071 0.017202465 0.18396597 0.051321648 0.08298394 0.0012187763
-0.13366617 -0.038841207 -0.11046189 0.12232633 0.38443655 0.042489138 -0.13480614 0.13789073
-0.15311591 0.03855846 -0.020269431 0.19944078 0.19430134 0.08649449 -0.030460432 0.22002862
0.01105056 -0.35276273 0.026724825 0.09985258 0.08100192 0.1503015 -0.07009386 0.16454744
0.102686435 0.16685481 -0.0014983349 0.08449401 -0.069999315 -0.06601121 -0.002064518 0.113336615
0.11776648 0.05549932 -0.028566467 0.037798226 0.08945521 0.01707267 0.11967404 0.22678368
0.15506943 0.026853418 -0.08270141 -0.05987995 -0.1608687 0.050789334 0.011703542 -0.01815657
-0.22852957 -0.036228824 -0.13765231 -0.057211205 0.034588348 0.070767835 -0.075747885 0.074039154
-0.101904646 0.5035771 -0.016913857 -0.12334732 0.022703689 0.09547691 -0.048928287 0.10264796
0.07881034 0.025589235 -0.06863785 -0.021462055 0.09472287 0.047036722 -0.034954317 0.23301753
0.24636006 -0.040471297 -0.0331341 0.16335632 -0.064614534 -0.51463693 -0.16341712 0.012880369
0.0926242 0.017204601 -0.20379783 -0.60443425 -0.061095256 -0.011773118 0.87582636 0.34010157
0.16929767 0.03802622 -0.105769336 0.03360564 -0.034078363 -0.03292217 -0.8090445 0.017850397
0.031155583 0.10888086 -0.037696984 -0.10256234 -0.20860463 0.0884713 0.02135525 -0.04749555
0.37381318 -0.13420103 -0.22274038 0.24464744 -0.019005116 -0.015889052 0.035736144 0.22265927
0.28642443 -0.09749658 -0.021925274 -0.43429214 -0.21143493 0.36438903 -0.1470167 0.18711253
-0.23241392 0.9982786 0.016196761 0.0073465635 -0.088171035 -0.053437103 0.082003996 0.25459602
0.16494049 -0.1772003 0.27514607 -0.12959735 0.18730725 -0.4358933 -0.36876002 -0.06760914
-0.14166288 -0.042768665 0.21910423 -0.06889842 0.46487474 0.10709669 0.013079064 0.28615823
-0.22488211 -0.08621343 0.2525694 -0.5853244 0.011117148 0.09648939 -0.08081274 0.35708565
-0.14279087 0.110929854 -0.16749157 -0.0909795 0.04875643 0.35600984 0.10565908 0.263894
0.122383885 0.24196108 0.12070104 -0.07799775 -0.21569015 -0.010364341 -0.07238161 -0.06779703

fc.bias f4 [100]
00000000: 35ec babe 8927 0cbf 1f0e afbc fa19 d33e
00000010: bb66 2c3f 934d a3bb 3665 2bbf 5126 2cbf
00000020: 9595 183f a856 33bf d3f9 153f 887d 24bf
00000030: 0c8e 33bf d789 a23d 5be1 f2be 78d1 40bf
00000040: 77c4 e8be c2a4 90be d46a 9fbe f966 e73e
00000050: 96c0 3abf e8c3 fa3e cc00 d93e 956e 283f
00000060: 8397 dabd e768 a4be b7a6 31bf a232 3ebd
00000070: fc99 05bf e787 b3be a327 373f fe3b 323f
00000080: 691d 23bf effd 0abf 7492 70bd ff78 c43e
00000090: 759b ed3e b793 973e 8fb7 d93c 1db8 823e
000000a0: 7515 c23e bc4e d8be 3ee9 d53e 71ed c13e
000000b0: b9d8 abbc 4b7d e9be 95bc 453f 4828 08be
000000c0: 6a39 d13e aded b93e 150d b9be b5da 7e3e
000000d0: 5c38 773d 39ba 13be d44d b9be 74d5 4bbf
000000e0: 73a2 d13e c1e2 ffbe 0933 0b3d d5dc 023f
000000f0: 74c9 f53c c6f3 223f 898b fb3d f332 2d3e
00000100: 5ee2 353f d998 543e 582a 103f 2342 a83e
00000110: e14c b63e 7adc 8b3e 24e9 253f 7492 563e
00000120: 28b4 b5bd 0913 5cbe c0f8 e6be c6b4 08bf
00000130: be02 d1bd 744c bcbd d79e 12bf 7813 21be
00000140: 662b 973e 7b83 063e 26cf 413f 4b02 2e3f
00000150: a107 ba3d 75b4 353e cbe5 13be 1873 583c
00000160: ec87 023f e485 453f a971 edbe 28f0 fdbe
00000170: 2a4c dfbe ae35 853e 2de7 1d3f 9cee 933d
00000180: a240 113f db46 d43e f449 77be d936 103f
-0.36508337 -0.54747826 -0.021369038 0.41230756 0.67344254 -0.004983613 -0.6695131 -0.67245966
0.59603244 -0.700541 0.58584327 -0.64254045 -0.7013862 0.07936447 -0.47437558 -0.75319624
-0.4546239 -0.282507 -0.3113619 0.4519575 -0.7295011 0.4897759 0.4238342 0.65793735
-0.1067343 -0.32111284 -0.6939501 -0.046435006 -0.52188087 -0.35064623 0.71544856 0.6962279
-0.6371675 -0.5429372 -0.05873342 0.38373563 0.46407667 0.29604885 0.026576785 0.25531092
0.37906995 -0.4224757 0.41779512 0.37876466 -0.020977365 -0.45603403 0.7724088 -0.13296616
0.40864116 0.36314145 -0.36142793 0.24888118 0.060356483 -0.14426507 -0.3619219 -0.7962258
0.4094425 -0.49977687 0.033984218 0.5111821 0.030003287 0.6365322 0.122824736 0.16913967
0.71048534 0.20761432 0.5631461 0.32862958 0.3560553 0.27316648 0.6480887 0.20954305
-0.08872253 -0.21491636 -0.45111656 -0.5340084 -0.10205601 -0.0919427 -0.5727362 -0.15730083
0.29525298 0.13136093 0.7570671 0.6797225 0.09083486 0.1774462 -0.14443128 0.013211034
0.5098865 0.77157426 -0.46375778 -0.49597287 -0.43612796 0.26017517 0.6168087 0.072232455
0.56739247 0.41460308 -0.24149305 0.5633369

output.weight f4 [11, 100]
00000000: 24ac c4bd 6f8f d93e dd97 833f b70e 83be
00000010: 8255 d93d c33a 8b3f ed93 b83e 16ad 3cbe
00000020: c13e 89be 6c01 473b 4355 fb3e 250e 90be
00000030: cca2 86be bf11 4c3d 6751 063f 373f a73e
00000040: c5c9 783f c348 b33e f6d0 823e 5f84 103d
00000050: e12e eebe 771d f33d 8e8e 1e3e 34e2 1f3f
00000060: 84e5 24bd 9c49 1cbd eef1 04bf a3d5 03bf
00000070: 432e 34be abf8 833e 7880 98be af95 a0bc
00000080: d0c5 7cbe 56b0 e43e bbd0 59be b886 a9be
00000090: e2f2 a43b e76b dcbd bd65 82bd 5c6e 813e
000000a0: cdf9 00bf 86d9 1a3c 2f60 1a3f bdcf abbe
000000b0: c367 e93e 07f6 3e3e f2ef de3d dde9 213f
000000c0: 7247 20bf 6e91 bd3e 2f3c 883e ae39 7abe
000000d0: ce5e 20bf fb00 713f f35e 9f3e 7312 1c3e
000000e0: 10fc 073f b392 d83e 6857 923e 3e0e d3be
000000f0: 7d8c d5be a8ff 08bd 366d 9f3c 3e71 8fbe
00000100: ecec e9be 0fb5 b63e ed67 39be fc1b b8be
00000110: 7f61 30be 1873 5dbe 830b 6d3d c8d7 113e
00000120: 98ba 3c3e 9b15 183e 8d8a f43e a585 b03e
00000130: b0d5 ed3e 03f8 47be f82e aebd d52f 67be
00000140: abf5 a73d 0a08 e33e 3b29 383e fedc c03e
00000150: 8ff4 843e ddb9 a33e 452a cb3e 3039 85be
00000160: 9d0c 0ebe 5f19 fabe ac92 1d3f 7a67 293f
00000170: dfcc 883e 7a96 843e 9af3 bf3e f6c3 d8be
00000180: 6e13 223f c5cc 98be 9748 233f 8cab 82be
00000190: e863 2f3e f335 243e 899a 523d aadc 133e
000001a0: aa38 bfbd 68dd 8bbe 7ed0 383e bd87 b53d
000001b0: d5a1 7bbe ab06 a6be e656 d3bd 65e1 cebe
000001c0: 7374 61be dcb5 bf3e 3a58 46be db29 4a3f
000001d0: c7b2 23bd e4cf 183d f48f 383f 6758 da3e
000001e0: 9038 1b3e 8f6b c93e fb74 fcbd 92e6 7cbd
000001f0: 64f8 2abe 948f b73c 819c 0e3e 8391 de3d
00000200: a6ae 92bd 03ae f43e d055 92be 3071 0a3d
00000210: 0a91 14be 5dd4 bf3d c450 4abb b064 5fbd
00000220: 04d0 c33e 58e3 c3be 3cb4 fabd 64cc 553e
00000230: a928 123e 57e7 8d3d f0d0 e5bd e6be 97be
00000240: d897 573e 74ba 403e 7902 30be 40df c3bc
00000250: 6692 78bd 4907 9abd 83be 8ebd 43dd b0be
00000260: 14f9 303e b295 bebb 9b6d 293f c9e7 b13e
00000270: 4f8e 483e d81e 0c3d 9ad4 eebb a7da fd3d
00000280: 2b25 c7bc 958a 65be 7979 48be c944 173d
00000290: 23b3 44bb 1e6f 17be 6529 99be 6784 f73d
000002a0: 3637 4c3d f2d2 05be 6fec fd3d f264 88be
000002b0: 144d 4c3f dd4f ec3d 58c7 853d bc6e 00be
000002c0: cae2 9e3d bb92 d4bd cd89 1abf e68c 98bd
000002d0: 52d8 6b3e a748 1d3e 576a 893e 1de5 e63e
000002e0: bc06 87bb e553 563f 6fbf bebb 12cc 23bd
000002f0: 6c5b 2cbe 4fd4 10be 0f4a d0bd f25a 13be
00000300: 07fb 163e f6e1 683d b4a2 3c3d 3b92 003d
00000310: c544 153d a613 2cbf 3fc9 9e3c 6cc0 17be
00000320: 1904 9fbc e39e bb3e 655d 343a dd74 88be
00000330: 2e40 49be 3263 cebb 838c cd3e da50 a3be
00000340: c0d5 cdbd 5d4a 7f3e e988 9cbd bb66 ffbd
00000350: e87c 403e 68fa f5bd cad7 0a3f 642d 043e
00000360: c9c9 11bd d83c d63e 3ae1 8fbe 7843 eabe
00000370: 16a2 f43c 2834 b03e 97e0 c83e d7ec 31be
00000380: f13b b6bc 5b6d 44bd 56a0 8fbe 1849 2dbd
00000390: a72b 91be 4a11 d03e ac23 3cbf d5a0 52be
000003a0: 2c6c bd3e 62fe cc3d c6ec 92bc 26ac 663e
000003b0: 542b d9be f3cd 20be 1b75 053e 04da 87be
000003c0: 40d8 dcbe dca7 553d 5739 18be 8fdc 01bf
000003d0: 21d2 8bbe 2b3b 8a3e 6fe5 a0be 0373 c43e
000003e0: bcf2 a8be f5ae 24be bc75 03be 53aa 643e
000003f0: 48ad 263e 5b02 9dbd 42a3 ea3e 2954 a53c
-0.09603146 0.42492244 1.028072 -0.25597164 0.106120124 1.0877308 0.36050358 -0.18425402
-0.2680569 0.0030365838 0.49088487 -0.2813579 -0.2629608 0.04982161 0.5246796 0.32665417
0.97182876 0.3501645 0.2555005 0.03528249 -0.4652014 0.11870854 0.15484068 0.62454534
-0.040257946 -0.038156137 -0.51931655 -0.5149786 -0.17595772 0.25775656 -0.29785514 -0.019602625
-0.24684834 0.44665784 -0.2127103 -0.33110595 0.0050338367 -0.10762768 -0.06367061 0.2527951
-0.50381166 0.009451276 0.60303015 -0.3355693 0.45586976 0.1864854 0.1088561 0.6324747
-0.62609017 0.37025017 0.26608416 -0.24436066 -0.6264466 0.9414212 0.31127128 0.15241413
0.5311899 0.42299423 0.2858231 -0.41221803 -0.41708747 -0.033446938 0.019461256 -0.28016084
-0.4568857 0.35685012 -0.18106051 -0.3595885 -0.17224692 -0.21625936 0.057872307 0.1424247
0.18430555 0.14851992 0.47761956 0.34476963 0.46452093 -0.19528203 -0.08505052 -0.2257684
0.08201154 0.4434207 0.17984478 0.37668604 0.25967833 0.3197774 0.39680687 -0.26020193
-0.13871999 -0.48847482 0.6155193 0.6617352 0.26718804 0.25896055 0.3749054 -0.42337006
0.633109 -0.29843727 0.6378264 -0.25521505 0.17127955 0.16036205 0.051416907 0.14439645
-0.0933698 -0.27317357 0.18048283 0.08863781 -0.24573453 -0.32426962 -0.10319309 -0.40406337
-0.22017078 0.37443435 -0.19369593 0.78970116 -0.039965417 0.037307635 0.72094655 0.4264557
0.15158296 0.39339873 -0.12327 -0.061743326 -0.16696316 0.02240733 0.13926889 0.10867598
-0.07162218 0.4778901 -0.28581095 0.03379935 -0.14508453 0.09366677 -0.0030870894 -0.054539382
0.3824464 -0.38259387 -0.12241408 0.2087875 0.14273323 0.0692889 -0.11221492 -0.2963783
0.21054018 0.18821126 -0.17188443 -0.023910165 -0.06068649 -0.07520921 -0.06969931 -0.3454381
0.17282516 -0.005816185 0.6618287 0.3474715 0.19585536 0.034209102 -0.0072885277 0.1239522
-0.024309715 -0.22416146 -0.19577588 0.036930833 -0.0030014 -0.14788482 -0.29914394 0.120858006
0.04985734 -0.1306875 0.12398612 -0.26639515 0.7980511 0.1153867 0.065321624 -0.12542242
0.077581 -0.10379549 -0.6036652 -0.07448749 0.23031738 0.15359746 0.26838943 0.45096675
-0.004120676 0.8372176 -0.0058211605 -0.03998954 -0.1683175 -0.1414349 -0.101703756 -0.14390162
0.14744197 0.05685612 0.046053603 0.031389456 0.036442537 -0.6721748 0.019383071 -0.14819497
-0.019411134 0.36644658 0.0006880372 -0.2665166 -0.19653389 -0.006298446 0.40146264 -0.31897622
-0.10050535 0.24930711 -0.07643301 -0.12470766 0.18797648 -0.12010652 0.5423552 0.1290794
-0.035592828 0.41843295 -0.28101522 -0.457546 0.029862445 0.34414792 0.39233848 -0.17375503
-0.02224538 -0.047955852 -0.28052014 -0.042306036 -0.28353617 0.4063819 -0.7349193 -0.20569165
0.3699659 0.10009457 -0.017935168 0.22526607 -0.4241587 -0.15703563 0.13032953 -0.2653352
-0.43133736 0.052162036 -0.14865623 -0.5072717 -0.27308753 0.26998267 -0.31425044 0.38368997
-0.32997692 -0.16082366 -0.12837881 0.22330599 0.16277039 -0.07666465 0.4582768 0.020181732

output.bias f4 [11]
00000000: b5d6 5dbf ee30 89bd 3aea 8d3e 7af8 1d3f
00000010: cd8e 1ebe 8b2b 783c ea3a c2be 522e a1bf
00000020: e82a 95be f237 1d40 3181 aabf
-0.8665574 -0.06698786 0.27717763 0.6170727 -0.15484162 0.0151471 -0.37935573 -1.2592261
-0.29134297 2.4565396 -1.3320676
