models/model_lstm1.pth (torch, 72355 bytes, 10 tensors)

lstm.weight_ih_l0 f4 [128, 35]
000000 2c 1e 63 3f 5e 22 b3 3f 59 e0 3b bc 44 82 d4 3f
       0.88717914 1.3994863 -0.011467063 1.6602254
000010 3e 80 be c0 12 21 80 3f 94 32 63 3f 74 67 24 be
       -5.9531546 1.0010092 0.8874905 -0.16055089
000020 cf 9c fd bf f2 0f a9 bf b2 43 a4 3e 2e 70 c9 c0
       -1.9813479 -1.3207991 0.32082897 -6.294944
000030 c5 ed 97 bf 0b e7 12 3d 70 04 54 40 33 91 d0 be
       -1.1869437 0.03586487 3.3127708 -0.40735778
000040 6e f6 78 c0 c4 7c f6 c0 fc e2 12 bf 8e 34 a8 3f
       -3.8900409 -7.70273 -0.573776 1.3141038
000050 f8 de 07 bf 82 4d 06 c1 9b 41 01 c1 aa bb 80 40
       -0.530746 -8.393923 -8.078517 4.022908
000060 aa 43 00 40 a9 5f a2 c0 64 6d 24 c0 da 2e 9f 3f
       2.00413 -5.0741773 -2.5691767 1.2436173
000070 53 02 29 40 74 12 21 40 b6 81 80 40 54 f0 94 40
       2.6407669 2.5167513 4.015834 4.654337
000080 e9 af 9f 40 ae d5 51 3f 7b e7 b9 3e b5 12 cc 3f
       4.9902234 0.81966674 0.36309418 1.5943209
000090 f7 72 61 c0 cb 1d 37 40 51 3c c8 3d 54 65 35 3f
       -3.522642 2.8611934 0.097771294 0.7085774
0000a0 c4 ed 53 3f 02 95 da 3f 78 9d af bf 2a e6 9e 40
       0.82784677 1.7076724 -1.3719931 4.965596
0000b0 9f 0d 65 40 2c c3 3b 40 9f cf 10 3f fd 0e 95 bf
       3.5789564 2.9337873 0.56566805 -1.1645199
0000c0 66 c4 0e 3e 00 ac 28 3f d6 61 5a bf 16 e2 24 3f
       0.13942108 0.6588745 -0.85305536 0.6440748
0000d0 96 c4 9a 3f 7b 51 15 40 23 0e 30 bd d8 a8 c9 bd
       1.2091243 2.3330982 -0.04298223 -0.098466575
0000e0 03 df d9 3d c2 f6 08 be 5a ee 12 40 57 5c 37 40
       0.10638239 -0.1337538 2.2957978 2.865011
0000f0 f2 a6 62 40 b6 70 41 40 70 62 28 3f d8 e0 18 3f
       3.5414395 3.0225043 0.65775204 0.59718084
000100 f9 14 96 3f da cf 46 3f c2 b7 14 bf 08 32 c7 be
       1.172515 0.77660906 -0.5809289 -0.38905358
000110 10 f9 f0 40 62 db ed 40 fb 3f 09 40 7d 13 7f 3f
       7.530403 7.43303 2.14453 0.9963911
000120 24 80 c3 40 20 84 4a c0 54 a4 d7 bf af 78 81 3f
       6.109392 -3.1643143 -1.6847024 1.0114955
000130 60 a8 00 40 52 69 03 bf 2a 47 d1 40 64 1c 12 40
       2.0102768 -0.5133258 6.539937 2.2829828
000140 97 d2 8d 40 be a5 a5 c0 93 b5 05 c0 32 a5 b5 3f
       4.431957 -5.176482 -2.0892074 1.4191039
000150 c2 22 0f bf c2 7a d5 c0 73 10 cc bf 98 cb de bf
       -0.5591241 -6.671235 -1.594252 -1.7405882
000160 61 09 1d 40 40 16 91 be 18 01 0d c0 8b 7d 0f c1
       2.4536974 -0.28337288 -2.2031918 -8.96815
000170 4e 04 dd c0 c8 d0 3d be e5 43 06 40 95 c6 0a 40
       -6.9067755 -0.18536675 2.097894 2.1683705
000180 6c fc 62 3f b2 2c 94 3f 9b 5f 43 bf e4 56 9e 3f
       0.88666415 1.157614 -0.7631776 1.2370267
000190 3f 45 23 be 63 95 17 c0 90 e5 74 bf 42 f6 f0 40
       -0.15944384 -2.3684928 -0.95662785 7.530061
0001a0 b6 14 a6 40 e5 43 39 40 11 8d 2d 40 cd 28 cc 3f
       5.190028 2.894769 2.711735 1.5949951
0001b0 3e 3f 42 3e d5 fc b9 3d 17 9e 4b 3f 88 a2 37 40
       0.18969437 0.09081427 0.795381 2.8692951
0001c0 f8 cc 98 40 98 c7 06 40 d9 4a 82 3e 22 6e 01 3f
       4.7750206 2.1059322 0.2544773 0.50558674
0001d0 0b af 82 40 42 c9 29 3e 3f 24 a4 3f 97 3f fe 3e
       4.0838675 0.1658068 1.2823561 0.4965789
0001e0 d6 eb 34 be 8a b1 13 3f 8a 0d 9d be 86 76 18 40
       -0.1766809 0.5769278 -0.30674392 2.382234
0001f0 b9 74 68 3e 25 66 5c bd ee f8 1d bf de 8e 0d 3e
       0.22700776 -0.05380835 -0.6170796 0.13824031
000200 8e 16 0b bf 56 7e f7 3e 47 4f cf 3f 24 44 a5 bf
       -0.5433129 0.48338574 1.6196069 -1.291142
000210 ee 18 85 3f 72 95 86 3f a1 17 0f 40 a2 b4 d1 3f
       1.0398233 1.0514357 2.2358172 1.638325
000220 4a 5e 53 be 02 6a c7 bd 93 5c ee bf ad cc 3c c0
       -0.20641437 -0.09737016 -1.8622001 -2.9499924
000230 32 82 38 3f 2b 50 52 3f 7f ad 8c 3f 5b eb 0b 40
       0.7207366 0.82153577 1.0990447 2.18624
000240 19 3b 89 3f 33 8c 58 c0 55 47 53 3f 4a 2d ce bf
       1.072116 -3.383557 0.8253072 -1.6107571
000250 ea 4c 00 c0 5c 75 db 3f 64 73 5d bf 98 83 19 bd
       -2.0046945 1.714519 -0.865042 -0.037479013
000260 38 b7 18 3f 85 ce a0 bf f6 43 12 40 84 c0 fb 3f
       0.5965457 -1.2563025 2.285398 1.9668126
000270 52 c3 34 be a2 a7 49 40 19 cd 82 be 6a 8e 36 3e
       -0.17652634 3.1508565 -0.25547102 0.17827764
000280 72 05 2e 40 fd 97 39 3e 00 65 b1 bd 7d df 8e 3f
       2.7190824 0.18124385 -0.08661842 1.1161953
000290 c1 a4 93 bf bb 1b 8a 3e 07 21 66 3e 66 e8 b2 3f
       -1.1534654 0.26974282 0.22473536 1.3977172
0002a0 30 7b 43 40 08 c2 0d 40 e5 83 25 40 ed 04 df 3e
       3.0543938 2.2149677 2.5861752 0.43558446
0002b0 86 3b dc 3f 67 e1 48 40 1e 8f 67 40 ea 2e 87 3e
       1.7205665 3.1387575 3.6181102 0.2640298
0002c0 b8 f7 22 40 d4 ae ef bf 24 74 19 c0 db 71 12 c0
       2.5463696 -1.8725228 -2.3977137 -2.2881992
0002d0 67 ac 4c bf d0 fa 67 3e 4d b0 36 40 ff 13 16 c1
       -0.79950565 0.22654271 2.8545105 -9.379882
0002e0 63 a4 38 3f 40 47 46 bf da 09 f9 c0 0c d4 4d 3f
       0.72125834 -0.7745247 -7.7824526 0.8040168
0002f0 b4 28 1a bf 8c 75 33 c0 d6 f8 38 bf 99 bf 3d c0
       -0.6021836 -2.8040495 -0.72254694 -2.9648192
000300 79 55 83 bf a8 62 8a c0 fc bb 97 bf 4c de 0a c0
       -1.0260459 -4.324543 -1.1854243 -2.169818
000310 93 08 9c 40 f3 45 17 bf 95 ca 7b 40 f6 c5 c4 bf
       4.8760467 -0.5909111 3.9342396 -1.5372913
000320 92 ac d2 bf 68 57 49 c0 5b 24 49 c0 1d e5 33 c0
       -1.6458914 -3.1459599 -3.142844 -2.810859
000330 28 d7 f6 3f 48 44 d3 40 6c 6e e7 bf 4e 0a 28 c0
       1.928441 6.602085 -1.8080573 -2.625629
000340 cb 0a db be c6 f9 1c 40 02 df 19 bf 76 db 72 3f
       -0.42781672 2.452745 -0.6010591 0.9486612
000350 46 52 05 c0 56 10 3d c0 8c a6 85 bf c5 60 e7 be
       -2.0831466 -2.954122 -1.0441451 -0.45191017
000360 f5 c9 49 bf fb 6f 24 40 52 76 54 bf ac 41 8c bf
       -0.78823787 2.5693347 -0.8299304 -1.0957541
000370 2e e7 d0 bf 21 11 bb 3f 98 ff 89 40 76 bb 9b bd
       -1.632055 1.4614602 4.3124504 -0.07604115
000380 18 68 2a c0 d8 fe 5a c0 3e 9b 0a bf 2d 8b d8 bf
       -2.6626034 -3.4218044 -0.5414313 -1.6917473
000390 da 3b 88 c0 27 a5 af 3e ed fe c9 3f 75 74 61 be
       -4.257306 0.3430569 1.5780922 -0.22017081
0003a0 1e a0 14 3f 79 c5 7e 40 ff 5e e0 40 69 de e4 3f
       0.5805682 3.9808028 7.011596 1.7880374
0003b0 a3 b9 17 40 6a 33 e9 bf 5b a9 23 c0 c7 6b 85 40
       2.3707054 -1.8218815 -2.5572116 4.1694064
0003c0 cd 24 b8 3f 6b e1 82 be 39 ec 1b 3f 40 dc f7 3f
       1.4386231 -0.25562605 0.6090732 1.936409
0003d0 3b 0b 54 bf 76 a1 0a 40 0b 10 8e 40 7d 0c bc bf
       -0.82829636 2.1661048 4.4394584 -1.4691311
0003e0 f7 ae a2 bf de 7a 1a be cf 1f 1f 40 72 42 0e 40
       -1.2709645 -0.15085933 2.4863164 2.2228055
0003f0 b3 81 89 bf 98 8d 85 40 1e 78 19 40 58 c2 0e 40
       -1.0742706 4.1735344 2.3979564 2.2306118

lstm.weight_hh_l0 f4 [128, 32]
000000 97 4d 8b 3d 34 e4 f9 bc d1 01 16 3d b4 e7 e8 3b
       0.068019085 -0.030504324 0.036622826 0.0071076993
000010 17 52 4a bc e0 d7 50 3d d2 a8 31 3d 3b 55 32 bd
       -0.012348673 0.050987124 0.04337389 -0.043538313
000020 7c ea d6 bc 0e 7c 9f bd df da 2f bd 63 c9 61 bd
       -0.026234858 -0.077873334 -0.04293334 -0.055123698
000030 ec da 3b 3d 12 8e 63 3c 40 9a a3 bb 2b 9b 02 bd
       0.045863077 0.013888853 -0.0049927533 -0.03188626
000040 13 1a 01 3b 93 bf fe 3c 12 40 8b bd 06 0c 58 3d
       0.001969938 0.03109721 -0.0679933 0.05274584
000050 08 5d 0a 3e 01 87 71 3d a6 74 e8 3c 91 32 d3 bc
       0.13512051 0.05896664 0.028375935 -0.025780948
000060 60 60 3a 3d a8 bf 61 3d ff cb 8a bc 01 16 b5 3c
       0.045502067 0.05511442 -0.016942976 0.022105219
000070 ce e2 b0 3d 74 bd 25 3d c2 f4 9b 3d 2f 2f 2f 3d
       0.086370096 0.04046388 0.07615043 0.042769607
000080 cf 05 26 be 0a c4 8e 3d d7 63 80 be 3b be e3 3c
       -0.16213153 0.06970985 -0.25076172 0.02780067
000090 0e 4c 4b 3e 63 6c 7d bd 92 7c cc 3d 05 93 8c 3e
       0.19853231 -0.061870944 0.099846974 0.27455917
0000a0 e4 0e e6 bd 1e 81 1c bd 8d aa 8c 3d dc 99 c0 bd
       -0.11233309 -0.038209073 0.068684675 -0.09404346
0000b0 ca c4 3f 3d 92 b9 c3 3c 14 ea 89 3e b2 cb d4 3e
       0.046818532 0.023892198 0.269364 0.41561657
0000c0 96 e7 52 be d8 d9 26 3f b5 dd 0d 3e 34 01 8a 3e
       -0.20596156 0.65176153 0.13854106 0.26954043
0000d0 80 01 42 3e ec d2 e7 3d ad c3 e0 be c9 04 29 3e
       0.18945885 0.11319527 -0.4389929 0.16505732
0000e0 92 4d fa bd 4b 9a 89 3e d3 ef d9 3d 4b c0 59 be
       -0.122218266 0.2687553 0.10641446 -0.2126476
0000f0 1a 35 24 3e 26 f7 d4 3e 2f 03 69 bd fe f1 93 bd
       0.16035882 0.4159481 -0.0568878 -0.07223891
000100 a1 2c 83 be 45 73 03 3e 2e d7 28 3e c0 43 a1 3d
       -0.25619987 0.1283694 0.16488335 0.078742504
000110 40 c4 22 bd 74 3b 9c 3e e7 fe c2 3d c7 6f 5d bd
       -0.03973794 0.3051411 0.09521275 -0.054061677
000120 b3 55 47 3d 8a c1 42 3e 74 3f 58 be 43 91 88 be
       0.048665714 0.19019142 -0.21117955 -0.26673326
000130 4e fa 07 3e 4b 38 0d 3e f5 b1 60 be a4 34 c7 3c
       0.13279077 0.13791005 -0.21942885 0.024317093
000140 87 1d 29 3d 65 00 bf 3e 91 be 97 3d d6 6b 1e bd
       0.041287925 0.37304989 0.074093945 -0.03867706
000150 78 ec 8d 3e b7 42 36 3e b4 96 25 be 21 03 2e 3d
       0.27719474 0.17798887 -0.1617077 0.042483453
000160 09 3f 59 be 4b 11 67 be d7 41 82 3e 3e 48 a8 bd
       -0.21215452 -0.2256519 0.25440857 -0.08216904
000170 e0 88 05 be 36 9d 35 be b6 71 44 be bd 64 a8 3e
       -0.13040495 -0.17735752 -0.19184002 0.32889357
000180 5c ef 76 3d f5 8a 57 bd 0e 11 35 be 5d 9b 8e 3e
       0.060286865 -0.052622754 -0.17682287 0.27852908
000190 b0 ba c2 3d 5b ce 08 3e 8f 5c 2c be 7c 74 ed 3d
       0.09508264 0.13359968 -0.16832183 0.11594483
0001a0 e2 69 22 bc 77 1c 01 be d8 b1 41 3c 56 7f 85 bd
       -0.00991294 -0.12608515 0.011822186 -0.06518428
0001b0 24 65 a4 3d 25 54 b6 bd 10 ca ad 3c ca 49 42 3e
       0.080271035 -0.08902768 0.021214515 0.18973461
0001c0 7d e4 21 bd d9 13 72 3d 17 57 a9 bd 9d 2f 2a 3e
       -0.039524544 0.05910096 -0.08268564 0.16619726
0001d0 1c 71 8d be 28 ab fb 3d 8f d2 49 be 91 07 91 be
       -0.27625358 0.12288505 -0.19709228 -0.28326085
0001e0 92 9a ce ba 13 74 fb bb 0e 26 07 be 24 e0 91 3d
       -0.0015762618 -0.0076737492 -0.1319811 0.071228296
0001f0 52 85 4d bd 09 5c 27 bd 60 23 c0 3d ed 73 b4 3d
       -0.050175972 -0.040859256 0.09381747 0.088111736
000200 88 08 28 3d 18 52 8b 3e a1 74 d4 bc 2c be 06 be
       0.04102376 0.2721107 -0.02593452 -0.13158482
000210 5d 70 e5 bd 39 a9 92 be f9 9d 7e 3d fb 26 bd bd
       -0.11203072 -0.28644732 0.062162373 -0.092359506
000220 bc 59 f7 bc 39 b7 07 3e 6b 71 75 3d 01 fc 6c bb
       -0.030194156 0.13253488 0.059922617 -0.0036160948
000230 4f 94 6f 3d 87 b5 8e bd d1 8b 5e bd ec 8c 73 be
       0.058491047 -0.06968217 -0.054332558 -0.23784226
000240 53 43 2b 3e b7 36 f3 bd e3 cf c7 3c 0b 03 10 3d
       0.16724901 -0.118756704 0.02439112 0.035159152
000250 dd 66 a8 bd 21 70 12 3d 6b b1 07 3e cc 42 91 3d
       -0.082227446 0.035751466 0.13251273 0.070928186
000260 7b 84 2d bd 5a f5 c8 3d 6d e5 9f 3d 05 3b 08 3e
       -0.04236267 0.09812422 0.07807431 0.13303764
000270 a8 e3 67 bb 93 bc b1 3d 24 63 f2 bc 44 fd 80 3e
       -0.0035383496 0.08678546 -0.02958829 0.25193226
000280 ae ea d5 3b 4e 68 19 3b 41 a0 24 3d 41 a1 b3 bb
       0.00652822 0.0023408118 0.040191893 -0.0054818694
000290 28 8b 2f 3d 91 99 0a bd af ee 2d bd a4 5d 80 bc
       0.04285732 -0.03383786 -0.042463955 -0.015669651
0002a0 32 56 d7 3c d0 36 ac 3c ad b1 38 3d 7b ca 4c bd
       0.026286218 0.02102223 0.04509132 -0.049997788
0002b0 75 68 2c bd 7a 03 1b bd 0b ae 3f 3d f4 c4 86 3d
       -0.042091805 -0.037845112 0.04679684 0.065805346
0002c0 52 57 77 3b cf 8b b1 3c 52 a8 56 bc d0 41 50 bd
       0.0037741256 0.021673111 -0.013101654 -0.050844014
0002d0 70 eb 80 3c c5 db e4 3b 3f 61 d4 bc 34 40 70 bc
       0.015737265 0.0069842064 -0.025925277 -0.014663745
0002e0 b7 ca bf bc fb a8 83 3c d5 01 2c bd 44 37 8f bc
       -0.023412092 0.016071787 -0.041993935 -0.017482407
0002f0 b8 fa 5d bd d8 ba 82 3c 87 d7 59 bc e0 02 4b bc
       -0.054194182 0.015958235 -0.013296015 -0.012390822
000300 98 19 10 bc a0 50 20 3e 8c 07 cc bd 6f 77 85 bc
       -0.0087951645 0.15655756 -0.09962377 -0.016292302
000310 c5 86 b1 3b b6 6e 08 3e 09 89 a0 bc 91 cc 57 3c
       0.005417677 0.13323483 -0.019596593 0.013171331
000320 38 d7 f7 bd 86 56 ad 3d 9e 8a 0d 3e 58 2e 9c bd
       -0.121015966 0.08463769 0.1382241 -0.07626027
000330 4c 5c 98 bc ba 29 ea bc 57 a1 37 bd ea 1b c1 bc
       -0.018598698 -0.02858435 -0.0448316 -0.02357288
000340 d6 24 a2 3b 2e 40 57 bd cd ae 21 bb 23 29 98 3d
       0.004948239 -0.05255144 -0.002467084 0.07429721
000350 5e 18 6f 3d 59 7c 61 3d 78 7f af 3c 77 85 8e 3d
       0.058372848 0.055050228 0.021423087 0.0695905
000360 32 16 a1 bd b6 35 00 3d d0 3d 79 bd 97 9a 5f 3d
       -0.078655615 0.031301223 -0.060849965 0.054590788
000370 43 9c 8a 3d 78 f3 b0 3c f3 cd a1 3c 08 15 3e 3d
       0.06768086 0.02160047 0.019751525 0.046406776
000380 91 a2 ba 3d be 81 cc 3e 7b 18 21 bf fb 70 89 3e
       0.09113038 0.39942735 -0.6292798 0.2684401
000390 42 0b f7 3d 67 20 2a 3e b8 f0 c2 3d 99 5b 1e 3e
       0.12062694 0.16613923 0.0951857 0.15464629
0003a0 f5 81 03 3f 65 21 3f 3d 10 3d c0 be 84 ca 8c be
       0.51370174 0.046662707 -0.37546587 -0.27498257
0003b0 e8 47 f5 be 11 f3 88 be 4d 51 8a be a4 6e 40 3f
       -0.47906423 -0.26747945 -0.27015153 0.75168824
0003c0 6d ea 2b bd 4d 2b 1f 3d ae eb 6e 3e 93 a8 c7 3c
       -0.041971613 0.038859654 0.23332092 0.024372375
0003d0 65 00 27 3c c4 d0 03 bf 38 3b 31 3f 16 f4 c9 3e
       0.010192965 -0.51490426 0.69230986 0.39444035
0003e0 f4 68 db bd 34 49 c7 3e 0a b8 b7 bc fe 52 bd 3d
       -0.107133776 0.38923037 -0.022426624 0.09244345
0003f0 48 7c 14 3f 48 43 d5 be cc b7 6a be 29 ff ad 3e
       0.5800214 -0.41652894 -0.22921675 0.33983734

lstm.bias_ih_l0 f4 [128]
000000 7b 45 5a 3d aa 61 d2 3f fd b0 25 3f 99 2f 51 40
       0.053288918 1.6436055 0.6472319 3.2685301
000010 a9 07 2e 3f 5d c6 a9 bf c8 15 67 3b 0c a1 0a 40
       0.6798044 -1.3263661 0.0035260785 2.1660795
000020 c8 88 87 be 4b 66 87 bf 84 b1 1c 40 44 93 ff 3f
       -0.26471543 -1.0578092 2.4483347 1.9966817
000030 fb be 39 bf 3d 14 0a bf 27 cb 76 3e 80 7d 8a bf
       -0.7255704 -0.5393713 0.24100934 -1.081955
000040 5e 94 77 40 7f 1b de be f6 a7 08 40 19 ab 31 bf
       3.8684306 -0.43380353 2.1352515 -0.694017
000050 95 a2 f8 3e 48 21 0a bf d8 e1 71 3f 09 85 e0 3f
       0.4856154 -0.53957033 0.94485235 1.7540599
000060 91 90 47 be 75 16 0d be 09 01 8a bd e8 7c 4c bf
       -0.19488741 -0.13778098 -0.06738479 -0.7987809
000070 d9 51 5d 3f 9d 67 08 3f f9 99 27 bf 71 15 03 40
       0.86453015 0.532831 -0.6546932 2.0481837
000080 f5 12 de bf d9 ae e0 bf 2c fa cd bf 42 7b dc bf
       -1.7349535 -1.7553359 -1.6091971 -1.7225115
000090 4b dd be bf a6 8f ee bf 93 21 e2 bf 4c 0a d5 bf
       -1.4911283 -1.8637588 -1.7666496 -1.6643767
0000a0 b1 e7 08 c0 66 83 fd bf 56 e0 e3 bf d4 cc 07 c0
       -2.1391413 -1.9805725 -1.7802837 -2.1218767
0000b0 e5 3d f2 bf b6 41 b7 bf 5c c3 fb bf 4f cb 20 c0
       -1.8925139 -1.4316928 -1.9668994 -2.512409
0000c0 0b d8 b2 bf e9 2b ed bf 27 ca 09 c0 ba bd e6 bf
       -1.3972181 -1.8529025 -2.1529634 -1.802665
0000d0 6f fd d4 bf 5c 73 ef bf 40 95 eb bf 99 88 e6 bf
       -1.6639842 -1.870708 -1.8404922 -1.8010436
0000e0 8f ba eb bf b8 7b fd bf 27 6a d6 bf eb 5a cd bf
       -1.8416308 -1.9803381 -1.6751145 -1.6043371
0000f0 2f b5 de bf 50 d8 bf bf fa c1 d2 bf fa 37 e9 bf
       -1.7399043 -1.4987888 -1.6465447 -1.8220208
000100 29 cb 1b 3f ec df 62 be d1 77 a2 bf 51 61 2b bf
       0.6085687 -0.22155732 -1.2692815 -0.6694537
000110 06 8d 20 3f da 60 e7 3e 89 a8 40 bf 10 6e 29 bf
       0.62715185 0.4519108 -0.75257164 -0.6618357
000120 64 26 d4 3e 55 7f ea be f7 c7 68 bf 9d 38 cd be
       0.4143554 -0.45800272 -0.9093012 -0.40082255
000130 50 3d ff 3e e1 32 08 be de 20 88 3f c6 31 b4 be
       0.49851465 -0.13300659 1.063503 -0.35194224
000140 ea 2c 54 bf ed 5c 65 3f e1 b3 02 bf f6 c8 23 3f
       -0.82881033 0.8959492 -0.51055723 0.6397852
000150 e4 57 61 3f c8 a7 c1 3f d2 08 c0 3d 94 62 11 3f
       0.88024735 1.5129328 0.09376682 0.56791043
000160 8a 36 cb be 37 95 1e 3d bc fb 86 bf e9 aa 28 3f
       -0.39690048 0.03871652 -1.0545573 0.6588579
000170 3b 19 8c be e7 94 e7 be 38 39 f4 be fc 08 37 3f
       -0.27363 -0.4523079 -0.47699904 0.71498084
000180 e0 62 af 3e f3 02 61 3f 09 06 17 be 64 1a 21 40
       0.34255123 0.87895125 -0.14748396 2.5172358
000190 05 89 39 3d 52 4b 6f bf 13 4c 79 bd 99 95 1c 3f
       0.045296688 -0.93474305 -0.060863566 0.6116577
0001a0 ea 33 e1 3f b6 a9 75 bf 72 70 cf 3f 60 f3 e1 3f
       1.7593968 -0.95962083 1.620619 1.7652397
0001b0 37 5e 12 bf 5b e6 28 3f 1a f9 5a 3f fa 52 3b bf
       -0.5717501 0.65976495 0.8553635 -0.7317349
0001c0 d2 b9 92 40 e8 c0 5e 40 0a 79 bb 3f e1 24 f3 be
       4.585183 3.480524 1.4646313 -0.47489074
0001d0 d9 95 45 3f 9b 11 bc 3f 39 02 a6 3f 4f 3e b4 3f
       0.77181774 1.4692873 1.2969428 1.4081515
0001e0 80 92 3d bb 7e af 09 3e 9c cd f5 bd 89 1b 26 bf
       -0.0028926432 0.13445851 -0.120021075 -0.64885765
0001f0 c1 30 81 3f 8b 29 d0 3e 48 0f 1a bf 56 dc da 3f
       1.0093004 0.40656695 -0.6017957 1.7098491

lstm.bias_hh_l0 f4 [128]
000000 d3 49 c4 3c 5b c6 bf 3f 24 2b 1c 3f 1f a0 56 40
       0.023960983 1.4982408 0.6100333 3.353523
000010 a4 05 49 3f 4e c3 ca bf 5a f4 7e bc b5 57 13 40
       0.7852423 -1.5840852 -0.015561188 2.3022282
000020 42 41 ae be 3e bb 85 bf 2e 74 22 40 96 1c fd 3f
       -0.34034163 -1.0447767 2.538341 1.9774349
000030 6b 80 21 bf f8 87 c3 be 3c 65 de 3e 1c 63 93 bf
       -0.63086575 -0.38189673 0.4343661 -1.1514621
000040 99 13 7f 40 fc c5 10 bf 47 e5 06 40 99 3d 0a bf
       3.9855711 -0.565521 2.107744 -0.5400024
000050 c9 ff 17 3f 92 91 0a bf 64 ff 4d 3f 25 99 ec 3f
       0.5937467 -0.5412837 0.8046782 1.8484236
000060 e2 0f 92 3b 93 31 8e be a6 93 dd 3d 92 c3 25 bf
       0.00445746 -0.27772197 0.10819177 -0.6475154
000070 e6 6e 86 3f 50 ba fa 3e 77 44 23 bf 83 72 f8 3f
       1.0502594 0.4897027 -0.63776344 1.9409946
000080 0a d5 c6 bf e5 02 d8 bf 5b 75 c8 bf be 57 c8 bf
       -1.5533764 -1.6875883 -1.5660814 -1.5651777
000090 15 dd c6 bf c8 12 e1 bf fb 76 e2 bf cf ba b7 bf
       -1.5536219 -1.7583857 -1.769256 -1.4353884
0000a0 08 33 fc bf 52 37 f3 bf 5b 2a d3 bf c8 d0 05 c0
       -1.9703074 -1.9001257 -1.6497301 -2.090868
0000b0 6b 26 ed bf c1 f1 b3 bf 94 6c eb bf 8a 5c 0d c0
       -1.8527349 -1.4058152 -1.839251 -2.2087731
0000c0 60 41 ba bf 09 08 00 c0 41 97 01 c0 36 6b e2 bf
       -1.4551201 -2.0004904 -2.0248568 -1.7688968
0000d0 a6 e9 b8 bf d9 07 e5 bf 04 28 dd bf 92 ab cd bf
       -1.4446304 -1.789302 -1.7277837 -1.6067984
0000e0 82 fc e8 bf e1 10 f9 bf c0 89 ee bf 6b e2 d9 bf
       -1.8202059 -1.9458276 -1.8635788 -1.7022222
0000f0 04 95 f4 bf 47 3c e4 bf 36 1e da bf 54 da f7 bf
       -1.9107976 -1.7830895 -1.704047 -1.9363503
000100 b8 19 09 3f 81 71 be be b0 47 99 bf 04 c9 57 bf
       0.5355487 -0.37195972 -1.1975002 -0.842911
000110 14 8c 26 3f e4 bf 22 3e e2 30 52 bf 8f 2a 26 bf
       0.6505749 0.15893513 -0.8210584 -0.6490869
000120 4c d9 a8 3e 62 2d 05 bf e5 85 8a bf 1f f3 c2 be
       0.32978284 -0.52022374 -1.0822111 -0.38076112
000130 57 37 99 3e 41 f4 93 bd 9b 83 aa 3f c7 9b 4e be
       0.29925033 -0.07224322 1.3321413 -0.20176612
000140 40 4c 5b bf fe fc 39 3f 60 a3 c9 be fb 57 10 3f
       -0.85663223 0.7265166 -0.39382458 0.5638425
000150 b2 f0 48 3f ce c3 ba 3f c5 6f f6 bd 83 09 c8 3e
       0.7849227 1.4591005 -0.12033037 0.39069757
000160 a2 c6 00 bf 81 95 a6 3d be a2 5d bf 3b 29 1b 3f
       -0.5030309 0.08133984 -0.8657645 0.6060979
000170 2d 3e 55 be b5 24 cd be 23 1e 0d bf e6 0b 13 3f
       -0.208245 -0.40067068 -0.5512411 0.5744003
000180 69 88 d4 3e b3 df 77 3f 4b fe 17 3e ee 2d 25 40
       0.41510323 0.9682571 0.14843099 2.5809283
000190 aa 4c 8c bd 36 aa 65 bf e9 e1 e5 bd 0f 7a 49 3f
       -0.0685056 -0.89712846 -0.112247296 0.7870187
0001a0 10 39 c1 3f 80 3b 36 bf 4d 5b d7 3f 77 1d df 3f
       1.5095539 -0.7118454 1.6824738 1.7430867
0001b0 83 2c 2b bf 2c b5 7b 3f 45 a8 65 3f 3a 20 58 bf
       -0.66864794 0.9832332 0.89709884 -0.84424174
0001c0 b9 75 90 40 d4 51 60 40 93 09 c0 3f b6 91 8a be
       4.5143704 3.5049944 1.5002922 -0.27064294
0001d0 1e 5d 40 3f 4f 7d b9 3f cb 17 90 3f b0 13 a1 3f
       0.75142086 1.4491366 1.1257261 1.2584133
0001e0 eb 44 5b be c3 04 13 3d 6f 40 e5 3d 12 17 19 bf
       -0.21413009 0.035893213 0.1119393 -0.5980083
0001f0 ba cf 75 3f e8 16 26 3f 58 ca 24 bf f2 18 ca 3f
       0.9602009 0.648787 -0.6437125 1.5788863

lstm.weight_ih_l1 f4 [128, 32]
000000 24 7a 95 bf 31 a6 b3 3e c5 ec f2 3f 86 3e e1 3e
       -1.1677899 0.3508773 1.8978506 0.43993014
000010 5e af a1 3d 6c 25 c5 40 1f 50 94 bf 83 53 a9 bf
       0.07894777 6.160818 -1.1586951 -1.3228611
000020 09 f1 be c0 d4 47 85 40 5a 1b 55 c0 ac ff 22 3e
       -5.966923 4.165018 -3.3297944 0.15917844
000030 27 bc 3c 40 c2 3d c5 3f ca b7 04 41 ee 9f 95 3d
       2.948984 1.5409472 8.29487 0.07305895
000040 d8 22 e9 bf a0 09 26 bf 9f e4 d0 c0 4e 86 4a bd
       -1.8213758 -0.64858437 -6.527908 -0.04944449
000050 80 f0 ce 3f 86 db 86 40 90 06 45 40 94 90 2a bf
       1.6167145 4.2142973 3.0785255 -0.6662686
000060 3d 6e 86 bf 7e 08 eb 3f 47 dd 87 bf 1d eb 39 40
       -1.0502392 1.8361967 -1.0614403 2.9049752
000070 62 2b 0c 40 4b be 0d be 7b 8e 95 bf 7d 9d e8 3e
       2.1901479 -0.13842122 -1.1684107 0.45432654
000080 d1 aa 99 be ab d6 af bf 87 c6 2c 3e 7c 1c d3 3f
       -0.30013135 -1.3737386 0.16872607 1.6493068
000090 bc de 8c bf 5a d8 07 bf 85 1d 06 c0 2d 10 9c be
       -1.1005473 -0.530645 -2.0955517 -0.3048109
0000a0 11 38 ca bf 16 6b 37 3f 42 2b 07 40 96 ac 27 c0
       -1.579836 0.71647775 2.1120152 -2.6199088
0000b0 05 9a b0 3f e2 ed 5b c0 65 77 cd 3f cc 54 23 c0
       1.3797003 -3.4363942 1.6052061 -2.5520506
0000c0 2e a2 b6 bf 64 7d 6f 3e c9 20 37 40 4b 6e 23 40
       -1.4268243 0.23387676 2.861376 2.5536067
0000d0 61 1f 9b be dc 35 92 3f 81 34 5c c0 af 87 16 bf
       -0.30297378 1.1422687 -3.4407046 -0.58800787
0000e0 0c f5 ac bf 8b 0a 98 bf d8 12 4f 40 d7 80 c6 bf
       -1.3512282 -1.1878217 3.2355251 -1.5508069
0000f0 30 97 2b bf df 60 75 40 71 5a 9d bf c4 76 16 3f
       -0.6702757 3.8340375 -1.2293226 0.5877497
000100 43 16 7f 3f ff 9a 45 3f 7a 40 0b bf 6f db d5 3f
       0.99643344 0.7718963 -0.5439526 1.6707591
000110 85 fb b2 bf a3 a4 8f be bd 73 21 c0 e1 d6 4f 3f
       -1.3983008 -0.28055295 -2.522689 0.81187254
000120 d3 46 5a bf b1 d3 04 40 84 ac 2b 40 c4 09 d1 bf
       -0.8526432 2.0754206 2.6824045 -1.6331105
000130 5a ef de bd e0 3a 0a c0 ad b7 59 3f f0 10 b4 bf
       -0.108854964 -2.1598434 0.8504589 -1.4067669
000140 31 12 c4 bf db 40 03 40 10 72 e5 3f f3 ea ab be
       -1.5318052 2.0508335 1.7925434 -0.3357769
000150 51 90 3a bf 07 20 fb 3f 88 0f e0 bc 28 80 68 c0
       -0.7287646 1.9619149 -0.027351156 -3.632822
000160 ed c9 37 3c 80 af ef bf 01 4c 26 be b4 67 d8 bf
       0.011217576 -1.8725433 -0.1623993 -1.6906648
000170 c6 c3 85 40 ee 74 40 40 3f 36 da 3e 21 8f 78 3f
       4.180148 3.0071368 0.4261951 0.970934
000180 83 3a 1e 3f 1b 79 51 3f 9a d7 b0 3f d9 66 b8 3f
       0.6180803 0.8182542 1.3815796 1.4406387
000190 64 65 62 bf 66 6a fe bf 17 8c 65 40 7c 58 0c 3d
       -0.8843596 -1.987622 3.5866754 0.034264073
0001a0 85 3d 2c c0 b9 64 2a 3e b6 6d b3 3f cc c0 05 c0
       -2.6912549 0.16639985 1.4017856 -2.0898924
0001b0 87 d4 bd bf 61 02 07 3f 6b 86 80 bf dd 5a 1d 3f
       -1.4830483 0.52738005 -1.0041021 0.6146677
0001c0 e0 07 1f bf 91 8d 93 bf da ea c0 3f 81 29 f3 be
       -0.6212139 -1.1527578 1.5071671 -0.47492602
0001d0 32 54 70 bf 67 7b 70 3f 52 82 f9 bf ea 94 9e bf
       -0.9387847 0.939383 -1.9492896 -1.2389195
0001e0 05 bb f5 bf 20 0b dd bf 79 79 53 3f 94 ad 73 c0
       -1.9197699 -1.726902 0.8260723 -3.8074694
0001f0 97 16 83 40 e2 a8 9f bf ed 79 41 40 ec 76 28 3f
       4.0965075 -1.2473414 3.0230668 0.6580646
000200 07 dd 8c bf f8 1f 21 c0 2a 91 81 c0 84 65 d7 3f
       -1.1004952 -2.5175762 -4.04897 1.6827855
000210 63 9e df bf 5d 36 ca bf 3d 53 21 c0 aa 8a 2a 40
       -1.7470211 -1.579784 -2.5207055 2.6647134
000220 03 28 8d bf 7e b7 21 40 0b 36 23 be e6 fc 01 bf
       -1.1027836 2.5268245 -0.15938585 -0.5077652
000230 f1 c2 80 bf df 11 6f bf 14 3f 4c 3f 52 06 10 bf
       -1.0059491 -0.93386644 0.7978375 -0.56259644
000240 0d ba 85 bf c5 8b 9a 40 fa 5d 7d 3f 21 c4 10 40
       -1.0447403 4.8295617 0.9897152 2.2619708
000250 4f 85 4c bf 25 e9 9a 3f 3e cd 19 bf dc f8 97 3c
       -0.7989091 1.21024 -0.600788 0.018551283
000260 67 00 36 3f d6 cd 60 bf e6 ee 23 be 8c d3 00 3f
       0.71094364 -0.8781408 -0.16009101 0.50322795
000270 46 c4 b1 bf c7 6a ec 3f 1c a5 e6 bf 7e fc a2 be
       -1.3888023 1.8470086 -1.8019137 -0.3183326
000280 8c 6a cb bf be fc d2 bf 32 98 91 bf b6 a1 0d 3f
       -1.589189 -1.6483381 -1.1374571 0.55324876
000290 1b a0 aa 3f 84 07 63 bf 92 24 21 3e ad 7f 39 bf
       1.333011 -0.8868334 0.15736607 -0.7246044
0002a0 cb 37 b1 bf e7 39 97 3f 8b f5 43 be 46 5d da bf
       -1.3845152 1.1814545 -0.19136636 -1.7059715
0002b0 58 93 13 bf bb e3 71 3e 5d 82 6f be fa db c3 3e
       -0.57646704 0.23622029 -0.23389573 0.38253766
0002c0 0c bc 25 c0 98 79 08 40 08 82 83 3e 09 97 29 bf
       -2.5896025 2.1324215 0.25685143 -0.66246086
0002d0 5b 55 50 3f 23 40 ba 40 7b de 30 bf 15 e1 8a bf
       0.8138024 5.820329 -0.6908948 -1.084994
0002e0 64 84 09 3f 29 bf b5 bf e4 9c ab bf d0 48 e8 bd
       0.5371764 -1.4198962 -1.3407254 -0.11342013
0002f0 d3 73 af 3d cc 13 4b 3f 80 98 52 bf 7a f1 d2 3f
       0.085670136 0.7932708 -0.82263947 1.6479943
000300 a9 ed d1 3e f1 4c b6 bf 6e a5 be 3f c6 c1 fa 3f
       0.41001633 -1.4242231 1.4894235 1.9590385
000310 ac d9 89 3f ff b8 80 bf 3f b6 84 c0 ca 08 98 40
       1.0769553 -1.0056456 -4.147247 4.751073
000320 86 8d 0b 3e 5f 43 b4 bf 95 18 46 40 39 60 17 3f
       0.13628206 -1.408306 3.0952504 0.591312
000330 5f 8a f8 bd a1 c1 ff be 0b 38 30 c0 e7 6d 31 be
       -0.12135767 -0.49952415 -2.7534206 -0.1732708
000340 0f 7d 89 bf 2a bd 26 40 86 c8 f2 3f fa 50 9d 3f
       -1.074129 2.6052957 1.8967445 1.2290337
000350 ef 7e 16 c0 5a 1c 8b 3f a7 66 08 c0 1f db 77 bf
       -2.3514974 1.0868027 -2.1312654 -0.9681873
000360 81 db a0 bc 34 eb 9c 3f ec c3 74 40 f5 e6 9f bf
       -0.019635918 1.2259278 3.8244581 -1.2492357
000370 0c e8 14 3e 95 1b 3f 40 3d 14 d9 3e d0 e2 e2 bf
       0.14541644 2.9860585 0.42398253 -1.7725468
000380 91 9a 15 c0 ec ec 9b 3e 14 4d 30 40 cb 2f 19 40
       -2.337559 0.30454195 2.7547045 2.393542
000390 ed 26 0e c0 d5 00 94 be 2e 43 29 c0 8e b7 8d 40
       -2.2211258 -0.28906885 -2.6447253 4.4286566
0003a0 75 96 cc be 50 d5 88 3d fe bd 41 41 e8 08 ac bd
       -0.3995854 0.06681311 12.108885 -0.08400136
0003b0 bb 3e f9 40 20 e3 18 40 61 7b bd c0 7b ab 8d 3e
       7.7889075 2.3888626 -5.921311 0.27669892
0003c0 e1 f9 04 bf 4f a2 2b 40 6e d8 c5 40 2c d4 01 41
       -0.51943785 2.6817815 6.1826696 8.1143
0003d0 6b 30 0b c0 72 db 4d 3e c6 fb 99 bf f8 b7 9b bf
       -2.1748302 0.20103243 -1.202996 -1.2165518
0003e0 9a 50 01 c0 53 75 7b 3f a5 3e f0 3e a8 4e f7 3f
       -2.0205445 0.982259 0.46922794 1.9320879
0003f0 6b 6b 46 3d c5 4c 39 3f 85 e8 9e c0 78 ee 8d bf
       0.048442286 0.72382766 -4.9658837 -1.10884

lstm.weight_hh_l1 f4 [128, 32]
000000 79 74 10 bc b5 85 b9 bc f2 be 86 bd e0 20 70 bc
       -0.008816832 -0.022646764 -0.06579389 -0.0146562755
000010 5f 23 1f 3d ef 1c 8f bc 25 c7 28 bd 15 11 e9 bb
       0.038852092 -0.017469851 -0.041205544 -0.007112632
000020 a2 32 0c bd e3 38 39 3c 99 91 89 3c 12 08 41 bd
       -0.034227975 0.011305067 0.01679306 -0.047126837
000030 1c 56 94 bc 60 12 af bd 01 8c 81 3d b7 2f bf bc
       -0.018107466 -0.08548427 0.06325532 -0.023338182
000040 42 c8 ea bc 83 d7 60 3d f5 ca e2 3c cc ac 5f bd
       -0.028659943 0.054893028 0.027684668 -0.05460815
000050 73 74 92 3c 94 5d 62 39 6c 4a e2 bb 20 09 4f 3d
       0.017877793 0.000215879 -0.0069058444 0.05054581
000060 25 eb 9b bb 43 f9 02 3c c8 5b 62 bd 96 7d ef bc
       -0.004758256 0.007993999 -0.05526331 -0.029234689
000070 50 4c f8 ba c8 44 ec bc 27 93 eb 3c 3c 8e 4b 3b
       -0.0018943641 -0.028841391 0.028756691 0.003106012
000080 5f 70 99 3d 2d d0 93 bc ae 9c f8 bc e8 96 9a bc
       0.07492136 -0.018043602 -0.030348148 -0.018870786
000090 29 94 ae 3b 55 ac 90 bd 69 f6 88 bd 8f ca ed 3c
       0.0053277207 -0.0706412 -0.06687624 0.029027252
0000a0 75 64 8a 3c 23 5e 47 3d f4 4c 8e bd be ca 29 3d
       0.016893605 0.04867376 -0.069482714 0.041453116
0000b0 46 b9 41 3d d7 68 2a 3d 67 4e 00 3c 97 07 22 ba
       0.04729583 0.04160389 0.007831193 -0.00061809405
0000c0 05 e6 95 bb 40 d6 8f bc 96 20 22 3d b1 46 86 3b
       -0.0045745396 -0.017558217 0.039581858 0.0040977825
0000d0 00 97 06 3d 3c a0 3c bc 58 88 93 3b af 21 d6 bc
       0.03285885 -0.011512812 0.0045023374 -0.026139108
0000e0 cf 23 68 3d e4 66 ff 39 0a d6 95 3d 78 9f 2c bd
       0.056674775 0.0004871405 0.07316215 -0.04214427
0000f0 ef 26 a7 bb e8 a7 cc bc 24 ee 8b 3c 63 54 ee 3b
       -0.005101077 -0.024982408 0.017081328 0.0072732433
000100 9f ae df 3d 4a 02 a1 3d 0d 7d 3c bc 4f 5c ba 3c
       0.10921978 0.07861765 -0.011504424 0.022749094
000110 2f ea d5 39 24 6d 36 bc 06 be 1e 3d 53 78 99 bd
       0.00040801006 -0.01113442 0.03875544 -0.07493653
000120 8d 5d ee 3c 51 e5 3c bb 45 ff 8f bc 8e 04 8a 3c
       0.029097343 -0.0028823207 -0.017577777 0.016847875
000130 bc a6 b6 3c 6d c0 06 be 7d 01 04 bd 30 04 9e 3d
       0.022296302 -0.13159342 -0.03222798 0.077156425
000140 20 72 aa 3c 98 b1 94 bd 71 c2 a7 3d 08 93 a7 bc
       0.020806372 -0.07260436 0.08191384 -0.020455852
000150 31 95 a3 3c ff 0b 49 bd 3c f6 ba 3d 9c d7 d4 bb
       0.019968601 -0.049083706 0.09128997 -0.006495429
000160 35 a1 32 bc 05 0e fc bc 78 ef bd 3d 0a eb af 3d
       -0.010902693 -0.030768404 0.09274191 0.08589752
000170 ff e4 4f bd 6d 95 b2 3d 33 98 26 3e a5 52 f2 bb
       -0.050755497 0.08719907 0.16268997 -0.007395106
000180 37 9b 4e 3b 98 d6 2a 3d 2c c7 85 3b d7 e4 08 bd
       0.003152562 0.04170856 0.004082581 -0.033421364
000190 0b b1 de 3c 56 b5 b3 bd 5d 3c 85 3c 41 b1 c7 bc
       0.02718403 -0.087748215 0.016264135 -0.024376513
0001a0 af f0 b9 bc a7 aa 5d 3c 71 e7 80 bc 34 fa e5 ba
       -0.022697775 0.013529456 -0.01573536 -0.001754588
0001b0 fb 57 bd bc b6 c0 14 3c a8 5c 2d 3c dd 10 48 bd
       -0.023113241 0.009079149 0.010581173 -0.048844207
0001c0 64 8c 3e bd b0 45 fe 3c 3f 4f 67 bb 7a 52 c1 bb
       -0.046520606 0.031039089 -0.0035295037 -0.0058997246
0001d0 24 11 cb 3b 85 69 c8 3c 8d 49 bd 3c 4a 32 82 bb
       0.0061971117 0.024464378 0.02310636 -0.00397328
0001e0 15 16 df 3b 25 59 82 3c e3 74 ca bc f0 20 00 bd
       0.0068080523 0.015911648 -0.024713939 -0.03128141
0001f0 5c 12 f5 3c 0a 3d 0e 3d 62 29 49 3d ca 32 19 bd
       0.029915981 0.03472618 0.04911173 -0.03740195
000200 5c 54 05 bd 4d f0 3a 3d c3 d9 e6 ba b4 1f 03 3d
       -0.032551154 0.045639325 -0.0017612505 0.032012656
000210 fe f7 a8 3c 82 a2 18 bd 16 f4 84 3d 5e 8d 1a bd
       0.020626064 -0.037264355 0.06491868 -0.037732475
000220 ff c2 93 bc 74 f9 17 3c 9d f6 e4 bc 4d 6b b8 bd
       -0.018037317 0.009275783 -0.027949626 -0.09004841
000230 59 38 98 bd 8b 32 fd 3a 3f 3f 26 bd 6a 13 6f ba
       -0.074326225 0.0019317431 -0.04058766 -0.00091200194
000240 b7 cd bc bc cd 84 08 3d 11 f8 c3 bd de 1a 1d bd
       -0.023047311 0.033329774 -0.09568799 -0.0383557
000250 9b 8e 5f 3d 1a db 9b bb 00 f4 ff 3c d6 c3 02 ba
       0.05457936 -0.0047563436 0.031244278 -0.0004988288
000260 51 28 2f 3d fc e8 e8 bb 28 76 96 bc 26 00 5f 3c
       0.042763058 -0.007107852 -0.018366888 0.013610875
000270 dd 4a d4 3d 5d 9a 1e 3c eb 83 0f 3d 04 cf 40 bd
       0.103658415 0.009680358 0.035037916 -0.047072425
000280 bc 2c b0 3d e9 f7 8a 3d 75 4b 85 bc 4f 70 22 3d
       0.086022824 0.06785566 -0.016271332 0.039657887
000290 6f 08 05 be e9 8a 0f 3d b9 c5 e8 3c d8 d9 4d bc
       -0.12991498 0.035044584 0.028414594 -0.012564145
0002a0 87 95 77 bd 73 66 87 3c 22 96 84 bd 76 95 6a bc
       -0.060445335 0.016528344 -0.06473948 -0.014317861
0002b0 cc 4c 0e 3d 02 4b 00 3d db a3 67 bc ae 1c 5e 3c
       0.034741208 0.031321533 -0.014138187 0.013556642
0002c0 25 bc 4e 3e ac 22 d0 bc 63 2f cb bc 71 57 03 bd
       0.20188959 -0.025407158 -0.02480287 -0.032065812
0002d0 fd 8a 1e bd 62 23 0f bd f4 70 b7 bd 35 c5 00 bd
       -0.03870677 -0.034945853 -0.08957091 -0.03143807
0002e0 e2 90 f3 3c b2 71 f2 3c 07 9e b5 3c a6 fb 94 bd
       0.029732171 0.02959523 0.02217008 -0.07274561
0002f0 67 51 3b bc 98 a7 94 3b 39 3d d7 3a 5a 0b a7 3c
       -0.011432982 0.0045365803 0.0016421444 0.020391155
000300 bb f2 53 bd 5b 71 0e 3c db 6b 1b 3d 3f 7b 11 bd
       -0.051745158 0.008694018 0.037944656 -0.035517927
000310 9b fd 02 bd 99 ac f8 bc f3 0e 3c bc ee 03 74 3c
       -0.03198014 -0.030355738 -0.011478174 0.014893515
000320 f4 a6 b0 bc 3a 66 50 bd 7a 71 81 bc c3 d0 c6 3c
       -0.021563984 -0.05087874 -0.01580118 0.024269467
000330 68 95 a4 bb c3 5e 03 3d 81 9b 3d 3c ec 74 3f 3d
       -0.0050226934 0.032072794 0.01157272 0.046742365
000340 d9 a0 ca bc 0b c8 c7 3c 29 5f 1e 3d 76 8e 64 bc
       -0.024734901 0.02438738 0.03866497 -0.013949981
000350 3a e9 0c bc fa bb 9f 3c 78 59 1b bd a1 a2 36 3d
       -0.008600527 0.019498814 -0.03792712 0.04458869
000360 f7 0d eb 3c 58 97 de bc fa c1 20 ba 16 02 2b 3d
       0.028693182 -0.027171776 -0.00061324204 0.041750036
000370 b1 24 e0 bc c8 a1 98 3c 18 6a f4 3b 70 fd 1c 3c
       -0.027361246 0.01863183 0.0074589364 0.009581909
000380 ca ea 92 ba bb b9 79 bd b7 57 cd bd c5 30 d3 3d
       -0.0011208889 -0.060968142 -0.10026496 0.103120364
000390 e2 37 04 bd bb 91 01 3d fa f6 d2 3d 9d 3b 8f bc
       -0.032279857 0.03163312 0.10301013 -0.01748448
0003a0 07 b2 8c 3d 4e 10 05 3c fa b3 30 bd df 25 80 bd
       0.068698935 0.008121563 -0.04314039 -0.06257223
0003b0 bb 7c 12 bd 73 4e ff 3b 3f 48 ba bd 98 63 d9 bc
       -0.035763483 0.0077913343 -0.09095811 -0.026536748
0003c0 a0 0d 11 3d f7 bd e1 3c 0e 9a 23 3d eb 60 44 3d
       0.035413384 0.027556403 0.03994184 0.04794399
0003d0 bf ba 1f bc e2 3a 12 bd 37 c6 a2 3c 1c 3e 33 3d
       -0.009749114 -0.035700686 0.019869907 0.043760404
0003e0 f1 53 21 bd e0 4f 3e bd bb ee e4 3c 2d ca 0e 3d
       -0.039386693 -0.046462893 0.027945867 0.03486078
0003f0 2a 58 b4 b9 55 bf 68 bd 9a ee 02 3e e0 27 b8 bb
       -0.00034397963 -0.056823093 0.12786332 -0.005619988

lstm.bias_ih_l1 f4 [128]
000000 3f bf 09 40 77 50 e5 3f 70 5e be 3f 94 8a ca 3e
       2.1522977 1.7915181 1.487257 0.39558852
000010 28 52 c2 3f 72 58 48 40 a7 62 99 3f 1b 31 04 3e
       1.5181322 3.1303983 1.1983231 0.12909357
000020 f3 a5 a1 3f ec 83 ea 3f 6f f4 55 3e da 83 ef 3f
       1.2628769 1.8321509 0.20894025 1.8712113
000030 e5 de f1 3f 37 ba 18 40 b7 c2 99 3c 00 2d cb 3f
       1.8896147 2.3863657 0.018769605 1.5873108
000040 b1 14 0d 40 53 05 e8 3f ac 6d ef 3d 5b 81 02 40
       2.204388 1.8126625 0.1169084 2.0391452
000050 79 f2 8f 3f 48 98 f4 3f ef 81 c2 3f 65 7c f0 3f
       1.1245872 1.9108973 1.5195903 1.8787962
000060 bb 4e 54 bc 29 80 08 40 60 f7 a5 3f e3 13 11 3f
       -0.012958224 2.1328223 1.2966118 0.5667097
000070 d7 de a6 3e 4a 82 b3 3d 03 9e d1 3f 58 51 d7 be
       0.32591888 0.08765085 1.6376346 -0.42054248
000080 18 ff c8 bf 94 69 b8 bf 8a 2a cd bf 99 48 de bf
       -1.5702848 -1.440722 -1.6028607 -1.7365905
000090 75 4f a3 bf aa 96 8f bf 0b 2b cc bf 3e aa bb bf
       -1.2758623 -1.1217854 -1.5950636 -1.4661329
0000a0 7d 1a d6 bf f6 b5 ce bf ad 82 bd bf 92 7b 97 bf
       -1.6726834 -1.614928 -1.4805504 -1.1834586
0000b0 69 48 d0 bf ea 72 14 bf 4f 11 76 bf 12 5e c4 bf
       -1.6272098 -0.57987845 -0.9612016 -1.5341208
0000c0 65 9d cd bf bf 6f d3 bf db 20 bf bf 14 d0 09 bf
       -1.6063658 -1.6518477 -1.4931902 -0.5383313
0000d0 20 d1 a7 bf f7 90 4b bf 8c 33 8f bf dc 9b b9 bf
       -1.3110695 -0.79518074 -1.1187606 -1.450069
0000e0 ef c2 cd bf cc 9f a6 bf 62 1e 9d bf cf 97 f3 bf
       -1.6075114 -1.3017516 -1.2274897 -1.9030703
0000f0 8a 81 d9 bf 38 46 89 bf 53 d4 c2 bf 73 4c 92 bf
       -1.6992657 -1.0724554 -1.5221046 -1.142958
000100 b0 d9 ef be cd 52 62 bf b3 b0 52 be be 6e 8e be
       -0.4684577 -0.88407594 -0.20575218 -0.27818865
000110 40 06 84 3f 26 57 4f 3f 15 89 20 3e 19 01 33 3e
       1.0314407 0.8099235 0.15677293 0.17480887
000120 22 4c 69 3f cb 94 8f 3e eb bb 5f 3f 85 e8 1a 3f
       0.91131794 0.28043208 0.87396115 0.60511047
000130 13 e3 64 be 52 e1 c6 bf b9 2e 52 3e c5 02 ef bd
       -0.22352247 -1.5537512 0.20525636 -0.1167045
000140 0e c9 1d bf 16 49 14 be f6 3a 4b bf c8 93 d4 bf
       -0.6163491 -0.14481005 -0.7938684 -1.6607599
000150 f3 7f bc bd 37 2d 20 3f ca 4b b2 3e ea e7 18 3f
       -0.09204092 0.6256899 0.34823447 0.5972887
000160 11 fa 62 3e a3 b0 e3 be 61 4c 63 3e c6 8c 88 3d
       0.22165705 -0.444707 0.22197105 0.066674754
000170 68 d0 32 3f ba f5 2d 3f 0c 50 81 3e 28 de aa 3e
       0.6984925 0.67953074 0.25256383 0.33372617
000180 f0 ed a8 3f 71 16 04 40 1d 7c 93 3f 34 16 b9 3f
       1.3197613 2.0638697 1.1522251 1.4459901
000190 23 df ad 3f 2e 05 ae 3f 24 af 28 3f 5d 40 d5 3e
       1.3583721 1.3595331 0.65892243 0.41650668
0001a0 49 a0 c7 bd 51 45 d9 3f 60 76 bf 3e 28 f8 82 3f
       -0.09747369 1.6974279 0.37395 1.0231981
0001b0 b8 63 dd 3f 34 5f cd 3f b0 f5 b7 bd 0f 5a 1c 40
       1.7296057 1.6044679 -0.08982408 2.4429967
0001c0 0b 84 06 40 0e 29 fc 3f ed 7a 85 3e 5c 0d d9 3f
       2.1018093 1.9700029 0.26070347 1.6957202
0001d0 69 c3 1b be d5 c2 bf 3f cb ae 57 3f 9c 70 9d 3f
       -0.15211262 1.4981333 0.8425109 1.2299991
0001e0 db af 47 be ac ed 80 3e 56 85 ac 3f 4e 69 1d 3f
       -0.19500677 0.2518133 1.3478191 0.6148881
0001f0 8f dd 50 3f b0 36 96 3f 2f d4 77 3f 1c 14 22 be
       0.8158807 1.1735439 0.9680814 -0.15827984

lstm.bias_hh_l1 f4 [128]
000000 19 8a 09 40 c3 47 f9 3f 3f 84 da 3f b2 ea 9a 3e
       2.1490538 1.9475025 1.7071608 0.30257183
000010 42 20 bf 3f 87 17 56 40 90 e2 81 3f b7 40 8a 3e
       1.4931719 3.345186 1.0147266 0.27002499
000020 83 3b aa 3f 95 46 fd 3f 95 25 e7 3e 41 f9 ed 3f
       1.3299412 1.9787165 0.4514586 1.8591691
000030 92 4c f0 3f 4e 0a 0d 40 f7 b0 4c be 6f 2a e6 3f
       1.8773367 2.203754 -0.19989382 1.79817
000040 bf 69 11 40 49 fa fa 3f 15 11 06 be b0 de 09 40
       2.2720792 1.9607631 -0.13092454 2.1542168
000050 b0 d5 97 3f c5 b2 0b 40 ff 9e c8 3f 74 77 d7 3f
       1.1862087 2.1827862 1.5673522 1.6833329
000060 3e db 5d 3e 3e e2 08 40 6e b3 a6 3f ec bb 18 3f
       0.21665666 2.1388087 1.3023508 0.59661746
000070 79 38 f1 3e d0 11 dc 3d 1b b0 d2 3f cd 9f 88 be
       0.47113398 0.10745585 1.6459993 -0.26684418
000080 ad 60 cf bf 37 74 c7 bf ab 83 d3 bf 22 2d ec bf
       -1.6201378 -1.5582341 -1.6524557 -1.8451273
000090 32 d3 a3 bf b2 fa aa bf 4c 3d e2 bf 8b 12 cd bf
       -1.2798827 -1.3357756 -1.7674956 -1.6021284
0000a0 08 de b2 bf 81 cd c3 bf 0d 3b cf bf 8e ed 83 bf
       -1.3974009 -1.529709 -1.6189896 -1.0306871
0000b0 24 d7 c9 bf e3 6d 01 bf 43 7f 63 bf 73 00 cc bf
       -1.5768781 -0.505583 -0.8886606 -1.5937637
0000c0 0b c0 c1 bf b3 fc c6 bf fa 28 b7 bf fb f9 48 bf
       -1.5136732 -1.5545868 -1.430938 -0.7850644
0000d0 ab 99 b2 bf 46 1b 5f bf 94 4e 9f bf b2 da c1 bf
       -1.3953146 -0.8715099 -1.2445855 -1.5144866
0000e0 35 9f e0 bf ed 6a ba bf 1a 63 a4 bf 42 56 f6 bf
       -1.7548586 -1.4563881 -1.2842743 -1.9245074
0000f0 bf 2c d3 bf 42 9f a0 bf 88 8d bd bf 08 ae a1 bf
       -1.649803 -1.2548602 -1.4808817 -1.2631235
000100 e9 4c ef be bf 7d 6d bf 2a 75 54 be 2d bf 2c be
       -0.46738365 -0.9277 -0.2074782 -0.16869803
000110 b1 69 4b 3f ab e0 42 3f 15 cd 81 3e 5c b7 b4 3e
       0.7945815 0.76124066 0.25351778 0.35296142
000120 b0 a3 5a 3f 1c 0f 02 3f 96 9c 55 3f eb d9 f0 3e
       0.8540602 0.50804305 0.83442056 0.47041258
000130 dd 98 51 be 66 9a a7 bf e7 d9 2a 3e 1b c5 c3 bd
       -0.20468469 -1.3093994 0.16684686 -0.09559079
000140 4d c2 25 bf 71 17 7d be dc 02 34 bf f3 77 db bf
       -0.64749604 -0.24715973 -0.70316863 -1.7145981
000150 5d 26 ba bd fe 22 25 3f 06 3f 9c 3e 79 36 83 3e
       -0.090893485 0.6450652 0.30516833 0.25627497
000160 4d af 05 ba 96 a8 41 bf 05 44 9c 3e 63 1a 66 3e
       -0.0005099669 -0.75647867 0.30520645 0.22471003
000170 8d eb 21 3f b3 e1 2c 3f 1e dd 49 3e 6b 9d 0c 3f
       0.63250047 0.6753189 0.19713256 0.549277
000180 8d cb ba 3f 61 e4 00 40 b5 96 a4 3f fe d6 a2 3f
       1.4593369 2.0139391 1.2858492 1.272186
000190 12 76 ae 3f 22 c6 a8 3f 41 8f 0e 3f 94 03 0a 3f
       1.3629782 1.3185465 0.5568734 0.5391171
0001a0 ab c5 c3 3d 72 1c e2 3f e5 5e 0a 3f b2 50 97 3f
       0.095591865 1.7664931 0.5405105 1.1821501
0001b0 7c 6c ea 3f b3 8b c8 3f ff bb 95 be 29 be 22 40
       1.8314357 1.5667633 -0.29244992 2.5428565
0001c0 2f 7d ed 3f 8f 75 00 40 72 32 9e 3e 65 bf b8 3f
       1.8553828 2.0071752 0.30897862 1.4433409
0001d0 4f 11 63 be ce 31 b0 3f c7 59 1c 3f fa 30 91 3f
       -0.22174571 1.3765199 0.6107449 1.1343071
0001e0 80 4a 41 be a9 02 56 3e fd bf af 3f 0d e8 1e 3f
       -0.18876076 0.20899452 1.3730465 0.6207283
0001f0 3a 3e 4c 3f e0 69 99 3f f2 44 7f 3f 2a 96 2d be
       0.7978245 1.1985435 0.9971458 -0.16951814

output.weight f4 [11, 32]
000000 37 80 f5 40 7d b9 15 c0 07 4b d7 3f f9 d2 6f bf
       7.671901 -2.3394463 1.6819772 -0.93681294
000010 d0 a9 16 40 f7 f1 66 40 fe fb 81 41 c9 f3 f6 c0
       2.3541145 3.6085184 16.248043 -7.717259
000020 a1 45 7b 40 44 f8 59 40 c6 1b a3 c0 9d b7 7a c0
       3.9261248 3.405778 -5.0971403 -3.9174569
000030 05 c2 c6 40 e4 15 b5 c0 a1 25 e0 40 72 cb 13 41
       6.211184 -5.658922 7.0045934 9.237169
000040 57 53 68 c0 28 68 11 41 34 24 9d c0 d6 46 cf bf
       -3.6300867 9.087929 -4.9106693 -1.6193492
000050 9c a3 1f c1 a4 98 47 40 6c fb 2c 41 57 63 5a c1
       -9.977444 3.1186914 10.811382 -13.649253
000060 dc da 8e c0 f3 b9 0b 41 b0 6f 9b 40 c4 6d a8 40
       -4.464216 8.732898 4.8573837 5.263399
000070 57 33 22 c1 91 ba 00 c1 14 7e ac 40 17 b0 8f 40
       -10.137534 -8.045548 5.3903904 4.4902453
000080 f0 15 ee be e4 1e 74 3f fb 2b b6 c0 cb d1 03 c1
       -0.46501112 0.95359635 -5.6928687 -8.238719
000090 dd 53 b5 40 8b 13 9e bf 3a c1 68 41 5b 65 59 c0
       5.666487 -1.2349714 14.547174 -3.3968112
0000a0 a3 4f cd bf 33 f6 2c 3e 40 da fe 40 e7 94 a9 40
       -1.6039928 0.16890793 7.964142 5.2994266
0000b0 9f 9a 32 40 80 f9 3f 3f 80 80 dd bf e5 31 9c bc
       2.7906873 0.7499008 -1.730484 -0.01906676
0000c0 3b 34 a7 c0 ab aa d7 bf 8e bb fe c0 97 e1 52 be
       -5.225126 -1.6848959 -7.960395 -0.20593868
0000d0 77 36 12 c0 6e 6b 7f 40 d7 12 28 40 91 8a 1a 3f
       -2.2845743 3.990932 2.62615 0.60367686
0000e0 e7 71 bf bf 32 63 e1 bf 7c 22 e1 be 6d ed 05 c1
       -1.4956635 -1.7608397 -0.43971622 -8.370465
0000f0 02 9d 94 bf c6 3a 47 be d4 a3 89 3d 48 93 60 41
       -1.1610415 -0.19456014 0.06720701 14.035957
000100 8c 9a 12 bf a0 09 60 c0 68 25 a6 bf 7c 40 3e c0
       -0.5726707 -3.5005875 -1.2980165 -2.9726858
000110 b8 f6 fa 3f 2c 3a b5 40 ce b5 af bf a0 da f6 40
       1.9606543 5.663351 -1.3727357 7.7141876
000120 83 3a eb 40 b3 0a 62 bf 86 bc 03 3f 9c 60 f1 3e
       7.3508925 -0.88297576 0.5145954 0.4714402
000130 51 cc 3f 3f c2 ec b4 bd 9b 2b 78 bf 8b 57 7e bf
       0.7492114 -0.088342205 -0.96941537 -0.9935233
000140 63 4d ef 3f 52 da 03 bf f3 fc 83 3f 3e 75 a0 3d
       1.8695492 -0.51505005 1.0311569 0.07834862
000150 95 cf 3b 41 19 af 4c 40 1c 2b 58 bf 2a 05 9a c0
       11.738179 3.198187 -0.8444078 -4.8131304
000160 15 ac 55 c0 a8 6b 1e 40 4a e8 4c 3e 92 4b be bf
       -3.338628 2.4753208 0.20010486 -1.4866812
000170 e0 e0 aa c0 db a3 d0 3f 83 84 1a 40 e9 bd 15 bf
       -5.3399506 1.6300005 2.4143379 -0.58492905
000180 f8 41 79 40 9c 65 29 c0 d6 a7 6a c0 b9 99 af c0
       3.8946514 -2.6468267 -3.666494 -5.487515
000190 b3 da 30 3f 0d bc c1 bf b7 05 c8 c0 fa d0 c1 40
       0.6908371 -1.5135514 -6.2506976 6.05676
0001a0 81 bd 9d 3f e8 78 35 41 9f 8b 37 41 86 11 76 3f
       1.2323457 11.342018 11.471587 0.9612049
0001b0 3d 43 25 c0 61 16 76 bf 33 f7 c6 bf b4 76 a8 c0
       -2.582229 -0.961279 -1.5544189 -5.26449
0001c0 64 9a 9b c0 1f 5a 35 c0 4a 7b 76 c0 da 75 e2 bd
       -4.8625965 -2.8336256 -3.851275 -0.11057635
0001d0 dd 5c 46 3f bb 33 33 bf 49 f7 c0 c0 92 de 24 bf
       0.7748545 -0.7000081 -6.030186 -0.64402115
0001e0 24 ed 3b c1 30 df 07 41 6d 2f ea bf ce 9c 05 40
       -11.745396 8.491989 -1.8295723 2.0876956
0001f0 ee 2d b6 3a 45 c7 f7 40 05 9e 4b c0 4a c6 c0 c0
       0.0013899186 7.743075 -3.1815197 -6.024205
000200 b6 8e ae c0 29 35 25 40 2a a3 bf 40 0d c2 be 40
       -5.454921 2.5813696 5.9886675 5.961188
000210 18 63 8a c0 07 3b 48 c0 39 77 d0 c0 7e e3 ba 40
       -4.3245964 -3.1286027 -6.5145535 5.84027
000220 8b e3 5f 40 f3 22 1a bf b7 29 25 c1 2c c0 90 c0
       3.4982631 -0.6020958 -10.322684 -4.5234585
000230 79 c9 84 c0 9b 9d 5b be e2 c8 8a c0 4b 20 0b 3f
       -4.149594 -0.2144684 -4.337022 0.5434615
000240 33 83 a1 40 99 cc 83 3f c9 47 c4 40 f6 7f aa 3d
       5.0472655 1.0296813 6.133763 0.08325188
000250 f6 dd 95 40 48 76 f0 c0 46 76 2b 40 ad 59 0f 40
       4.683345 -7.5144386 2.6790938 2.2398484
000260 1e 1c cd 3f 8a f0 a4 c0 11 d9 1f c0 52 eb b9 40
       1.6024206 -5.1543627 -2.4976237 5.8099756
000270 75 2f 83 40 89 c3 60 3e 68 02 89 c0 39 9d cb c0
       4.099543 0.2194959 -4.2815437 -6.362942
000280 74 0a 55 bf 3f eb 59 bf 9a 5b 21 c0 e1 34 70 40
       -0.83219075 -0.8512458 -2.521216 3.7532275
000290 48 27 49 c0 d6 57 49 3f 75 7f a7 bf a5 84 7b c1
       -3.1430225 0.7864965 -1.3085772 -15.719884
0002a0 0f 7a 5e c1 29 b6 e8 be be 22 48 bd 74 3c b6 3f
       -13.904799 -0.45451477 -0.048861258 1.4237199
0002b0 68 fc 06 c0 b9 38 eb be 5d fd 2a bf b2 29 fc be
       -2.1091557 -0.45941713 -0.6679285 -0.4925056
0002c0 7b 63 98 3f f7 a3 c0 be ca 0b 83 3f 81 4a 07 bf
       1.1905359 -0.37625095 1.0237973 -0.5284806
0002d0 13 c5 5b c1 17 c5 49 3f 14 d2 9e 3f ae 88 4e bf
       -13.735614 0.7881636 1.2407861 -0.80677307
0002e0 70 67 20 40 22 90 1f 40 05 9e 7e 40 5d 43 92 3f
       2.5063133 2.4931722 3.9783947 1.1426808
0002f0 84 f1 6d be 1d 1a 78 bf f5 af e3 3f c1 7a 8f bf
       -0.23236662 -0.96914846 1.7788073 -1.1209337
000300 3a 0c f3 40 c5 cb 66 40 ad 60 7b 40 96 ea 28 41
       7.5952425 3.606187 3.9277756 10.557272
000310 b7 bf 5c c0 43 f9 32 bf 73 65 61 40 34 7b ee c0
       -3.4492013 -0.69911593 3.521817 -7.4525394
000320 e4 6c 8e c0 0f d2 28 c1 51 c2 04 c1 ca 1b 45 c0
       -4.4507923 -10.551284 -8.297441 -3.079821
000330 88 10 8f 40 e0 44 f6 bf 36 c8 3a 41 9f 80 2c 40
       4.470768 -1.9239769 11.67388 2.6953504
000340 75 bf 73 40 db d8 d8 3f b8 a0 6b 40 db 0a b6 bf
       3.8085606 1.6941179 3.6816845 -1.4222063
000350 0d a2 da 3f fd bd cc bf 3d 37 41 c0 dc 7a c7 3f
       1.7080704 -1.599548 -3.0189965 1.5584369
000360 ee fa 38 41 39 88 c5 3f f4 e5 89 40 05 24 17 c0
       11.561262 1.5432197 4.3093204 -2.3615735
000370 d9 11 e3 3f 01 a6 27 c1 6a 5f 10 41 7a d6 6d 40
       1.7739822 -10.478028 9.023294 3.7162156
000380 2d 29 a8 be b0 61 31 41 c8 97 f9 3f 8f 3d 7a 3f
       -0.32843915 11.0863495 1.9499445 0.9775018
000390 29 51 c2 c0 d6 cd e9 bf f7 87 44 41 c6 68 07 c0
       -6.0724072 -1.8265941 12.283195 -2.1157699
0003a0 56 c5 33 c1 d8 10 42 bf b2 32 fa c0 28 64 c7 bf
       -11.235678 -0.7580695 -7.8186884 -1.557744
0003b0 89 a8 e3 3e 96 1a 68 41 14 f1 8a bf 07 ef 18 40
       0.4446452 14.506491 -1.0854821 2.389589
0003c0 c1 7b b5 40 bc 7b b5 c0 dc 45 98 40 05 b0 8f 41
       5.6713567 -5.6713543 4.7585278 17.960947
0003d0 1b 23 8f c0 ed c2 0a bf aa 83 5b c0 34 60 59 41
       -4.4730353 -0.54203683 -3.4299111 13.585987
0003e0 23 d7 a4 40 ae 5f 3d 3f a2 e6 86 41 ef 90 47 40
       5.151262 0.7397412 16.862614 3.118221
0003f0 fb 3a 88 40 71 48 cf c0 cc bb e2 3f e6 da 9c 40
       4.2572 -6.477593 1.7713561 4.901721

output.bias f4 [11]
000000 ad bd 8c 3f 16 da 97 be b6 98 b2 be f9 d4 42 bf
       1.0995384 -0.29658574 -0.34882134 -0.7610622
000010 45 5c f1 be 3e 33 05 3e 99 c5 37 3f c0 a8 0c bf
       -0.4714071 0.13007829 0.71785885 -0.5494499
000020 0d aa f0 bd fe 1d c2 bf d7 50 7b 40
       -0.117511846 -1.5165403 3.926809
