models/model_rnn2.pth (torch, 60771 bytes, 6 tensors)

rnn.weight_ih_l0 f4 [100, 35]
-2.2424443 -6.5153747 13.111582 40.573418 31.78733 6.2250824 -2.3789651 -1.2898238
-4.5457044 -8.83884 1.1377593 -17.867128 6.526819 5.112965 36.217915 43.360386
37.824184 16.448551 7.235212 1.7647046 -13.00214 23.697788 29.488253 21.673204
27.059649 25.926344 27.698235 -1.6469669 -5.4699078 -1.3095069 -1.3266674 -11.693434
-11.143303 32.985813 26.660704 0.3148955 -28.6443 -4.052673 6.8393183 8.366924
8.3561125 0.18915367 -3.8954697 1.28867 -0.9953715 -2.609043 0.69080067 0.29602215
-1.7924832 6.3868637 7.8919444 7.70167 8.730696 9.005872 -3.7717004 -1.3857958
2.1359265 -9.88744 -0.7168283 -12.781291 19.310228 12.471497 -0.5258503 -5.732662
-27.701326 4.307127 -15.725936 -11.104951 7.1885815 12.622812 -3.5519984 -5.18021
3.3752465 -7.2503614 15.628552 -1.3735209 -3.5435987 3.3425014 65.11974 6.664525
4.145053 55.13931 -0.6071275 2.0182886 -11.324174 13.287536 13.834222 16.674742
4.4093494 3.711294 6.308679 25.743277 21.03485 -7.193315 -11.276894 -8.377071
-6.5668616 -2.947193 -10.717219 -3.8926473 0.04576505 -9.040059 -10.416716 -36.305172
-32.91458 -0.8725643 -5.2979493 5.95663 0.816134 9.714681 -1.1637988 -0.96088755
6.12691 -2.5689082 3.0230742 4.1401305 4.3146253 7.7757964 4.666178 1.1668594
0.7411166 12.030424 4.4337745 5.3761497 6.0853734 7.0861526 27.445116 25.724098
6.668989 4.099641 -0.9391843 5.917677 -0.14942457 6.4927764 -4.4853644 -1.0228153
7.4262147 -1.2936354 -24.690506 -23.291807 2.872308 -1.7348558 -5.0847783 10.054782
12.21104 1.663607 2.9783955 -0.9405845 10.216622 -3.3414485 1.9232503 3.3957665
-10.437076 -1.6232905 8.733395 12.155811 12.308584 11.397205 1.2573323 -1.9182293
-0.40561122 22.19149 21.987144 7.3170295 6.052473 7.929747 18.522741 -1.4672056
-1.98183 0.040361747 1.3080254 -5.0799117 -4.8531723 6.7960877 8.828996 -2.8294334
-14.640396 3.4571502 -31.063755 1.4783295 6.27776 -2.7407377 -2.574002 -32.30532
19.172457 0.6796964 -15.468426 2.2716143 -4.822072 -35.303463 -24.342306 -32.008812
37.391006 4.785225 -6.262183 53.875534 16.985418 -1.1263407 -5.0730414 -21.95837
-18.492208 -18.049366 3.3079166 2.5643828 -3.4127982 6.0373464 -4.9546785 -1.5516284
-23.533731 -6.4336033 -2.8882892 9.33032 -2.0527134 102.9373 61.74263 0.56100255
-3.14298 0.19744532 140.4495 -4.0167 0.1816958 49.678596 1.0682071 1.4483656
98.94182 82.79324 106.43923 -32.776352 8.707185 15.580752 -53.09333 66.82506
64.40859 61.73257 68.486206 66.84777 68.53176 9.036312 7.5467143 0.67515695
-0.73688346 10.1049595 11.457615 71.10312 62.694023 -0.25985175 -0.36172238 3.7929463
33.022778 70.39035 -15.103944 -0.21774477 -78.14764 -7.3646326 -1.5748376 0.28536844
00000000: 3584 0fc0 f37d d0c0 0ac9 5141 2e4b 2242
00000010: 744c fe41 e033 c740 f740 18c0 f218 a5bf
00000020: 6976 91c0 e36b 0dc1 19a2 913f e1ef 8ec1
00000030: b4db d040 699d a340 25df 1042 0971 2d42
00000040: f74b 1742 a296 8341 db86 e740 d7e1 e13f
00000050: c408 50c1 1295 bd41 f1e7 eb41 b962 ad41
00000060: 297a d841 2769 cf41 fc95 dd41 d0cf d2bf
00000070: 7c09 afc0 ec9d a7bf 3dd0 a9bf 4e18 3bc1
00000080: f84a 32c1 79f1 0342 1f49 d541 fc39 a13e
00000090: 8727 e5c1 7faf 81c0 b2db da40 ecde 0541
000000a0: a3b2 0541 80b1 413e 604f 79c0 23f3 a43f
000000b0: abd0 7ebf 8ffa 26c0 50d8 303f 3790 973e
000000c0: 1770 e5bf 3061 cc40 cf8a fc40 1574 f640
000000d0: eeb0 0b41 0d18 1041 8a63 71c0 c261 b1bf
000000e0: 05b3 0840 f432 1ec1 0f82 37bf 2b80 4cc1
000000f0: 597b 9a41 408b 4741 209e 06bf f871 b7c0
00000100: 519c ddc1 fcd3 8940 6f9d 7bc1 e1ad 31c1
00000110: dc08 e640 0af7 4941 f153 63c0 48c4 a5c0
00000120: 0a04 5840 f602 e8c0 8d0e 7a41 88cf afbf
00000130: 52ca 62c0 8beb 5540 4f3d 8242 ca43 d540
00000140: 46a4 8440 a78e 5c42 b56c 1bbf a42b 0140
00000150: d12f 35c1 bf99 5441 f958 5d41 df65 8541
00000160: 6419 8d40 d785 6d40 b3e0 c940 3bf2 cd41
00000170: 5f47 a841 a32f e6c0 286e 34c1 7c08 06c1
00000180: bb23 d2c0 cf9e 3cc0 bb79 2bc1 2221 79c0
00000190: 2274 3b3d 15a4 10c1 deaa 26c1 7f38 11c2
000001a0: 88a8 03c2 6060 5fbf cd88 a9c0 b79c be40
000001b0: 28ee 503f 556f 1b41 5cf7 94bf bafc 75bf
000001c0: a60f c440 fe68 24c0 0c7a 4140 f37b 8440
000001d0: 6911 8a40 53d3 f840 5551 9540 a65b 953f
000001e0: d1b9 3d3f 9e7c 4041 7be1 8d40 6b09 ac40
000001f0: 61bb c240 c3c1 e240 998f db41 f4ca cd41
00000200: 5c68 d540 4230 8340 626e 70bf 9c5d bd40
00000210: c102 19be d3c4 cf40 1b88 8fc0 9deb 82bf
00000220: 8da3 ed40 d895 a5bf 2886 c5c1 9f55 bac1
00000230: e5d3 3740 c10f debf 81b6 a2c0 63e0 2041
00000240: 6b60 4341 13f1 d43f 089e 3e40 25ca 70bf
00000250: 4977 2341 4bda 55c0 112d f63f 3d54 5940
00000260: 43fe 26c1 fcc7 cfbf fcbb 0b41 347e 4241
00000270: f6ef 4441 f45a 3641 44f0 a03f 8a88 f5bf
00000280: 46ac cfbe 2c88 b141 ace5 af41 1b25 ea40
00000290: dcad c140 7dc0 fd40 932e 9441 65cd bbbf
000002a0: 9bac fdbf 5c52 253d 606d a73f a38e a2c0
000002b0: 304d 9bc0 8d79 d940 9143 0d41 7015 35c0
000002c0: 103f 6ac1 f341 5d40 9282 f8c1 e739 bd3f
000002d0: 69e3 c840 3f68 2fc0 73bc 24c0 a638 01c2
000002e0: 3161 9941 9500 2e3f ac7e 77c1 2162 1140
000002f0: 6a4e 9ac0 bf36 0dc2 0bbd c2c1 0609 00c2
00000300: 6490 1542 9020 9940 ce63 c8c0 8c80 5742
00000310: 23e2 8741 ef2b 90bf 5b56 a2c0 beaa afc1
00000320: 0bf0 93c1 1a65 90c1 e8b4 5340 d91e 2440
00000330: 496b 5ac0 f131 c140 ba8c 9ec0 c29b c6bf
00000340: 1545 bcc1 14e0 cdc0 bbd9 38c0 fe48 1541
00000350: a85f 03c0 e6df cd42 74f8 7642 dd9d 0f3f
00000360: 9626 49c0 1b2f 4a3e 1273 0c43 ce88 80c0
00000370: 770e 3a3e e2b6 4642 03bb 883f 0b64 b93f
00000380: 36e2 c542 2496 a542 e3e0 d442 fc1a 03c2
00000390: a150 0b41 c34a 7941 925f 54c2 6ea6 8542
000003a0: 33d1 8042 27ee 7642 f0f8 8842 0fb2 8542
000003b0: 4310 8942 bc94 1041 af7e f140 16d7 2c3f
000003c0: 65a4 3cbf eaad 2141 6452 3741 cc34 8e42
000003d0: aec6 7a42 4a0b 85be ad33 b9be a2bf 7240
000003e0: 5317 0442 dcc7 8c42 c1a9 71c1 7cf8 5ebe
000003f0: 974b 9cc2 12ab ebc0 4794 c9bf d01b 923e

rnn.weight_hh_l0 f4 [100, 100]
0.0031025189 0.0116353575 0.09101025 -0.04327844 -0.04012706 0.17673562 0.13694733 -0.073973626
-0.055511076 -0.12098078 0.095638506 -0.02513734 -0.024345472 0.08951122 0.007609507 0.04521652
0.060479023 0.086107425 0.058488984 -0.022556063 -0.053240295 -0.08234672 -0.17327698 0.05957033
0.09909504 -0.041301392 0.087996416 -0.06704997 -0.15715377 0.17501254 -0.049641497 -0.22738877
0.107078895 -0.090494625 -0.006702146 0.07244819 0.04344781 0.018564397 -0.068826206 -0.0111739505
-0.0354713 -0.030617572 -0.22281463 -0.11022335 -0.065695 -0.05203013 -0.073994525 0.1465196
0.02044673 0.12052741 0.004640182 0.105492085 0.17512988 0.04837796 0.17468864 0.04477534
-0.04404735 0.04473159 0.12283256 -0.09137071 0.015510434 -0.029912852 0.08982558 -0.031168954
0.114088826 0.14327936 -0.10326503 0.02521788 0.23137963 -0.05327409 -0.05824827 0.019609297
-0.052359026 0.08491119 0.12297106 0.07053142 0.013308207 -0.105372675 -0.1453303 0.24317895
-0.12096737 0.19165136 0.0106789535 -0.01746957 -0.111466065 -0.058880758 -0.15336521 0.05213917
0.006123049 0.06859823 0.03147019 0.055931658 -0.10154698 0.15663326 0.01672672 -0.07604901
-0.10278305 -0.095225155 -0.012508951 0.07042293 -0.00068563316 -0.0007702333 -0.022519393 -0.041379288
-0.019561062 -0.013941305 -0.040443916 -0.00075343053 0.008509266 0.0052323136 -0.010998605 0.038780935
0.008569132 0.00041367215 -0.022983158 -0.028793255 -0.014793132 0.008578307 -0.027536938 -0.027456302
0.020861348 -0.02287002 0.041134346 0.00046419917 -0.017929334 -0.0005154778 -0.030940723 -0.012482893
-0.029306088 -0.021975389 0.00692612 -0.01895335 -0.01770578 -0.06391177 -0.018097157 0.052249968
0.0078425 -0.01479486 0.02897944 -0.02418665 0.035634883 -0.026992008 0.019992812 -0.031864405
0.011499472 0.0058035157 0.009146636 -0.019131415 0.014266365 -0.029427607 0.004630437 0.0117750345
0.0014556297 -0.036040746 -0.037448876 0.016996184 0.015804404 -0.00961685 0.013944032 -0.013706187
-0.0359922 0.058917858 -0.031246055 0.005961388 -0.028144898 0.0069450345 0.009497046 0.031613942
0.035161268 0.008878247 -0.043167852 0.054535497 -0.030933281 0.0040836134 0.00982296 -0.009532171
0.004024518 -0.0042684767 0.0051635397 -0.030230502 0.0057376684 0.0042487974 -0.01186118 0.03911278
-0.0063891835 0.0014743702 -0.0019554468 0.03843228 -0.030134834 -0.011932497 -0.007713575 -0.009918304
0.04249413 -0.012117892 0.037075616 0.03293583 -0.005698859 -0.038061768 -0.018581497 -0.015608334
-0.023020903 -0.008419171 0.048934277 -0.044466615 0.016255224 0.005998186 -0.04843585 0.002529949
-0.0106376 -0.076117836 -0.004223441 0.03556572 -0.017285328 0.009041115 0.011760063 0.026441323
0.005499541 0.029112363 0.05229771 0.029289769 -0.03140221 -0.0054463153 0.024837438 -0.017261058
-0.04110564 0.0011419908 -0.0070756096 -0.042120714 0.0114144785 0.06017384 -0.013569914 -0.020330748
0.047584105 0.008530284 0.0107468795 0.045322392 -0.0026252642 0.01031807 0.007123368 0.001623225
0.0030790302 0.0033397814 -0.0044215857 0.0031096847 0.018218739 -3.5525693e-07 -0.0017336031 0.026110265
-0.04542487 -0.017246673 -0.0049005323 -0.0390788 0.04721337 0.015715232 -0.061746813 0.033590574
00000000: a153 4b3b 3aa2 3e3c 9563 ba3d bc44 31bd
00000010: 465c 24bd 2ffa 343e ec3b 0c3e 7c7f 97bd
00000020: 955f 63bd c5c4 f7bd 1fde c33d d3ec cdbc
00000030: 2870 c7bc a951 b73d 2c59 f93b f534 393d
00000040: dab8 773d 1759 b03d 2592 6f3d 7ec7 b8bc
00000050: 7f12 5abd 66a5 a8bd 856f 31be 0500 743d
00000060: 57f2 ca3d a62b 29bd 7737 b43d 7f51 89bd
00000070: ebec 20be 7d36 333e e254 4bbd 9ad8 68be
00000080: 2e4c db3d 3f55 b9bd ad9d dbbb b75f 943d
00000090: 55f6 313d 5d14 983c c1f4 8cbd f212 37bc
000000a0: 5b4a 11bd b4d1 fabc 8529 64be c8bc e1bd
000000b0: 1a8b 86bd 8c1d 55bd 718a 97bd 3c09 163e
000000c0: e77f a73c 13d7 f63d ab0c 983b 3c0c d83d
000000d0: 3f55 333e f827 463d 94e1 323e 5966 373d
000000e0: fe6a 34bd 7938 373d a38f fb3d 9120 bbbd
000000f0: 7a1f 7e3c cc0b f5bc 79f6 b73d 0956 ffbc
00000100: 67a7 e93d d3b7 123e 9e7c d3bd ba95 ce3c
00000110: c8ee 6c3e ef35 5abd bd95 6ebd ada3 a03c
00000120: 6b76 56bd ebe5 ad3d 40d8 fb3d c772 903d
00000130: aa0a 5a3c a1cd d7bd 77d1 14be e703 793e
00000140: bebd f7bd 4140 443e c7f6 2e3c 581c 8fbc
00000150: 5248 e4bd f32c 71bd c50b 1dbe e28f 553d
00000160: dca3 c83b 3b7d 8c3d e3e6 003d 9818 653d
00000170: ddf7 cfbd 7864 203e 7906 893c 95bf 9bbd
00000180: eb7f d2bd 6805 c3bd 58f2 4cbc e639 903d
00000190: 10bc 33ba 7be9 49ba 977a b8bc 547d 29bd
000001a0: 853e a0bc 126a 64bc 85a8 25bd de81 45ba
000001b0: 736a 0b3c d473 ab3b 7e33 34bc c2d8 1e3d
000001c0: 8b65 0c3c 23e2 d839 2d47 bcbc d5df ebbc
000001d0: e55e 72bc 078c 0c3c 2595 e1bc 0aec e0bc
000001e0: 6be5 aa3c e859 bbbc 7d7c 283d c25f f339
000001f0: 8ae0 92bc 2121 07ba 6677 fdbc 0c85 4cbc
00000200: 5213 f0bc bb05 b4bc 81f4 e23b 0e44 9bbc
00000210: b60b 91bc 2de4 82bd 7d40 94bc 1004 563d
00000220: d47d 003c 2466 72bc 4a66 ed3c 1523 c6bc
00000230: e2f5 113d 581e ddbc f7c7 a33c 4084 02bd
00000240: 4868 3c3c 6b2b be3b c6db 153c 7cb9 9cbc
00000250: 79bd 693c 2a12 f1bc ecba 973b 13ec 403c
00000260: d4ca be3a 769f 13bd fe63 19bd 953b 8b3c
00000270: 3d78 813c fe8f 1dbc 8275 643c ea8f 60bc
00000280: 8f6c 13bd da53 713d baf7 ffbc bf57 c33b
00000290: 2190 e6bc 2c93 e33b 7f99 1b3c 9f7d 013d
000002a0: 4305 103d 1176 113c c6d0 30bd 9d60 5f3d
000002b0: cb67 fdbc d5cf 853b 7bf0 203c d32c 1cbc
000002c0: 1be0 833b 94de 8bbb e932 a93b f5a5 f7bc
000002d0: 0d03 bc3b 7f39 8b3b 6555 42bc b934 203d
000002e0: 5b5c d1bb a83f c13a f426 00bb 2b6b 1d3d
000002f0: 54dd f6bc 8580 43bc 28c2 fcbb 6280 22bc
00000300: 530e 2e3d 1f8a 46bc 9adc 173d b9e7 063d
00000310: 7fbd babb a8e6 1bbd 3938 98bc 19ba 7fbc
00000320: 5596 bcbc 90f0 09bc 4f6f 483d a022 36bd
00000330: ad29 853c 6e8c c43b ab64 46bd 80cd 253b
00000340: 5449 2ebc abe3 9bbd ca64 8abb 5cad 113d
00000350: f699 8dbc 2f21 143c 47ad 403c 799b d83c
00000360: 7e35 b43b 0d7d ee3c 2036 563d 19f1 ef3c
00000370: 9b9f 00bd 0177 b2bb e277 cb3c 1067 8dbc
00000380: 635e 28bd daae 953a 84da e7bb c586 2cbd
00000390: cb03 3b3c d878 763d 5854 5ebc ab8c a6bc
000003a0: 8de7 423d 9bc2 0b3c ae13 303c f9a3 393d
000003b0: a00c 2cbb 1f0d 293c 246b e93b 65c2 d43a
000003c0: 8ec9 493b 3ce0 5a3b f3e2 90bb dacb 4b3b
000003d0: 773f 953c 24ba beb4 113a e3ba 32e5 d53c
000003e0: 6e0f 3abd e548 8dbc a594 a0bb 1711 20bd
000003f0: cf62 413d 3bbd 803c 3aea 7cbd 4596 093d

rnn.bias_ih_l0 f4 [100]
-1.066376 -0.38303593 -1.4975929 -2.9306576 1.9831039 0.14049736 0.6361101 3.233124
-0.57522154 -3.405002 -2.1361573 3.7895029 -2.083866 3.1597114 -1.4405618 -1.2510281
-2.3318872 -2.190713 0.40180433 -2.5762894 2.0843346 2.1149023 -3.5609605 -0.86510354
3.8980734 0.5657661 1.6555563 0.36757958 2.748547 -1.8369201 2.9309115 3.1456788
1.197702 -2.2257175 1.4734292 -1.125319 -2.777267 -0.63545823 -2.4686968 2.0776322
-3.2206736 -1.6018487 -2.139764 2.120016 1.3829 5.754095 -3.6359313 -1.7219483
-1.3606595 1.0823302 2.3838806 -0.38438582 -2.9815738 -0.7882248 1.5037911 3.644566
-0.92161584 1.5101457 3.0734365 -0.35025996 -1.5049103 2.093283 0.10040016 -1.7287925
2.5359418 -3.2744334 3.521821 2.0252428 -3.0704308 -0.43498638 3.680072 -2.148989
4.0059295 -2.0716836 1.8820577 1.2910826 -2.5820694 2.326652 -0.9210075 -1.5463665
-1.1480747 1.7938892 0.082908385 0.94987667 0.3581864 0.8431049 -1.4397863 1.4698546
2.0883996 3.679388 2.259791 -0.40972844 0.45840853 0.3204553 0.5727838 -1.4875523
-2.8933523 -0.42423207 2.2044315 1.2097753
00000000: 027f 88bf 491d c4be 20b1 bfbf e58f 3bc0
00000010: 59d6 fd3f 8ade 0f3e 1dd8 223f 81eb 4e40
00000020: b841 13bf 8eeb 59c0 cdb6 08c0 3787 7240
00000030: 0f5e 05c0 b638 4a40 5464 b8bf b021 a0bf
00000040: a43d 15c0 a434 0cc0 4cb9 cd3e ede1 24c0
00000050: bd65 0540 8f5a 0740 c7e6 63c0 6d77 5dbf
00000060: 097a 7940 0cd6 103f 45e9 d33f 6433 bc3e
00000070: 32e8 2f40 3320 ebbf 0e94 3b40 cd52 4940
00000080: 4d4e 993f 2872 0ec0 5499 bc3f 740a 90bf
00000090: bebe 31c0 64ad 22bf 21ff 1dc0 edf7 0440
000000a0: 841f 4ec0 6109 cdbf e5f1 08c0 58ae 0740
000000b0: de02 b13f 8c21 b840 19b3 68c0 cd68 dcbf
000000c0: 172a aebf cc89 8a3f 8091 1840 38ce c4be
000000d0: 1bd2 3ec0 1ac9 49bf 3a7c c03f 9240 6940
000000e0: 04ef 6bbf 744c c13f 2fb3 4440 4655 b3be
000000f0: e7a0 c0bf 59f8 0540 999e cd3d 1349 ddbf
00000100: df4c 2240 5190 51c0 8465 6140 949d 0140
00000110: f081 44c0 89b6 debe 4d86 6b40 0989 09c0
00000120: 9330 8040 7796 04c0 44e7 f03f 3242 a53f
00000130: a040 25c0 dee7 1440 26c7 6bbf 56ef c5bf
00000140: 1df4 92bf 299e e53f dfcb a93d 1e2b 733f
00000150: 3564 b73e b9d5 573f eb4a b8bf 3224 bc3f
00000160: 57a8 0540 187b 6b40 6aa0 1040 edc7 d1be
00000170: 86b4 ea3e b812 a43e f6a1 123f 1d68 bebf
00000180: af2c 39c0 f234 d9be 6815 0d40 ebd9 9a3f

rnn.bias_hh_l0 f4 [100]
-1.0688494 -0.34956506 -1.4022675 -2.9107544 1.9462814 0.17957331 0.6506536 3.1950207
-0.43338427 -3.3825512 -2.128215 3.6379347 -2.1247199 3.3078632 -1.4972903 -1.1802692
-2.4174533 -2.2059038 0.36350167 -2.5338464 2.0834455 2.0142872 -3.501169 -0.8484565
3.9267087 0.5294964 1.4612999 0.2864929 2.685163 -1.9429296 3.009471 3.187098
1.1912448 -2.27067 1.5552258 -1.0180882 -2.8066852 -0.7372046 -2.5448062 2.202284
-3.137199 -1.6979063 -2.0644767 2.1232417 1.3649338 5.6872773 -3.6052148 -1.6856289
-1.3592187 1.141537 2.380846 -0.40897754 -2.959146 -0.8236885 1.5965861 3.573501
-0.8091702 1.5748056 3.223056 -0.3541411 -1.4597589 2.2894742 0.2154134 -1.7716806
2.5810056 -3.3248086 3.6509216 2.0322661 -2.982955 -0.48120707 3.6193178 -2.0671148
3.9176862 -2.0630603 1.9621478 1.3445957 -2.5412548 2.1973612 -0.99305737 -1.3861349
-1.1361521 1.8198043 0.06561294 1.1012024 0.4740861 0.7962094 -1.2792153 1.4875757
1.9726096 3.5367727 2.395681 -0.33564967 0.49419576 0.34797743 0.696957 -1.5743432
-3.0118392 -0.34344238 2.1770275 1.2668587
00000000: 0fd0 88bf 31fa b2be 807d b3bf cd49 3ac0
00000010: c01f f93f 11e2 373e 3c91 263f 387b 4c40
00000020: 8be4 ddbe b87b 58c0 ad34 08c0 ecd3 6840
00000030: 69fb 07c0 08b4 5340 35a7 bfbf 1013 97bf
00000040: 8eb7 1ac0 872d 0dc0 e41c ba3e 8a2a 22c0
00000050: 2c57 0540 15ea 0040 2713 60c0 7234 59bf
00000060: 324f 7b40 138d 073f e00b bb3f 33af 923e
00000070: b6d9 2b40 ebb1 f8bf 2c9b 4040 6af9 4b40
00000080: b67a 983f a852 11c0 a411 c73f b750 82bf
00000090: bba0 33c0 71b9 3cbf 1bde 22c0 39f2 0c40
000000a0: dec7 48c0 fe54 d9bf 6320 04c0 31e3 0740
000000b0: 27b6 ae3f 2dfe b540 d7bb 66c0 b0c2 d7bf
000000c0: e1fa adbf e21d 923f c85f 1840 8165 d1be
000000d0: a662 3dc0 40dd 52bf ef5c cc3f 3eb4 6440
000000e0: c725 4fbf 3b93 c93f 8d46 4e40 fb51 b5be
000000f0: 61d9 babf bf86 1240 5595 5c3e 6ec6 e2bf
00000100: 322f 2540 aac9 54c0 b3a8 6940 a610 0240
00000110: bce8 3ec0 c660 f6be e7a2 6740 9c4b 04c0
00000120: 5fbb 7a40 2e09 04c0 a927 fb3f b61b ac3f
00000130: eba3 22c0 91a1 0c40 0239 7ebf de6c b1bf
00000140: 6f6d 91bf 59ef e83f 1460 863d 33f4 8c3f
00000150: 6abb f23e 61d4 4b3f 54bd a3bf e168 be3f
00000160: 797e fc3f 7c5a 6240 d652 1940 46da abbe
00000170: 3a07 fd3e 192a b23e c66b 323f 1484 c9bf
00000180: f9c1 40c0 aed7 afbe 6b54 0b40 6d28 a23f

output.weight f4 [11, 100]
3.8087316 4.578792 -0.23182209 -0.10910621 1.0122398 3.8860643 4.388517 2.057095
-4.3554363 -1.3546919 -6.080216 2.319594 -6.51774 2.777039 -3.191311 1.2285385
-2.9218795 -2.87278 2.7791924 -1.8483713 4.269207 2.067555 -4.180273 0.71033984
3.1639013 2.5795257 2.3047388 2.5250797 2.132931 -3.4653668 3.0244033 2.2344542
-2.096914 -0.3204318 -0.8894793 4.141703 -2.5728378 -1.8608873 -6.8490567 -0.24903667
0.48955017 -3.4214144 -3.8063064 2.7764728 -2.0252655 6.6347265 -2.4941657 -2.5264862
-1.0839107 1.6888545 2.5724373 -4.6136127 -5.1960216 0.54339784 1.8092301 1.7493533
-3.560505 -6.1625724 2.700376 -0.3011178 -1.7703593 6.411343 1.8262137 1.3471911
4.086815 -3.327502 -0.7700504 -4.82195 -1.4285858 0.37390327 3.2839978 -3.2587452
0.51224667 -2.4430478 2.0935884 2.041308 -2.2940314 1.4438748 0.032800708 -2.6160724
-1.9911112 -1.0015191 -1.0632353 3.2131176 0.07028827 -0.24603318 -2.8149192 1.4740518
2.5962093 2.6178567 8.7496395 -1.9081802 -7.2474785 -3.0048325 -2.2389624 -4.9011045
-2.029361 -0.7398913 6.64248 7.313084 1.8381915 0.30720758 5.526279 1.2819566
-0.6031998 -6.6471057 9.639626 -1.976847 -0.6283658 -9.977178 -3.0747976 0.6138079
-0.0767258 0.2860562 1.8472958 1.5356597 -2.2128963 -2.9967747 -4.2363777 -7.492693
2.821375 0.1855476 -1.7617718 -0.15712123 3.2362084 1.0139799 4.9247413 -1.3976582
2.841812 -3.486839 1.9670705 0.39826202 -0.51317257 -1.7925723 4.8691688 -1.4990277
-2.0794337 -8.24482 -0.07013132 6.42372 -2.7979386 2.6995382 -2.919397 1.7668458
5.7602077 -0.19184639 -2.3385131 -9.0479965 1.5619684 -2.0488791 -2.5921495 0.7952318
-9.794978 0.96376616 -2.0441093 4.7040334 0.9608435 -3.3444667 3.203884 0.7738371
-0.4175878 0.030245567 0.13573723 -1.6888113 2.9059865 0.58577895 2.9718113 3.2463853
-6.6676087 -6.6017323 -1.4995869 -0.20836887 -0.4100163 -14.747496 0.40803638 -1.5720096
-4.732044 0.6998016 -6.1449766 -0.36010268 -0.24034914 2.412281 -2.0500174 -0.105469786
-0.73725456 -0.5483815 -1.3589257 -1.8982859 8.112003 1.1701545 4.1901646 -2.3575168
-0.20926344 1.7935742 -2.0965595 -0.724253 -6.3438563 -1.5175606 -0.032337848 4.848555
2.891671 -0.710605 3.195871 1.9071352 -1.0135059 1.3889769 9.447017 -0.9221646
1.6042861 -0.13529442 0.5892019 0.5193297 0.24721326 -0.23356919 -3.0392087 1.9711448
0.2714184 0.14087315 -7.7303843 -6.6202946 4.594327 -0.35567415 -1.396311 0.022552049
-2.5739293 1.7985145 5.9004602 0.65128624 -1.4248921 -1.2131239 2.5950344 -2.9831855
-0.07007081 2.4205136 -0.768739 7.026235 0.24200279 3.5705967 0.23116025 -2.9914498
1.4937532 1.7011952 -1.6627817 2.439392 -1.2886496 -1.1377097 -0.2787016 -8.8426895
0.5132704 0.53067094 2.9787931 0.0726118 0.35775143 1.0373353 -1.3950931 0.08115747
00000000: 42c2 7340 7785 9240 c562 6dbe 1473 dfbd
00000010: 1391 813f 47b5 7840 bb6e 8c40 72a7 0340
00000020: bc5f 8bc0 8b66 adbf 2191 c2c0 3a74 1440
00000030: 5391 d0c0 02bb 3140 703e 4cc0 c040 9d3f
00000040: 1300 3bc0 a1db 37c0 4ade 3140 6e97 ecbf
00000050: 589d 8840 d252 0440 ccc4 85c0 d5d8 353f
00000060: 5c7d 4a40 f316 2540 d780 1340 e89a 2140
00000070: f181 0840 92c8 5dc0 d38f 4140 4c01 0f40
00000080: d733 06c0 a30f a4be eab4 63bf d588 8440
00000090: 60a9 24c0 8e31 eebf 792b dbc0 7803 7fbe
000000a0: 52a6 fa3e 74f8 5ac0 869a 73c0 bbb1 3140
000000b0: f39d 01c0 ae4f d440 69a0 1fc0 f3b1 21c0
000000c0: 96bd 8abf 622c d83f d0a2 2440 b7a2 93c0
000000d0: cf45 a6c0 1f1c 0b3f da94 e73f cfea df3f
000000e0: 50df 63c0 cb33 c5c0 f6d2 2c40 1d2c 9abe
000000f0: 229b e2bf b929 cd40 5fc1 e93f c270 ac3f
00000100: 30c7 8240 cbf5 54c0 0622 45bf 6a4d 9ac0
00000110: e6db b6bf 4070 bf3e 052d 5240 488f 50c0
00000120: 9922 033f e55a 1cc0 5afd 0540 caa4 0240
00000130: 69d1 12c0 e4d0 b83f 095a 063d bb6d 27c0
00000140: bbdc febf c731 80bf 1818 88bf b8a3 4d40
00000150: 4cf3 8f3d 1ff0 7bbe a327 34c0 bbad bc3f
00000160: 4b28 2640 f78a 2740 86fe 0b41 403f f4bf
00000170: 58eb e7c0 2d4f 40c0 294b 0fc0 d9d5 9cc0
00000180: 0de1 01c0 8469 3dbf 328f d440 c904 ea40
00000190: dc49 eb3f 504a 9d3e 47d7 b040 2717 a43f
000001a0: 4d6b 1abf 17b5 d4c0 e83b 1a41 5309 fdbf
000001b0: 95dc 20bf 85a2 1fc1 7cc9 44c0 8422 1d3f
000001c0: 6b22 9dbd f575 923e 3074 ec3f 7f90 c43f
000001d0: 18a0 0dc0 28cb 3fc0 6890 87c0 24c4 efc0
000001e0: 6891 3440 3100 3e3e bd81 e1bf 63e4 20be
000001f0: 0a1e 4f40 18ca 813f 7b97 9d40 77e6 b2bf
00000200: 3fe0 3540 5f28 5fc0 f7c8 fb3f 00e9 cb3e
00000210: 475f 03bf 0273 e5bf 3bd0 9b40 24e0 bfbf
00000220: 7115 05c0 c8ea 03c1 02a1 8fbd 1d8f cd40
00000230: 6d11 33c0 3cc5 2c40 67d7 3ac0 0128 e23f
00000240: 9f53 b840 6173 44be 33aa 15c0 98c4 10c1
00000250: 95ee c73f d620 03c0 c7e5 25c0 5094 4b3f
00000260: 3bb8 1cc1 61b9 763f b0d2 02c0 7187 9640
00000270: d7f9 753f be0b 56c0 6f0c 4d40 301a 463f
00000280: 11ce d5be 8dc5 f73c b3fe 0a3e f82a d8bf
00000290: affb 3940 9cf5 153f 2832 3e40 c7c4 4f40
000002a0: 0d5d d5c0 6441 d3c0 77f2 bfbf a65e 55be
000002b0: a8ed d1be bef5 6bc1 25ea d03e 9c37 c9bf
000002c0: e86c 97c0 3326 333f a6a3 c4c0 615f b8be
000002d0: 161e 76be d062 1a40 7c33 03c0 8b00 d8bd
000002e0: b7bc 3cbf bb62 0cbf 47f1 adbf 08fb f2bf
000002f0: c4ca 0141 9fc7 953f d415 8640 8ee1 16c0
00000300: 2849 56be d793 e53f 082e 06c0 a568 39bf
00000310: df00 cbc0 6d3f c2bf b174 04bd 5d27 9b40
00000320: 2311 3940 36ea 35bf 2789 4c40 021d f43f
00000330: 90ba 81bf ffc9 b13f fb26 1741 fb12 6cbf
00000340: 3f59 cd3f 9f8a 0abe f0d5 163f cbf2 043f
00000350: 7925 7d3e c32c 6fbe 6582 42c0 794e fc3f
00000360: 5af7 8a3e 0d41 103e 4f5f f7c0 74d9 d3c0
00000370: ba04 9340 ec1a b6be 52ba b2bf 13bf b83c
00000380: 42bb 24c0 b935 e63f 92d0 bc40 b2ba 263f
00000390: dd62 b6bf a547 9bbf 0b15 2640 83ec 3ec0
000003a0: 4981 8fbd b2e9 1a40 14cc 44bf ebd6 e040
000003b0: 94cf 773e a884 6440 46b5 6c3e ea73 3fc0
000003c0: 4e33 bf3f c4c0 d93f 08d6 d4bf 001f 1c40
000003d0: 78f2 a4bf 79a0 91bf fab1 8ebe a87b 0dc1
000003e0: b065 033f 0dda 073f 8ca4 3e40 7fb5 943d
000003f0: 322b b73e 67c7 843f 6992 b2bf e335 a63d

output.bias f4 [11]
1.7336569 -0.6249346 -0.4385175 1.9767332 0.7777917 -0.2793678 -1.9212565 -0.85584354
0.6663511 0.8938893 4.080287
00000000: 78e8 dd3f b7fb 1fbf 5e85 e0be 9805 fd3f
00000010: 5b1d 473f 4c09 8fbe bceb f5bf 9018 5bbf
00000020: fc95 2a3f eed5 643f b691 8240
