models/model_lstmd.pth (torch, 887315 bytes, 14 tensors)

lstm.weight_ih_l0 f4 [512, 35]
00000000: 5c55 493f 6dca b340 4a75 f4be 975a 00bf
00000010: 1c8e 6bbf be90 483f e967 533f c20c cc3f
00000020: dd23 8abf e774 803d 7d36 af3e 0899 9ec0
00000030: 2216 333e 4d36 efbc a6d6 8bbe 38dd 41bf
00000040: 6791 61be b62f dfbf f0ab 80be 77ce 993d
00000050: c45f 60bf ef04 87c0 fbbf 5ac0 bc9c a83e
00000060: 48fa bf40 4020 8040 9c37 8d40 a57f 59be
00000070: 5b2c 20bf b167 1c40 3509 d1be d357 1fbf
00000080: a0bd 68be 8665 bf40 87f8 a4bd 1814 eb3f
00000090: 8755 603f 3f1c 6940 4934 10bd 6075 48be
000000a0: ed4f 3c3f 82f5 e73f 6176 8140 2c4f 32bf
000000b0: f06a 8dbf 0e8f 643e 54af 0040 8957 88bf
000000c0: e134 943e f2f5 1c3e 19a2 7cbe 4b1b 763c
000000d0: f680 d7be a5cd bd3e 0b07 8abd 8a55 0cbe
000000e0: 04f3 56be 7722 873e ceea bc3f 6aae 1240
000000f0: 742c ef3f 9898 f13f ddf1 5c3e ebba 54be
00000100: 3f2e 4e40 ac8b 0d3f cee7 77bf 5ce3 a3bf
00000110: fd5e 0a40 9045 2e3f f2f5 b3bf 0bdf 383f
00000120: 0c57 873f 5568 3a3f ea0c f9bd 39e9 083f
00000130: 02a9 a4bf 5e6f 20bf 20e8 f93f c6c7 cbbf
00000140: cf4e dabe ad7e 0741 9238 d9bf bf8b 3f3c
00000150: 1e80 9b3f f8e0 bb3b 07d5 483f 3f0c 98bf
00000160: 4bca e83e 2d0b 883e 2ac4 b5bf b90c 5f40
00000170: 82a8 aa3f 9ebb e040 a99b a740 e3d9 8b40
00000180: aeab 8a40 c69e 6b3f e7f2 313f ad9b 2c3f
00000190: 71c6 5840 162e 373f 518e f93e 8f70 a940
000001a0: 654f f140 f035 0540 da2b da3e 2c18 ab3f
000001b0: 31b5 113d 8987 593d 9be2 b23f a80c 0440
000001c0: ac08 d73f 7065 db3f 6082 a93f eb48 b53f
000001d0: febe 6f40 ab36 25bf 1d11 bd3f 786f 36bd
000001e0: c467 353d d082 a4bd 4d63 c23d 37f0 81be
000001f0: 1200 013e 12bd 5cbe 3d63 e93d 6346 18be
00000200: 34a9 303f 368e dabe 5d94 bcbd 6bbd 303f
00000210: 9400 4bbd 9d3d 9abe c9b3 a43f 65c2 8040
00000220: edf1 bebd d89a 98be 0b16 19bf 6ec5 a03f
00000230: f6af 2d3f e6c8 84bf 0361 923f 39fd 9cbf
00000240: 90a8 89bf f994 71bf e3c3 043f c76c 053f
00000250: d9f0 3d3f 798f ac3e dbac adbf 7e54 9ec0
00000260: 30ac 3f40 e7f4 69bf dd62 a4bf 5555 b0bf
00000270: c3ca 3bbe 9fe5 0cc0 b135 5a3f ff19 37bd
00000280: d80b 623f 79dd b3c0 6662 8cc0 47a7 ba3e
00000290: 495d 9640 6122 6f40 7d47 1d40 663f 6f3e
000002a0: b171 1e3f dc27 1140 23c9 b23f c6dd 573e
000002b0: 1650 4fbe fce6 5c40 0ea7 97bf 1df4 46bf
000002c0: a0da b33f 70bd 2ebf ba3b 603e 6900 4c3c
000002d0: 69a1 b9bf 9a3e 4bbf 76c6 643f 2b59 80c0
000002e0: 86f8 0dbe 85e1 993f 8a76 f53f d3d6 48bf
000002f0: e545 c43e 32c4 d5bc 1c75 af3e 7c53 653e
00000300: 8be6 32be 5a8f 4abe 42d2 433e 800e cf3e
00000310: f1b9 e83f bdaa 7d3d 8a38 8540 7899 8d3f
00000320: f5f5 b13f 3b50 e93f 1a0c b63f 6634 563f
00000330: 4602 523e 514f 9340 3c8f fe3f 6e1b 1340
00000340: 11fd 0f40 7eb2 bf40 1534 4340 258b 183f
00000350: 91c3 67bf 1899 4f3f 7d67 e33d 3ff9 a73f
00000360: deff 4240 7b1b 0140 0a3d c13f 0cfe f33f
00000370: ab4f ff3f a92a aebf 9c45 bb3f 8150 1340
00000380: ce6d 1a3f 56ee 6a3f 4fa7 703d 8f9f a93d
00000390: ef64 633f f3cd 753c 57f0 16bf b9d2 45be
000003a0: 6570 babe 7d86 3f3f 1ab5 7b3f f587 853f
000003b0: 2685 8a3f dc0f 563f 8222 aa3f d19c 4040
000003c0: 0ac5 2540 bd1a 973f 2356 813f bd44 f23f
000003d0: 7c7d ac3f 16ef 3040 98b6 a83e 9269 bcbd
000003e0: 1978 5f3e f276 aabb b797 953f b3be 3140
000003f0: 4304 7bbf 7995 133e 1a78 ef3f eb16 803f
0.78645873 5.61846 -0.47745734 -0.5013823 -0.92013717 0.7834586 0.8258043 1.5941393
-1.0792195 0.06272297 0.3422126 -4.9561806 0.17488912 -0.029200697 -0.273122 -0.7572818
-0.22028123 -1.7436435 -0.25131178 0.07510083 -0.87646127 -4.2193522 -3.4179676 0.3293208
5.999302 4.003937 4.4130383 -0.21240099 -0.6256768 2.4438288 -0.40827337 -0.62243384
-0.22728586 5.981143 -0.08055215 1.8365507 0.87630504 3.642349 -0.035206113 -0.19576025
0.7355946 1.8121798 4.0457006 -0.69652057 -1.104826 0.22320196 2.0107012 -1.0651714
0.28946593 0.15328196 -0.2467121 0.015021156 -0.42090577 0.37070957 -0.067396246 -0.13704506
-0.2099114 0.26393482 1.4759157 2.2918954 1.8685441 1.8874693 0.21576639 -0.20774429
3.2215726 0.5529125 -0.9683808 -1.280376 2.1620476 0.68074894 -1.4059432 0.72215337
1.057344 0.7281545 -0.12160666 0.5348087 -1.2864077 -0.6266993 1.9523964 -1.5920341
-0.4263825 8.468427 -1.6970389 0.011691033 1.2148473 0.0057336055 0.78450054 -1.1878737
0.45466837 0.26571026 -1.420049 3.4851515 1.3332675 7.0229025 5.2377515 4.3703475
4.333457 0.92039144 0.69511265 0.6742504 3.387112 0.71554697 0.4874139 5.29499
7.5409417 2.081417 0.4261158 1.3366752 0.03557319 0.053107772 1.3975405 2.0632725
1.6799521 1.7140331 1.3242912 1.4162878 3.7460322 -0.6453654 1.4770848 -0.0445399
0.04428841 -0.08032763 0.09491596 -0.25378582 0.12597683 -0.215565 0.11395881 -0.148706
0.69008183 -0.42686623 -0.092079856 0.6903903 -0.0495611 -0.30125132 1.2867366 4.02373
-0.093234874 -0.29805636 -0.5979926 1.2560251 0.6784662 -1.0373809 1.1435856 -1.2264777
-1.0754566 -0.9436794 0.518614 0.52119106 0.7419563 0.3370321 -1.3568376 -4.947814
2.9948845 -0.91389316 -1.2842671 -1.3776041 -0.18339066 -2.201515 0.85238177 -0.044702526
0.8829932 -5.620785 -4.3870115 0.36455747 4.6988873 3.7364733 2.4574883 0.23364028
0.6189223 2.2680578 1.3967632 0.21080694 -0.20245394 3.4515982 -1.1847856 -0.7771624
1.4051094 -0.6825781 0.21897784 0.01245127 -1.4502383 -0.793924 0.8936533 -4.010885
-0.13864335 1.2021948 1.91768 -0.78452796 0.38334575 -0.02609453 0.34269035 0.22395128
-0.17470758 -0.19781247 0.19123176 0.4044075 1.8181745 0.061930407 4.1631517 1.106246
1.3903185 1.8227609 1.4222443 0.83673704 0.2050868 4.603432 1.9887462 2.2985492
2.249821 5.9905386 3.0500538 0.5958732 -0.90532786 0.8109298 0.11103723 1.3122939
3.046867 2.0173023 1.5096753 1.9061904 1.9946188 -1.3606769 1.4630618 2.3017886
0.603238 0.9176992 0.058753308 0.082823865 0.8882589 0.015002715 -0.5896048 -0.19318666
-0.36413875 0.7481459 0.98323214 1.0432116 1.0821884 0.8361795 1.3291781 3.0095713
2.5901513 1.1805035 1.0104412 1.8927227 1.3475795 2.7645926 0.32951808 -0.091998234
0.21823157 -0.0052021677 1.1686925 2.7772644 -0.9805338 0.14412488 1.8708527 1.0006994

lstm.weight_hh_l0 f4 [512, 128]
00000000: 845a 10bb e8d7 a1bd 04f0 19bd 3b9e 953d
00000010: cb2b 4c3d da6d 87be 6972 34bd a685 52be
00000020: ea09 98bd 33c4 91bc c0ad 083e 55f7 a03e
00000030: fe1e 66bd 42fd 8f3d d475 3b3c 8746 1f3e
00000040: 5831 283e 45c4 933d 0f1c a63e b0c9 1dbe
00000050: dd0b e2bd 8656 81be cff5 dcbc 400f 65bd
00000060: 132a 0abd 8cd6 2b3e 9f04 303e 668d 323e
00000070: 1804 8a3d 1845 263d 4f86 5fbc e57a b6bc
00000080: f7a8 2fbe afec e73c 3b62 ca3d 47cb b33e
00000090: aefc 883b 83ec 693d 522e 4cbe bfe0 f2bd
000000a0: 42bb d43e 6616 243e af8a c13d b634 ecbd
000000b0: 4d28 153e 6fb6 583e e22b 4cbd b19f 0d3e
000000c0: bdbb 86bd c8d9 efbd c984 27be 7373 cb3d
000000d0: 4cf2 f3bd 0e5c 5f3e 0b96 613d f23e a4bd
000000e0: 8949 0bbd 0ccf 8e3e cf53 a73e 29ff 953d
000000f0: 01dc 5b3e 5f02 66be 6d0c 933e a8f1 9dbe
00000100: cb8b 863d 53d7 34be bf69 0abe 7305 503e
00000110: 4f23 f53d 2b2f 42be 8d7d 1cbe f733 b83d
00000120: dd99 98bd c39b 0f3d f1bd 5e3c f87e 5abd
00000130: b293 4d3d b26f 7c3b f7a6 003e 63df 043e
00000140: 690e a13e 0584 a6be 00f6 87be 9651 ecbc
00000150: 61bf f33c 7d11 48bd 2b42 763c b494 a8bd
00000160: d687 7abe 4e89 f83c d99c 4c3e 0997 c5bd
00000170: d500 0fbe 5d4f 0d3e 877d 18be cc11 07be
00000180: c60b 78be 78aa 8e3e 019d b9bd f0ee fbbd
00000190: 09d8 3d3d ff77 b33e 90d4 fe3d 80ea c2bd
000001a0: b79d 56be 3992 bb3d f70c 8dbd 8b98 92be
000001b0: fd7e 6c3e b1ed a43e bdab 4cbe e22e 4bbe
000001c0: 83e7 3cbd 76a5 743c acd5 84bd 505b 0d3d
000001d0: 2b21 aa3d 7a1b 1c3e c69c f5bc 455f 643d
000001e0: 5a60 fb3d 487d 263e a0c9 943e f04f 903e
000001f0: 9226 97be f767 6b3d c013 2bbd 9571 44be
00000200: e292 c3b9 eff1 483e 9b8c 0bbe bb19 a13e
00000210: 1176 c53e f87f 27be 04c7 6b3e 1a70 5bbe
00000220: 36bf 2cbd 4bd0 f7bd df6a 27be 4607 0bbe
00000230: c204 923d e261 60be fe17 dfbd d450 93be
00000240: d178 87bd f4c9 553e b34d 2cbd b7cd 75be
00000250: 800f bc3e 8292 893d c77d b7bc c969 afbd
00000260: 97e4 213e 080a 26be 4a93 1f3e 01a4 f4bd
00000270: ada2 d4be 13ad 513e 5aa3 1cbd bc85 303e
00000280: a230 16bd 6857 0dbe cad2 8cbe 1561 f3bc
00000290: 02c0 22be 623c d43d d8d3 d4bd 455a fd3d
000002a0: c70c 7dbb b63b e23c 745a 6b3e 6c20 7a3e
000002b0: 6a8f 473e 06a6 a63e 6bc0 c33c 1623 f93d
000002c0: 6c2a 95bd 1270 713e 29bc b53d d5e8 0e3d
000002d0: 52ea ba3d 898f 953d 5c5c cf3c af86 c23d
000002e0: cdfa 69bd 8fd8 53be e436 4cbe b211 ebbc
000002f0: 38b4 fa3c 1a95 5b3d aefb 14bd e760 0fbe
00000300: 7b82 7bbd d527 833e 4a64 013e 1dd9 68be
00000310: e852 1cbe 1862 7bbe bbdb 8ebe 1a9c 8eba
00000320: 20f3 16bc cbd0 61be 742c 86be 674d 3a3e
00000330: 1479 a3bd 58c9 ef3c 273e 1e3d 1a9c 9b3d
00000340: 1207 243e cf8a 08bd a150 ee3d 40aa 0f3e
00000350: 3a84 d43e dd68 373d e27d 073e d4f7 fcba
00000360: e3fa 2b3e bac4 733e 9334 83be 1d45 d0bd
00000370: 255d f63e 45df c83d 2bb9 03bd 9b5b 6a3e
00000380: ee45 83be 09f1 ba3b 532a 02bd c096 5e3c
00000390: 6e3e 6ebb 3878 0b3e 1d6f 55bc c621 b33d
000003a0: 604e 49be 5a09 0abe 5248 3cbd 9217 d7bc
000003b0: 9b7d 3abe 4025 7b3e 297b 6c3e 1886 ca3c
000003c0: 41cd ee3c 48d0 39bc 00e3 6bbd 9e32 24be
000003d0: 16cf 893e ae33 363e 8fc1 3abe a6f1 f9bd
000003e0: b731 84be 63bf 463e 3964 723e facb b2ba
000003f0: c142 233e 5178 1dbe c860 073e 7634 03bf
-0.0022026608 -0.07902509 -0.037582412 0.07305571 0.04984645 -0.26450998 -0.044054423 -0.20558795
-0.07423766 -0.01779375 0.1334753 0.314387 -0.0561819 0.07030727 0.011441667 0.15554248
0.16425073 0.0721517 0.32443282 -0.15408969 -0.11037419 -0.25261325 -0.02697268 -0.055922747
-0.03373153 0.16781062 0.17189263 0.17436752 0.06739062 0.040593237 -0.0136428615 -0.022275398
-0.17154299 0.028311102 0.09882017 0.35116026 0.0041805124 0.05711032 -0.19939545 -0.11859273
0.41549116 0.1602417 0.0945028 -0.11533491 0.14566155 0.21163343 -0.049846537 0.13830449
-0.06578777 -0.1171146 -0.16359247 0.099341296 -0.11911449 0.2181246 0.055074733 -0.08019818
-0.034005675 0.2789234 0.32681128 0.073240586 0.21470644 -0.22461842 0.28720418 -0.30848432
0.06569632 -0.17660265 -0.13516901 0.20314579 0.11969625 -0.18963306 -0.15282269 0.089942865
-0.07451222 0.035060655 0.01359509 -0.053343743 0.05018968 0.0038518724 0.12563692 0.1297584
0.31456307 -0.32522598 -0.2655487 -0.028847497 0.029754343 -0.048844803 0.015030424 -0.08231488
-0.2446588 0.03033891 0.19981708 -0.09647948 -0.13965161 0.13799806 -0.14891635 -0.13190383
-0.24223241 0.27864432 -0.09063149 -0.12301433 0.046348605 0.35052487 0.12442887 -0.095173836
-0.20958601 0.09158749 -0.068872385 -0.28632006 0.23095317 0.32212594 -0.19987388 -0.19842103
-0.046119224 0.014932027 -0.06486067 0.03451091 0.083071075 0.15244856 -0.029981982 0.05575492
0.12274237 0.16258729 0.29060078 0.28185987 -0.29521614 0.057472195 -0.041766882 -0.19183953
-0.00037302735 0.1962354 -0.13627855 0.31464943 0.3856664 -0.1635741 0.23025137 -0.21429482
-0.04217454 -0.121002756 -0.16349362 -0.13576993 0.07129814 -0.2191234 -0.10893248 -0.28772604
-0.06614841 0.2087782 -0.042066287 -0.24004255 0.36730576 0.06717397 -0.022398842 -0.08565099
0.15809856 -0.16214764 0.1558353 -0.11945344 -0.41530362 0.20476179 -0.03824172 0.17238516
-0.036667474 -0.13802874 -0.2750457 -0.029709378 -0.15893558 0.103630796 -0.103919685 0.12370733
-0.0038612352 0.027616363 0.22983724 0.2442643 0.19488302 0.3254854 0.023895463 0.12164895
-0.07283482 0.23577908 0.08873779 0.034890015 0.09126724 0.07302768 0.025312595 0.09498345
-0.057123948 -0.2068808 -0.19942814 -0.028694961 0.030603513 0.05360899 -0.036372833 -0.14001809
-0.061403733 0.25616327 0.12635913 -0.22739072 -0.15266001 -0.24549139 -0.27902016 -0.0010880262
-0.009213239 -0.22052304 -0.2620579 0.18193589 -0.07982078 0.029270813 0.03863349 0.075981334
0.16018322 -0.033335503 0.116364725 0.14029789 0.4150713 0.04477774 0.13231614 -0.0019299933
0.16794924 0.23805514 -0.25626048 -0.10169432 0.4811794 0.0980821 -0.03215901 0.22886507
-0.2563929 0.005705003 -0.031778645 0.013585746 -0.003635313 0.13620079 -0.01302698 0.08746676
-0.19658804 -0.1348013 -0.045967408 -0.026256356 -0.18211977 0.24525928 0.23093857 0.024722144
0.029150607 -0.011341162 -0.05758953 -0.16034934 0.26915807 0.17793152 -0.18237899 -0.12204294
-0.2581918 0.19408946 0.23671044 -0.0013641112 0.15943433 -0.15377928 0.13220513 -0.51251924

lstm.bias_ih_l0 f4 [512]
00000000: c28c e73d 2125 1340 ea18 f1bd e622 2040
00000010: 9796 1dbe 7ffa ce3e b58c f23f b9a1 e43f
00000020: b7a1 b73f 570b 2940 375f 673f 07ec 1f40
00000030: ed2d 7440 217d ab3f fc69 3d40 51fd 2640
00000040: f6d8 d83f a104 0840 41f0 4b40 b69f 2540
00000050: e43d 4140 8476 c6bd f53e 6940 214a 3b3f
00000060: 82ba 0340 a276 1240 96d8 273f 1e0d 033f
00000070: e937 1940 016d b33f 2e54 e93f d761 d4be
00000080: 6b5e 343f 89f1 1140 662d fbbe de47 403f
00000090: f008 543f a327 503f 0b7c 513f f59e 5c40
000000a0: 340d 193f 7e43 1540 bf06 bb3f 67af e7be
000000b0: 8a7b 8c3f e1a9 803f c7ed 0b40 d69d 6c3f
000000c0: 01fd f83e 259b 1940 5962 db3f fb98 d93f
000000d0: d32a 2c3f 5da7 91bf 9705 393f 0329 b53f
000000e0: 622d 2640 e630 903f 1755 1440 8ef7 1240
000000f0: d6b2 0b40 4dc8 5140 4e2e d13f 1df3 453f
00000100: 6d28 763f 1c02 0c40 39c4 cb3f 277d 0a40
00000110: b77a 5d40 6883 34bf b31f fe3f 9245 a6be
00000120: 78ad 0a40 5674 0d40 9d0b e23f 8087 0040
00000130: 7896 5b3f 9624 0140 7abe 4f3e 8de1 2340
00000140: cd0f 2abc 065d 0d40 d419 3a40 8701 b53f
00000150: 7f6d 81bd 3a76 c23f d936 0440 2907 5840
00000160: 3369 853f ae08 663f 962a 1ebe 02e9 703f
00000170: 7977 343e 6cd8 2b40 5750 4140 839b ac3f
00000180: 6ee7 723f f8e3 2f3f fe58 0240 8074 f3bd
00000190: e04a 27be 1ae7 7b40 cc32 d03f a3d7 7bbf
000001a0: e5df 643f 71a1 5d40 eb6f 873e ea53 943f
000001b0: 8ea5 ba3f 064b a73f ab51 f6bb 8737 7040
000001c0: 5e0d fb3f b26c bdbf 4c46 a73f 3e41 1940
000001d0: 0cfb 9e3f e6af c63f 95ee 5d3f f728 633f
000001e0: b6ec de3f 96fe 993f 8965 673f cd24 0640
000001f0: 5bfe c13f ac66 ee3e e0bd 0440 31cd c73f
00000200: a100 c2bf d25a 02c0 8751 05c0 7f4d f7bf
00000210: 1a3f c8bf eff7 e0bf ff64 08c0 c9b5 17c0
00000220: 9942 f3bf f7dd 00c0 9fbe f3bf 0412 01c0
00000230: 4d93 08c0 49a0 dcbf dc2a 0ac0 61b8 eebf
00000240: 42fe fdbf db24 04c0 56c7 f8bf cda6 13c0
00000250: fade 10c0 4613 efbf 20b8 11c0 deb9 dfbf
00000260: 8981 0bc0 9837 ffbf 4098 fabf aa84 debf
00000270: bef7 efbf ea23 f3bf d5f9 f9bf 2a6c f1bf
00000280: 25a1 a7bf ea26 febf e628 dabf 1270 f5bf
00000290: 5f00 cfbf be2d f6bf 77e3 17c0 2a18 11c0
000002a0: 67b8 fbbf 0b9a 05c0 ff08 07c0 d1e6 d9bf
000002b0: e9b6 05c0 0f2b f2bf 6364 18c0 61ae 07c0
000002c0: 5c95 d7bf e826 09c0 41ac 10c0 75a4 03c0
000002d0: 65a1 06c0 7bf4 c9bf 9bbc d9bf 4f24 f8bf
000002e0: 2b87 18c0 c30e 0dc0 6e3e 13c0 387e 21c0
000002f0: 37f6 14c0 dd82 08c0 57af 22c0 26e0 d8bf
00000300: 1d65 06c0 f89d 26c0 0c29 e8bf f17b 04c0
00000310: aa6e 18c0 11a0 cdbf 65de fdbf 9d63 c8bf
00000320: b178 10c0 68aa fabf 4868 01c0 75e3 fcbf
00000330: a8d6 efbf a752 0ec0 db27 f3bf 0c00 f6bf
00000340: 8cf0 dbbf ef0f 16c0 5767 e8bf 5b1a 02c0
00000350: b44f d3bf 019d e7bf fb17 00c0 ee3e 10c0
00000360: c325 00c0 3a1e e2bf a8fd 4abf 5c60 01c0
00000370: 7b0e e0bf df6e 20c0 d823 12c0 d495 02c0
00000380: 1c2d 01c0 08ec d7bf a93d 06c0 9bef bebf
00000390: 94a7 eebf 09e0 10c0 2c21 07c0 9c2e bebf
000003a0: 45eb e6bf 7458 17c0 a82a e0bf 6e50 14c0
000003b0: 1bbd 02c0 112c febf 1cb5 e3bf e281 14c0
000003c0: a9a9 fdbf c6a7 e5bf efdd 0bc0 e0fe 07c0
000003d0: e788 05c0 0540 f8bf 79c7 e1bf 2750 d8bf
000003e0: 37a3 08c0 1472 01c0 da25 04c0 dabc 17c0
000003f0: 56d4 b5bf 0330 f3bf c586 03c0 b04d b1bf
0.11306144 2.2991412 -0.1177233 2.50213 -0.15389477 0.40425488 1.894919 1.7861854
1.4346226 2.6413171 0.9037966 2.498781 3.815303 1.3397561 2.9595938 2.6092112
1.6941211 2.1252825 3.186539 2.587873 3.0194025 -0.09690574 3.6444676 0.73159987
2.0582585 2.2884908 0.6556486 0.5119189 2.3940375 1.401764 1.8228815 -0.41480896
0.7045657 2.2803671 -0.49058074 0.7510966 0.8282614 0.8131048 0.818299 3.447202
0.5978577 2.3322444 1.4611434 -0.4525101 1.0975201 1.0051843 2.1863878 0.9242834
0.48630527 2.4000943 1.7139388 1.6999811 0.67252845 -1.13792 0.72274154 1.4153141
2.59652 1.1264923 2.3176935 2.2963595 2.1827903 3.2778504 1.6342256 0.77324086
0.96155435 2.1876287 1.5919257 2.1638887 3.460615 -0.7051301 1.9853424 -0.32474953
2.1668377 2.2102256 1.7659794 2.0082703 0.8577647 2.017858 0.20287505 2.5606415
-0.010379744 2.2088027 2.9078264 1.4141091 -0.06319713 1.519233 2.0658476 3.375437
1.0422729 0.89856994 -0.15445933 0.9410554 0.176237 2.6850843 3.0205286 1.3484958
0.94884384 0.6870723 2.0366817 -0.11887455 -0.16337156 3.9359803 1.6265502 -0.9837591
0.89404136 3.4629786 0.26452574 1.1588109 1.4581773 1.306977 -0.00751706 3.7533891
1.9613454 -1.4798796 1.3068328 2.394607 1.2420363 1.552243 0.8669217 0.8873438
1.7415988 1.2030818 0.90389305 2.0959961 1.5155748 0.46562707 2.074089 1.5609494
-1.5156442 -2.0367932 -2.083101 -1.9320525 -1.5644257 -1.7575663 -2.1311643 -2.3704703
-1.9004699 -2.0135477 -1.9042548 -2.0167246 -2.1339905 -1.7236415 -2.158866 -1.8650018
-1.9843218 -2.0647495 -1.9435833 -2.3070557 -2.2636094 -1.8677757 -2.276863 -1.7478597
-2.1797812 -1.9938841 -1.9577713 -1.7384236 -1.874748 -1.8995335 -1.9529368 -1.8861134
-1.3096052 -1.9855626 -1.7043731 -1.9174826 -1.6171988 -1.923271 -2.3732584 -2.2670999
-1.966565 -2.087527 -2.109924 -1.7023565 -2.089289 -1.891939 -2.381127 -2.1200182
-1.6842456 -2.1429996 -2.2605135 -2.0569127 -2.1036007 -1.5777735 -1.7010683 -1.938608
-2.38325 -2.204026 -2.3006854 -2.5233288 -2.3275278 -2.1329873 -2.541952 -1.6943405
-2.0999215 -2.6033916 -1.8137527 -2.0700648 -2.3817544 -1.6064473 -1.9833494 -1.56554
-2.2573664 -1.9583254 -2.0219898 -1.9756914 -1.8737383 -2.2237947 -1.8996538 -1.9218764
-1.7182784 -2.3447225 -1.8156537 -2.0328586 -1.6508698 -1.8094789 -2.0014637 -2.253841
-2.0023048 -1.7665474 -0.792933 -2.0215063 -1.7504419 -2.506767 -2.2834377 -2.0403948
-2.0183783 -1.6868906 -2.0975134 -1.4916872 -1.8644891 -2.263674 -2.1113997 -1.4857974
-1.8040549 -2.3647738 -1.7513018 -2.317409 -2.042792 -1.9857198 -1.7789645 -2.3204274
-1.9817401 -1.7941825 -2.1854208 -2.1249313 -2.0864809 -1.9394537 -1.7638999 -1.689946
-2.1349618 -2.0225878 -2.0648103 -2.3709016 -1.4205425 -1.8999027 -2.0551007 -1.3851833

lstm.bias_hh_l0 f4 [512]
00000000: 2d3b c73d bf0a 0e40 9297 13be 07a8 2640
00000010: b959 11be 96d4 c73e d1e2 ea3f b3e9 ee3f
00000020: 8a06 b83f 9416 2540 3e6c 583f 1f20 1b40
00000030: d804 7840 0c8a ab3f 3470 3840 1691 2740
00000040: 6a61 c73f 24cd 0c40 2518 4640 3941 2740
00000050: fa2b 3f40 100b acbd cf08 6640 a47f 3e3f
00000060: 6caf 0040 211c 0f40 65f8 1e3f 36d3 ea3e
00000070: 48fe 1440 634f a83f 2bdf fa3f 7c11 9bbe
00000080: 3562 363f fa63 1140 3708 f9be a7ba 413f
00000090: bbf8 563f 13cc 533f 0153 573f 5ef1 5540
000000a0: e17e 323f 607a 1840 0edc c43f 8857 cabe
000000b0: ecd6 9a3f f41b 823f b886 0c40 bda5 463f
000000c0: ec70 0d3f 657a 1640 ee18 d93f 600d e53f
000000d0: a27a 273f 1425 8bbf 7222 3d3f 01f2 c13f
000000e0: fc45 1f40 6e41 8d3f 4427 1640 41ab 0b40
000000f0: ec9c 0940 44a1 5540 c332 d33f 86a8 5a3f
00000100: 970b 573f 251f 0a40 0711 cd3f 9dea 0440
00000110: a7f5 5440 6942 2abf 80d0 f03f 41ff 84be
00000120: 4b01 0c40 ba8b 1140 10b0 dc3f f719 0840
00000130: 17d1 743f e315 f23f faeb 5e3e 24b4 1940
00000140: 28fa b0bb 9b57 0440 697b 3d40 8c80 c53f
00000150: d80f 9abc c794 be3f 66f5 f83f b05f 5c40
00000160: 8423 8e3f 2488 493f a061 6cbe ff62 673f
00000170: cdfa a43e e7b0 2a40 1515 3a40 8ee1 bd3f
00000180: 0a47 5d3f a09c 363f 9369 0740 989c e5bd
00000190: e8b4 6abd fc8d 8140 ac9f c43f 0126 74bf
000001a0: b516 633f bfd1 5740 8d8b 943e 7130 a23f
000001b0: c692 b53f 8bc6 a53f d14c 6abd b353 7140
000001c0: a33d fe3f aa95 b8bf 5799 ab3f c618 0f40
000001d0: d620 b23f b4fe d73f 8000 4d3f 9c17 753f
000001e0: ee4c e33f 824f 9a3f d0cf 5a3f dfcc 0640
000001f0: 8418 d03f 3b76 0d3f e1e8 0440 9b6c b93f
00000200: bd1b c4bf 4e1c 06c0 29ba 05c0 a22f 00c0
00000210: f83b bfbf 3f83 e6bf 1aa2 05c0 ff86 1cc0
00000220: 69ce 00c0 57f5 06c0 1bdf f5bf 6b0a 04c0
00000230: 440e 02c0 4efd debf 2701 02c0 3e29 f4bf
00000240: 0bad f6bf 57c2 00c0 56bd 04c0 1fe2 10c0
00000250: e8d9 0dc0 1203 ebbf ac38 14c0 ff5b e2bf
00000260: 8a71 13c0 5752 07c0 f895 f3bf ecae d5bf
00000270: 46b1 f4bf 8db5 febf 44ef fbbf 0c64 e4bf
00000280: 6738 a5bf 2f38 fabf 164e ecbf 4dca e9bf
00000290: c382 d1bf 4a6a fabf 1c76 11c0 8fa0 11c0
000002a0: f0b6 00c0 e6a4 08c0 3724 04c0 4f13 ddbf
000002b0: 97d1 09c0 691c e6bf 100e 12c0 9b19 0ec0
000002c0: 657c c4bf 34c2 0ac0 96be 09c0 e3bf 0cc0
000002d0: 1744 febf d81a bcbf ceb6 e1bf 4ffe f0bf
000002e0: dc55 1ac0 b154 0dc0 a351 10c0 9871 1ac0
000002f0: 919f 19c0 84b4 0cc0 7710 28c0 55c7 c3bf
00000300: 1704 03c0 787d 22c0 4416 f8bf 21dd 02c0
00000310: a579 18c0 b29e c9bf e027 fdbf 9e15 c4bf
00000320: f678 10c0 3c1d 00c0 045e f4bf 4dde 04c0
00000330: 7cfe f3bf 211e 07c0 9d21 e4bf 03fb 02c0
00000340: 9277 e2bf 2e8b 18c0 b116 f7bf aa32 06c0
00000350: 0f34 d3bf f174 f7bf 6cae 08c0 8099 08c0
00000360: 5f62 ffbf aaa5 d1bf b646 5fbf f0d0 fdbf
00000370: a60e ecbf 0cbd 1fc0 2e76 18c0 2f78 00c0
00000380: a301 fcbf 61e3 d6bf 03ef 09c0 e956 cabf
00000390: 14dc e6bf ffe4 14c0 073c 0ec0 cc69 c6bf
000003a0: 6f11 d6bf 79e6 19c0 45df debf c290 15c0
000003b0: bc8b 02c0 f02f eabf a6d6 e5bf 451a 1dc0
000003c0: e31c f7bf e47a dcbf 38c4 07c0 0b72 04c0
000003d0: 854c 08c0 4d9a ecbf 2c7a e4bf d9d9 e1bf
000003e0: 7611 08c0 efbb fcbf 64f7 04c0 8b7a 1bc0
000003f0: 10de c0bf 3726 f7bf 4513 fbbf 4f1e b4bf
0.09728084 2.219406 -0.14413288 2.6040056 -0.14194383 0.39029378 1.8350469 1.8665069
1.4376996 2.579503 0.84540164 2.4238355 3.8752956 1.3401504 2.8818483 2.6182303
1.5576603 2.2000208 3.0952237 2.6133559 2.987059 -0.084005475 3.5942876 0.74413514
2.010707 2.2360919 0.6209777 0.45864266 2.32802 1.3149227 1.9599355 -0.30286777
0.712436 2.271727 -0.4863908 0.75675434 0.8397328 0.8273327 0.8411103 3.342857
0.6972485 2.3824692 1.5379655 -0.39519906 1.2096839 1.0164781 2.1957226 0.77596647
0.5525043 2.3512204 1.6960733 1.7894707 0.654215 -1.087069 0.73880684 1.5151979
2.4886465 1.1035593 2.3461466 2.1823275 2.1502028 3.3379679 1.6499866 0.85413396
0.8400206 2.158151 1.6020821 2.0768197 3.3274934 -0.66507584 1.8813629 -0.25975993
2.187579 2.2741532 1.724123 2.1265848 0.95631546 1.8912929 0.21769705 2.40162
-0.0054009147 2.067847 2.9606574 1.5429854 -0.018806383 1.4889153 1.944989 3.4433403
1.1104589 0.7872336 -0.23084116 0.9038543 0.32222596 2.6670473 2.9075367 1.4834459
0.8643652 0.7133274 2.1158187 -0.112115085 -0.057301432 4.048582 1.5361228 -0.9537049
0.88706523 3.372177 0.2901272 1.2671033 1.4185417 1.2951216 -0.057202164 3.7707336
1.986256 -1.4420674 1.3406171 2.235887 1.3916271 1.6874604 0.8007889 0.9573915
1.7757852 1.2055514 0.85473347 2.1062543 1.6257482 0.5525853 2.0767138 1.4486269
-1.5320965 -2.0954776 -2.0894873 -2.0029073 -1.4940176 -1.8008803 -2.088019 -2.4457395
-2.0125983 -2.1087244 -1.9208711 -2.0631359 -2.0321207 -1.7421052 -2.0313203 -1.9075086
-1.9271559 -2.0118616 -2.0740561 -2.2638013 -2.216425 -1.8360312 -2.315959 -1.7684325
-2.3038049 -2.1144006 -1.9030142 -1.6694007 -1.91166 -1.9899155 -1.9682393 -1.7843032
-1.2907838 -1.9548396 -1.846133 -1.8264862 -1.636803 -1.9563687 -2.2728338 -2.2754247
-2.0111656 -2.1350646 -2.0647104 -1.7271518 -2.1534173 -1.797742 -2.2821083 -2.2203128
-1.5350462 -2.1681032 -2.1522574 -2.1992118 -1.9864529 -1.4695692 -1.7633913 -1.8827609
-2.4114904 -2.2082942 -2.2549827 -2.4131832 -2.4003642 -2.1985178 -2.626005 -1.5295206
-2.0471246 -2.538908 -1.9381795 -2.0447466 -2.3824246 -1.5751555 -1.9777794 -1.5319097
-2.2573829 -2.0017843 -1.9091191 -2.0760682 -1.9062037 -2.111214 -1.7822758 -2.0465705
-1.769274 -2.3834949 -1.93038 -2.0968423 -1.6500262 -1.9332563 -2.1356459 -2.134369
-1.9951895 -1.6378682 -0.8721727 -1.9829388 -1.844197 -2.4959135 -2.382213 -2.0073354
-1.9688 -1.678814 -2.155213 -1.5807773 -1.8035913 -2.3264768 -2.2224138 -1.5501037
-1.672407 -2.404692 -1.7411886 -2.3369603 -2.0397787 -1.8295879 -1.795613 -2.4547284
-1.930569 -1.7225003 -2.1213512 -2.0694606 -2.1296704 -1.8484589 -1.7849784 -1.7644607
-2.1260657 -1.9744853 -2.0775995 -2.4293544 -1.5067768 -1.9308537 -1.9615256 -1.407175

lstm.weight_ih_l1 f4 [512, 128]
00000000: e20b c6be a261 a03e 4a7f c13c 2c01 533e
00000010: ffd5 003e 0fdb 7ebe 061f d73f 2dff 7cbf
00000020: bcf5 173f 193a 96bd 27ef 10be dd50 bd3f
00000030: beb3 933e 9b20 a43e 1c57 6fbe f55e 0c3f
00000040: 9f07 4abe 26f6 893e ca07 e9be b2e5 25bf
00000050: 1c39 363e 22f8 94be 7e2b 703e b14b ffbe
00000060: 98ae 90be 8ca7 093f 563a 713e 356d 4fbe
00000070: 4426 32be 93ba edbe 049b 3b3e 0fe7 a43e
00000080: 9f6b 3e3a 57dd a93e ee29 1bbe e8c8 cbbc
00000090: 9e66 753d 6efa 0dbf d2fc ea3f c31e 8d3e
000000a0: 2b60 38bf 8a5c 90bf ba51 bebc 102a 13be
000000b0: 3053 9a3e 7d0c 84be 92e8 9f3e 2762 0ec0
000000c0: 90a3 75bf f9dd 7fbf 1bc5 17bf d077 ac3e
000000d0: 7feb 69bf 38ee cabd f96d 19be d6b3 4fbe
000000e0: 4060 9e3d 0656 3f3f 76ef 593f 166b de3e
000000f0: 2c28 933e f9f5 e1be 6ee6 f0be 4a64 893e
00000100: 4a03 573f 62d9 963f 39e1 37be f63b 243f
00000110: e74d 8a40 533e 2cbe 889f 26bf 375a 30bf
00000120: 1ef0 3d40 e1ee 52c0 ceb2 47be d6f9 313e
00000130: d86e 52be b8ff 183f 72db 4b3f 62b7 223e
00000140: 8b6c a23d 816b 983f 54a4 0cbf f1a2 6a3e
00000150: 72af d13f 5723 833e 6bf6 14be cbd5 4040
00000160: 9bad 803f b506 af3e 9e94 19be 3ad1 2bc0
00000170: 4bc5 e03e b021 2cbf 1293 903f a750 653f
00000180: 23e0 5fbe 9d94 dcbe 9ca0 523f e7cb 913d
00000190: e408 bbbe da2d 64bf 8cda 3c3f 89fd 9d3d
000001a0: 2dc9 52be f1fa 113d ab3a 71bd 1b8b b9be
000001b0: 2448 b13d 2468 2f3f f253 0c3f 68f0 25be
000001c0: 0a17 b1bc 555d 81be bf61 1b3f af48 eebe
000001d0: c7cf 673e acdd d13e 819e 593e 3682 d3bd
000001e0: 79d1 02bf 3866 6fbe 9b48 813c 0989 c33e
000001f0: 1950 f53d f179 e7be 64d8 19c0 cada 383e
00000200: 89b3 213f 91f6 b9be ceb0 97be 40a4 0fbf
00000210: ad69 093f 7b7f ed3d 7310 7bbf 719d 2e3f
00000220: 043f fa3e 35d2 763e d538 9cbd 0fab 82be
00000230: 6998 303f a540 38bf 33c4 63bf a924 3bbf
00000240: d41c aebf a544 dabe e1bf 0dbf f7cd 60bd
00000250: 7f7f d93e 5fbe 383f 89c8 e2be cdea 11bf
00000260: f29b a73f 6899 bebd 1dc4 13bf ae13 9c3e
00000270: 8587 8bbd 1d0c 373e 695c 063d 5190 09bf
00000280: 0286 4b3e 9af6 f1be 8379 75bc dff2 c4be
00000290: b43e 1e3f 0594 1f3f a6b0 d1be 3fc9 5abf
000002a0: 853d 883f bdf7 37bf c51b febe ff66 85bf
000002b0: 4a88 5b3d 62ac f2be 008e 8dbf add0 233f
000002c0: 5be5 7f3e 1383 85bf 6412 823d 276d a43c
000002d0: 0a8a 9b3f 7b7d cabe c438 bcbe fce7 d23e
000002e0: 5feb a2bf 1f7d f43e cdf3 3b3f 6e59 81bf
000002f0: 8aaa 89bf c3fa f83e ce64 93be c369 08bf
00000300: 94ae dcbe 61d8 a83f 83f6 b9be 4d4e 60be
00000310: d2f1 e8be acd4 2ebf 39c1 c8be 2797 0a3d
00000320: ccbc 1a3f ee59 023f 0942 3e3d da32 343f
00000330: a1e5 543e 028c 6c3e 96b4 a23e aabb 8cbe
00000340: 1ae6 ac3e 8443 8dbe a22e ce3e f912 babb
00000350: 5dd1 b2be d96a 3cbf 51df 3a3f d603 51be
00000360: 7d42 3c3e 9be4 5d3f c858 2ebf eb5d 5b3f
00000370: 9fbd 9dbe 052a 193f 1f82 e3be 6565 b1be
00000380: 5002 183f 33be 00bf 11c5 c03f 7a87 1d3f
00000390: 7ff9 3dbf 1636 1d3e 3213 fd3d d62f 2cbe
000003a0: 4c11 2a3f 2e30 993e df62 9ebe 9d1e 863f
000003b0: 1add 20bf 8f10 303e ea00 693f 1e67 ef3e
000003c0: 01d5 dfbe cf2a 1cbf 7309 00be 22fd 6cbe
000003d0: f4ff ae3e 1352 99bd 1bd3 fb3e b639 413f
000003e0: 3d50 0abf a1a6 5abf c2da 48bf 7ffa ae3f
000003f0: 7c70 f93e a75e 9f3e 1c4c a73e ea6e e4be
-0.3868094 0.31324488 0.023620266 0.20605916 0.12581633 -0.24888252 1.6806343 -0.9882687
0.59359336 -0.073353 -0.1415373 1.4790303 0.2884807 0.32056126 -0.23373073 0.5483239
-0.1972947 0.2694561 -0.45513755 -0.6480361 0.17795223 -0.2909556 0.23454091 -0.49862435
-0.28258204 0.5377128 0.2355741 -0.20256503 -0.1739741 -0.46431407 0.18320853 0.32207534
0.00072639616 0.3317668 -0.15152714 -0.024876073 0.059912317 -0.5546025 1.8358405 0.27562532
-0.7202174 -1.1278241 -0.02323233 -0.14371514 0.30141592 -0.25790778 0.31232125 -2.2247407
-0.959527 -0.9994808 -0.59285134 0.3368516 -0.91374964 -0.09908718 -0.14983357 -0.20283446
0.07733202 0.74740636 0.85131013 0.43441075 0.28741586 -0.44132975 -0.47050804 0.26834327
0.83989394 1.178509 -0.1795701 0.64153993 4.3220096 -0.1682065 -0.65087175 -0.68887657
2.9677806 -3.29583 -0.19501802 0.17380461 -0.20550096 0.59765196 0.7963172 0.15890267
0.07930859 1.1907808 -0.54938245 0.2291372 1.6381667 0.256129 -0.14547126 3.013049
1.005298 0.34184805 -0.14998099 -2.6846452 0.43900523 -0.67238903 1.1294882 0.8957619
-0.21862845 -0.43082133 0.8227632 0.071189694 -0.3653022 -0.89132464 0.73770976 0.077143736
-0.20584555 0.035639707 -0.05889384 -0.36238942 0.08656338 0.6851828 0.5481559 -0.16204989
-0.021617431 -0.2526652 0.60696024 -0.46539828 0.22637855 0.40989435 0.2125187 -0.1032757
-0.5110088 -0.23378837 0.015781691 0.38190487 0.11978168 -0.4521022 -2.4038324 0.18052211
0.63164574 -0.36320928 -0.2962708 -0.5611 0.53676873 0.115965806 -0.98071975 0.68208987
0.48876202 0.24103625 -0.07628027 -0.25521132 0.6898256 -0.7197364 -0.8897125 -0.73102814
-1.3602548 -0.42630497 -0.5537091 -0.054883923 0.42480084 0.72165483 -0.4429362 -0.569989
1.3094466 -0.09306604 -0.5772112 0.30483764 -0.06812958 0.17875715 0.032802973 -0.53735834
0.19875339 -0.47258455 -0.014982584 -0.38466546 0.6181443 0.62335235 -0.40955085 -0.8546333
1.0643774 -0.71862394 -0.4963056 -1.0422057 0.053596772 -0.47397143 -1.105896 0.6399029
0.24989836 -1.0430626 0.06351164 0.02007158 1.2151501 -0.3954886 -0.3676206 0.41192615
-1.272808 0.4775171 0.73418885 -1.0105417 -1.0755169 0.48628816 -0.28787845 -0.5328638
-0.43101943 1.3191034 -0.36320886 -0.2190487 -0.45496994 -0.6829326 -0.39209917 0.033835556
0.6044433 0.5091847 0.046449695 0.70390093 0.20790721 0.23100284 0.317784 -0.27486926
0.33769304 -0.27590573 0.40269953 -0.0056785312 -0.34925357 -0.73600537 0.72997004 -0.2041162
0.18384738 0.8667695 -0.6810422 0.8569018 -0.30808732 0.5982974 -0.44435212 -0.3464767
0.5937853 -0.5029022 1.506014 0.61534846 -0.74208826 0.15352663 0.12357177 -0.16815123
0.6643264 0.2991957 -0.30934808 1.0478092 -0.62837374 0.17193817 0.9101702 0.4675836
-0.43717197 -0.6100282 -0.12503605 -0.23143438 0.34179652 -0.074863575 0.49184498 0.75478685
-0.54028684 -0.85410506 -0.784588 1.3670195 0.4871863 0.31126902 0.32675254 -0.4461587

lstm.weight_hh_l1 f4 [512, 128]
00000000: cb84 913d aa92 fc3d 58eb babc cfb6 a73d
00000010: 9467 a8bc 67b5 933d 7c1f 44bd 3f35 043e
00000020: 6189 bc3d cb65 9d3d 51ac 3e3d a1c0 7bbd
00000030: edd3 c4bd 7871 133d ab2c 193c fd0f 70bd
00000040: e53c 9cbd e361 9d3d 1100 dabc db71 b2bb
00000050: 994c bf3d 6944 0bbd b1c3 a9bc a3c6 043e
00000060: 4f00 683d 7c2b 02bd 17f4 aabc 9a06 6a3b
00000070: f49b cfbd 7972 dcbc 1053 0dbc c273 233d
00000080: 5483 bbbd 4b11 98bd a881 0d3c 15f3 ab3b
00000090: 098d 05bb 173a c13d 73bd 6a3d 9cc3 a03d
000000a0: 5405 b3bd 1054 673d 5207 08bc aa58 9bbb
000000b0: 8538 96bd 718b 0c3c ca30 823d ed1f 44ba
000000c0: 599e e1bb d3d7 99bd 90ce 46bd df85 98bd
000000d0: 51eb 9b3d 0629 af3c 3727 1fbe 6953 95bd
000000e0: f7be f63d 0405 cbbd ed6c b63c 9cb9 b4bc
000000f0: 85d3 613d 43e3 be3d 20a4 9f3d ebf7 b43c
00000100: 8bfe aebc 8f27 9abd 8f20 793d f4a9 aebd
00000110: 2d00 a83c 8f7b 5bbc c3f0 0a3d 771f a1bd
00000120: 259c 523d 4c30 a8bc 56b1 ee3c 4d9e 19bd
00000130: 0359 063e f16e 65bd 5b9d cfba 3ec6 3b3d
00000140: 4ca8 08bd ff95 65bd 6cb5 05bd eeca 8a3d
00000150: 9a1f 443d e531 4e3e fab5 c7bd 702a 30bb
00000160: 0a1b e03c 506d edbd d69f b4bd 3055 12bd
00000170: f734 4bbd d4c3 ddbc ca1f a43b 3255 dc3b
00000180: 6b0f 43bd 131d 4bbd 99b4 853d eb34 ebbc
00000190: 405b cc3b 6a7c 3a3c 02c9 36bd 2d7c ab3b
000001a0: 8e9f 0a3d 6610 c2bc 7f30 733d fd12 5f3c
000001b0: d189 8abc 1c0d 49bb c8a5 903c e82c adbd
000001c0: ab77 8c3d 5fa5 0ebd 6b63 fbbb 633c 303d
000001d0: 98ff 393d 5548 263c cfd2 edbc 61a4 e8bc
000001e0: f6b2 913d 0112 ae3b a479 80bc 44c4 973c
000001f0: 1f68 dcbc 7440 323d bee0 0abc 80fd 893d
00000200: f77c 073e 1aaa e53a 4940 dbbd a3cf 863e
00000210: 7be0 93be d390 833d bec1 23be 4ba3 a43d
00000220: 81c0 b23e bd55 583e 30fb 37be 95b7 d83d
00000230: 91a9 0cbc 9e05 42be 2942 1fbe 416f 093d
00000240: 8867 413e 64c8 2fbd e5b6 2ebd 3b40 aa3a
00000250: 7468 093e 191d d3bd fc75 35be ec08 48be
00000260: 6a42 3e3d b2e0 6c3d 7282 863d 588c 25be
00000270: 870f 443d d64f 92be 5109 d2bd ea62 5ebe
00000280: 01c6 393e 226a ccbc 84ad 79be 4419 52bd
00000290: 0358 f13d 0b30 c73d 7f94 833e 151f 94be
000002a0: acdf 8dbd d1c4 133e e6e6 d9be 69a3 93bd
000002b0: 04b7 073e 2715 07bd 1d0e 433d 4b6e 863c
000002c0: 9582 bb3d af73 193e d098 7cbd e89b ac3d
000002d0: 832d 023e 6020 b53d c542 bb3d fba1 453e
000002e0: 4f7c 64be 1d92 16bc 77d0 1cbd 2dec e8bd
000002f0: 4482 cd3e 0aca 5fbd 715d 47be 31ab 9abd
00000300: 92b6 bf3d 9016 043e 1e16 313e c3dc a8bd
00000310: 5954 b0bd d02e 5fbd 6802 8ebc 5586 02bd
00000320: 21c7 143e 0ca4 2a3e 361c cbbc 44a3 48be
00000330: a9b8 7dbe 7aec 10be 182d f23d bad3 3cbe
00000340: b543 b8bd 2f54 8abd 79ef 3cbe b269 ca3d
00000350: db60 0bbe 125a 1b3e 80f7 d73d aa3a c6bd
00000360: 2bbd 453d 1cfb 8dbd e27c 8c3c 0ed4 31be
00000370: d93f 093e a666 6c3b 969b 923e 4e50 05be
00000380: 31a5 96bc d8a7 093c dac8 54bd e478 233e
00000390: 8a91 f23b 4438 c7bd 0909 cf3d e9f4 7ebe
000003a0: a67e d3bd ab0b 253e f86e e0bd c921 c23d
000003b0: 9462 ad3d d05c 8b3d f475 063d 7860 91be
000003c0: 65ae bf3c 4be0 9e3d a315 6a3d f5a5 bc3d
000003d0: d938 26be a6ae 893e f544 823e a7d4 20bd
000003e0: 3a71 e63d ac95 ac3d 4908 f3bd 5233 54bd
000003f0: 841f e63c e362 073e 0c72 7a3e ccb3 b33d
0.071054064 0.123326614 -0.022817299 0.08189165 -0.020557202 0.07212334 -0.04788159 0.12910937
0.092058904 0.07685431 0.046551052 -0.061463002 -0.09610734 0.035996884 0.009349029 -0.058608998
-0.07628802 0.07684686 -0.02661136 -0.0054457015 0.09340782 -0.034000788 -0.020723196 0.12966399
0.05664092 -0.03177975 -0.020868344 0.0035709501 -0.101371676 -0.026910054 -0.008625761 0.039905317
-0.09155908 -0.07425173 0.0086368695 0.0052474835 -0.0020378253 0.09434908 0.05730958 0.078498095
-0.08741251 0.056476653 -0.008302527 -0.004740794 -0.07334999 0.008578167 0.06356962 -0.0007481564
-0.0068853316 -0.07511868 -0.048536837 -0.07447409 0.076132424 0.021381866 -0.15542303 -0.072913
0.120481424 -0.09913066 0.022268737 -0.022061162 0.05513336 0.093206905 0.07794976 0.022090873
-0.02136161 -0.075270765 0.060822066 -0.0852851 0.020507896 -0.013396158 0.033921015 -0.078673296
0.051418442 -0.020530842 0.029137295 -0.037504483 0.13119893 -0.056014005 -0.0015839742 0.045843355
-0.033363625 -0.05605125 -0.03264372 0.06776987 0.0478817 0.20136221 -0.09751506 -0.0026880763
0.027356643 -0.11593115 -0.08819549 -0.035725772 -0.049611058 -0.027070917 0.0050086724 0.0067240233
-0.047622126 -0.049588274 0.06528587 -0.028711757 0.006236464 0.011382202 -0.04462529 0.0052333088
0.03384357 -0.02368946 0.05937242 0.013615367 -0.01691142 -0.003067798 0.017657176 -0.08455831
0.06858762 -0.03482568 -0.0076717637 0.04302634 0.04540977 0.010149081 -0.029031185 -0.028398694
0.07114212 0.005312205 -0.015683003 0.018526204 -0.026905118 0.0435185 -0.008476434 0.067378044
0.13231264 0.0017522008 -0.10705621 0.2633029 -0.28882203 0.064241074 -0.15991876 0.08038958
0.34912494 0.21126457 -0.17966914 0.105818905 -0.00858535 -0.18947455 -0.15552582 0.033553366
0.1888715 -0.042915717 -0.04265489 0.0012989113 0.13418752 -0.10308284 -0.17720789 -0.19534653
0.046450056 0.057831474 0.06567849 -0.16166818 0.04786637 -0.28576535 -0.10255683 -0.2171742
0.18141939 -0.024952952 -0.24382597 -0.051293626 0.11784365 0.0972596 0.2569923 -0.28929964
-0.06927428 0.14430548 -0.42558974 -0.072089024 0.13253409 -0.032979157 0.04762088 0.016410014
0.09155766 0.14985536 -0.06166917 0.08428174 0.12712674 0.08844066 0.09143595 0.19300072
-0.22313045 -0.00919011 -0.038284745 -0.11373172 0.40138447 -0.05463604 -0.19469239 -0.075521834
0.093609944 0.12899232 0.17293593 -0.08245232 -0.08609838 -0.054488003 -0.017335132 -0.03186639
0.14529087 0.16664141 -0.024793725 -0.19593531 -0.24777474 -0.14152709 0.11825007 -0.18440142
-0.08997289 -0.06754338 -0.18450727 0.09883441 -0.13611166 0.15171078 0.10545254 -0.09679158
0.048276108 -0.06932661 0.017149393 -0.17366049 0.13403262 0.0036071925 0.28634328 -0.13018915
-0.018389316 0.0084018335 -0.05194936 0.15964085 0.0074026035 -0.09727529 0.10109145 -0.24898113
-0.10326891 0.16117732 -0.109586656 0.094791 0.08466068 0.06804812 0.032827333 -0.28393912
0.023398587 0.07757624 0.05714954 0.09211341 -0.16232623 0.2689106 0.25443235 -0.0392653
0.11252065 0.08426985 -0.11866815 -0.051806755 0.0280912 0.13221316 0.24457568 0.08774528

lstm.bias_ih_l1 f4 [512]
00000000: f9c0 8c3e 3b4b da3e 1015 443d ed59 263f
00000010: 23d9 6a3f 4e6a 103f 8828 f03e 8568 c93e
00000020: 8d17 b03e 24b1 a23e 291f f03d 2861 27bf
00000030: 80b2 443f 2257 e43e b62c 05bf 1a64 e13e
00000040: b194 623f 1f92 243f 40d9 3a3f 352d 233e
00000050: 487f 2b3f 72a7 183f 578d 923e 78a6 d1be
00000060: 3f9e 09be 7b41 3c3e 46f7 083e 81c4 3c3f
00000070: 9d79 a63e 5f72 973e 5fd9 8d3d cd49 853e
00000080: 56a1 683e b13d 293f 5195 673f ae97 a13d
00000090: dec5 36be a005 a0be bb57 86bd 7c3f 3a3f
000000a0: 6023 41bf 715d dfbd d3cf 8c3b a293 4f3d
000000b0: 6192 88be 6110 d93d c8db 8d3f 8667 a73e
000000c0: 4d4c cf3e 97e0 0c3f 0122 e93e 8189 c23e
000000d0: 2173 893e 3172 0d3f ea1c f93e d2c1 6cbe
000000e0: eb0a e4be da38 eabd 6e4a da3e 1f2f 12bf
000000f0: e718 4bbe c45b f03e 5f78 7cbc e9bc 223f
00000100: 2dfc 0abf 3bd9 b93e 563e 0d3f 6d51 813e
00000110: d5fe 853f caeb ba3e c802 c33e 9e98 003f
00000120: 07ec 8f3e c935 943e 9b34 c13e 47af 173d
00000130: 9da3 b43e dd5b ce3e a9a2 9f3e f482 a0bd
00000140: 306d 78be 0aaa 0c3e 4776 cc3e 0b35 fdbd
00000150: 91a3 c3bd a578 ad3f 6162 003e c7cb 883d
00000160: f6aa d23e 3671 b4be 769b fcbe 8bfa 9fbd
00000170: b1a2 923e 0cab 573f 56aa 643e cc84 a13f
00000180: a5b4 fe3e 4348 943e 2dc4 f2be 72bb 823f
00000190: a052 983c 6d7f f63e 23b1 3abe 163f 4e3f
000001a0: 35d4 1dbf 86de 473f 404d c83e 0e6c 6b3e
000001b0: 32de ad3f 9fd9 323f 9d8f 443f 6906 27bf
000001c0: 5dfa 143f f079 363f e9c6 2fbe f702 b93f
000001d0: a08a 19be a318 123f 3701 8cbd 407a 1d3f
000001e0: 713e 603f b948 8bbe 69f8 5e3f 721b 853e
000001f0: 1a8f ad3f 988f b23e 0d21 cbbe 5417 a23f
00000200: b114 25bf 8ec4 3ebf c904 0abf fd6f 72bf
00000210: bd5f 58bf 45f5 64bf 33c8 60bf 176e 40bf
00000220: 3e07 4cbf f849 0ebf bf7c 41bf 29d7 34bf
00000230: b643 80bf 487c 54bf 5d3b 49bf 6206 78bf
00000240: 5057 93bf 2f8a 92bf ef32 6fbf a925 55bf
00000250: 0a0f 75bf 4247 57bf 049b 47bf e3de 21bf
00000260: 534f 7bbf 1320 69bf 8091 52bf 04cd 82bf
00000270: ddad 4bbf ba2c 7bbf 5871 6fbf 0fd0 37bf
00000280: 2614 6abf e960 49bf 03c1 52bf 6c55 68bf
00000290: de8d 50bf 350e 21bf 0931 6fbf ec1a 59bf
000002a0: b2dc 4fbf ea85 54bf ee89 febe c3d0 2ebf
000002b0: 93e6 4cbf d3da 61bf fc39 86bf 0fc5 0dbf
000002c0: dff2 77bf a833 4cbf b0e3 15bf 36a4 34bf
000002d0: e524 5cbf 6f70 82bf 53e4 3ebf 2e95 2cbf
000002e0: 54c2 2dbf da11 4cbf 69a5 54bf 6ed2 4cbf
000002f0: 2df2 75bf 78e2 45bf 3f94 0fbf c36b 1fbf
00000300: 6071 57bf 16cf 63bf f914 39bf 7de6 4dbf
00000310: f6b8 73bf 3819 35bf 7d33 59bf cf87 ffbe
00000320: b796 5fbf c8ac 4abf 487c 8cbf 9bf2 41bf
00000330: 7403 55bf 517e 9ebf 4d8c 16bf f414 57bf
00000340: c8eb 54bf 7e73 63bf e6a0 63bf f9a0 48bf
00000350: 10e1 48bf 2f80 6fbf 6691 4dbf a046 76bf
00000360: 1bec 84bf 7dbc 74bf ae56 83bf ee3b 65bf
00000370: 499f 87bf 686d 62bf 56db 30bf dadb 8fbf
00000380: 1acf 35bf af78 89bf dbab 8dbf a80d 7fbf
00000390: 19e7 23bf 817a 59bf 1060 09bf 7625 99bf
000003a0: db6c 3cbf ed01 34bf 5df4 5ebf a252 54bf
000003b0: 1bde 75bf a036 86bf e897 3fbf 2c23 23bf
000003c0: 098d 82bf df99 40bf e80f 6dbf edaa 63bf
000003d0: 02fd acbf 3f58 35bf fb5e 43bf fc55 63bf
000003e0: d651 44bf e6cf 5bbf c7fc 7fbf c0e5 48bf
000003f0: e6d7 91bf 40ee 8ebf 532a 4bbf 98c9 99bf
0.27490976 0.4263552 0.04787165 0.64980966 0.91737574 0.5641221 0.46905923 0.39337555
0.34392968 0.31775773 0.11724693 -0.65382624 0.7683487 0.44597727 -0.5202135 0.44021684
0.88508135 0.64285463 0.7298775 0.15935214 0.6699109 0.596305 0.2862346 -0.40947318
-0.13439272 0.18384354 0.13375577 0.7373734 0.3251466 0.29579446 0.06926226 0.26032868
0.22717795 0.6610976 0.90462214 0.07890259 -0.17848918 -0.31254292 -0.06559702 0.7275312
-0.754446 -0.109064944 0.0042972355 0.050677903 -0.26674178 0.10598827 1.1082697 0.3269617
0.404879 0.55030197 0.45533755 0.37995532 0.2684565 0.5525237 0.48654872 -0.23120812
-0.4453958 -0.11436625 0.4263491 -0.5710315 -0.19833718 0.46945012 -0.015409558 0.63569504
-0.5429104 0.36298546 0.5517324 0.25257435 1.0468394 0.36508018 0.3808806 0.50232875
0.28109762 0.28947285 0.37735447 0.037032392 0.35281077 0.4030446 0.31178787 -0.07837477
-0.24260402 0.1373674 0.39933988 -0.12363633 -0.09552682 1.3552443 0.12537529 0.066794924
0.41146058 -0.35242623 -0.49337357 -0.07811459 0.2863975 0.8424537 0.22330603 1.2618651
0.49747196 0.2896138 -0.47415295 1.0213454 0.018594086 0.48144093 -0.18231635 0.8056501
-0.6165193 0.7807392 0.39121437 0.22990438 1.3583434 0.69863313 0.76781636 -0.65244156
0.58194524 0.7127981 -0.17165722 1.445403 -0.14994287 0.5706884 -0.06836169 0.61514664
0.8759528 -0.2720392 0.87097794 0.25997502 1.3559296 0.34875178 -0.39673653 1.2663369
-0.644847 -0.7451867 -0.5391355 -0.9470213 -0.84521085 -0.8943675 -0.8780548 -0.75167984
-0.7969855 -0.5558162 -0.7558097 -0.7064081 -1.0020664 -0.8300214 -0.78606206 -0.9688474
-1.1511021 -1.144842 -0.93437093 -0.8326059 -0.9572607 -0.84093106 -0.7797091 -0.63230723
-0.98167914 -0.91064566 -0.82253265 -1.0218816 -0.7956217 -0.9811512 -0.93532324 -0.7180185
-0.91436994 -0.786635 -0.8232576 -0.90755343 -0.8146647 -0.62912303 -0.93434197 -0.84806705
-0.8119613 -0.83016837 -0.49714607 -0.68287295 -0.8003933 -0.88224524 -1.0486445 -0.5537881
-0.96854967 -0.7976632 -0.5855055 -0.70563066 -0.85993797 -1.0190562 -0.74567145 -0.6741513
-0.67874646 -0.7971474 -0.83064896 -0.8000859 -0.96072656 -0.7729869 -0.5608558 -0.62273806
-0.8415737 -0.88987863 -0.72297627 -0.8042982 -0.95204103 -0.70741606 -0.8484419 -0.499083
-0.8733935 -0.79169893 -1.0975428 -0.7576081 -0.83208394 -1.2382299 -0.5880783 -0.84016347
-0.83172274 -0.888481 -0.88917387 -0.78370625 -0.7846842 -0.9355497 -0.80299985 -0.96201515
-1.0384554 -0.9560011 -1.0260828 -0.8954457 -1.0595485 -0.8844819 -0.6908468 -1.1238968
-0.71019137 -1.0739955 -1.1068071 -0.9963021 -0.640245 -0.8495255 -0.53662205 -1.1964557
-0.736036 -0.7031544 -0.8709162 -0.8293859 -0.9604203 -1.048542 -0.74841166 -0.63725543
-1.019929 -0.7523479 -0.92602396 -0.8893269 -1.3514712 -0.7083778 -0.76316804 -0.88803077
-0.7668737 -0.858641 -0.9999508 -0.7847557 -1.1394012 -1.1166458 -0.79361457 -1.2014647

lstm.bias_hh_l1 f4 [512]
00000000: f710 c63e 0fdd e03e 17bf ad3d 600a 203f
00000010: d457 6b3f a80c 203f da35 e73e 0bc7 943e
00000020: e31c ab3e faa9 d03e f819 953b a685 27bf
00000030: 86ce 243f 7642 ea3e f3d6 b7be 79ce 0b3f
00000040: 2da4 643f 42b7 113f 494f 153f c02d 5e3e
00000050: f04c 493f e5da 2c3f 6ccc 853e ea24 c5be
00000060: a042 20be eac7 453e 3846 163e 2f1c 5e3f
00000070: 932b 993e 8960 a63e d9fa 943c 4183 a23e
00000080: df83 283e 5b4e 3d3f 6ccc 573f 9510 283e
00000090: 292e 92be 1a1a e3be 5ffe 09be eb18 283f
000000a0: 4730 42bf b9c1 07be f62e 27bc a719 213e
000000b0: b745 8bbe a4c0 c63d b1f9 883f 4e71 873e
000000c0: 2b9a e23e eef8 1f3f 9284 f03e f88b c93e
000000d0: 731f b83e f662 d13e a0a9 d53e 7d51 9fbe
000000e0: 61f3 bbbe 52e0 0cbe 66bf d93e fef1 35bf
000000f0: 3065 49be e532 bb3e 8162 5fbd 026f 0c3f
00000100: 4344 09bf 5ca6 be3e b01a d33e fedf a23e
00000110: 1e4a 873f 0be1 a83e e516 e13e 9aa2 d73e
00000120: 7595 7a3e c6d2 bc3e 2ccc f53e 0fdf c73c
00000130: d30e 813e 74a8 e53e 49f5 a93e 0359 dc3c
00000140: 2c77 8cbe c7fe 173e 856f c33e 61c9 25be
00000150: 60f1 0fbe 06f8 ae3f 5d89 3c3e 22ca 5a3e
00000160: 44e9 013f b6f1 84be 1031 19bf 7fc9 7d3c
00000170: c778 8b3e 1426 6d3f 4732 853e e271 a43f
00000180: 0611 bc3e 36a2 943e 8628 acbe 47a7 7d3f
00000190: ef2c fb3d bf06 f23e 7456 01be 0e70 633f
000001a0: 0439 24bf 3c3a 533f ce33 d73e 8d6f 553e
000001b0: 3469 9b3f cb78 3d3f 3f7e 3a3f e1a8 48bf
000001c0: 7df3 0b3f 62f9 203f ecc4 64be 5d9f a83f
000001d0: 6a1c 30be 7a9e 363f 83ed 42bd 87b0 1b3f
000001e0: 28f0 4f3f d75d 59be d71b 563f b2bb d03e
000001f0: 63fc bc3f 5af9 9d3e b162 dabe 1e03 a93f
00000200: cd0b 30bf 8d51 2fbf 4e48 14bf 94f6 85bf
00000210: 7ba6 51bf 3ce1 72bf b7b4 7dbf 3559 43bf
00000220: a950 49bf 73c3 11bf b487 51bf 3009 37bf
00000230: 0497 72bf 912f 4ebf 9a64 2bbf 35b9 82bf
00000240: d58d 93bf 7c7d 93bf 2867 57bf 58a8 53bf
00000250: 4a90 75bf f37f 55bf 1931 5cbf 80c3 24bf
00000260: e6ac 72bf 1e6d 7dbf 473c 5abf 49b0 72bf
00000270: c3cb 25bf 66c0 87bf 34b0 74bf fa35 4cbf
00000280: 348d 62bf 9c43 30bf 55cd 4bbf 9a56 41bf
00000290: 5d61 64bf a322 3ebf c876 6fbf 8ba0 52bf
000002a0: 3545 31bf f442 40bf 6312 08bf a467 13bf
000002b0: a618 6ebf b90b 63bf 9e70 8dbf 72ba 01bf
000002c0: e2d5 7fbf 87ea 44bf 3fdd 31bf 501e 2dbf
000002d0: ad48 51bf 87d8 84bf 9145 1ebf 1813 28bf
000002e0: 726d 4fbf 1719 31bf 41cb 77bf b6d2 57bf
000002f0: 19ed 78bf 100a 45bf 12f1 12bf b24c 34bf
00000300: cd7d 58bf a0d9 69bf 6e71 1abf bdbc 67bf
00000310: 755a 4cbf 95ea 4ebf bc6c 64bf 6da5 debe
00000320: 698e 41bf efe0 54bf e3d0 8cbf 30a9 35bf
00000330: 596a 34bf 80c1 91bf cb75 18bf 6f31 4dbf
00000340: f44b 6dbf 8b53 4cbf 6d48 3ebf 8fc5 5dbf
00000350: 7a43 44bf 0232 6ebf 56c2 66bf fcaa 84bf
00000360: ce21 76bf 43f3 4fbf ba04 80bf a105 62bf
00000370: f968 77bf e82b 6dbf 70d4 4fbf a0d2 8abf
00000380: 28a8 44bf 4a3c 88bf 5a6e 87bf 5cd3 71bf
00000390: ea2d 36bf f69b 55bf 59a4 15bf 74a8 a6bf
000003a0: d309 3ebf 2cf7 5abf f1a9 47bf c28e 36bf
000003b0: 6444 6ebf 0789 91bf 226b 39bf 55dc 3abf
000003c0: ebe5 84bf 1568 35bf 6b67 84bf b434 51bf
000003d0: dbd2 9ebf f28f 1cbf a578 25bf 95ea 51bf
000003e0: fef1 56bf 62d0 4ebf 7eb7 81bf 48a3 51bf
000003f0: 5894 84bf 8b07 88bf 1513 4dbf 0a34 89bf
0.38684818 0.43918654 0.08483713 0.6251583 0.9193089 0.6251931 0.45158273 0.29058108
0.33420476 0.40754682 0.004550215 -0.65438306 0.6437763 0.4575383 -0.3590618 0.5461193
0.8931301 0.56920254 0.58324105 0.2169714 0.7863302 0.67521507 0.26132524 -0.38504726
-0.15650415 0.19314542 0.14675224 0.86761755 0.29916057 0.32495525 0.01818602 0.31740764
0.16456555 0.73947686 0.842963 0.16412576 -0.28550842 -0.4435585 -0.13475941 0.6566302
-0.75854915 -0.13257493 -0.010204067 0.15732442 -0.27201626 0.09704712 1.07012 0.26453632
0.44258246 0.6248921 0.46976143 0.393646 0.35961494 0.40895814 0.41730976 -0.31116858
-0.3670912 -0.13757446 0.42528838 -0.71072376 -0.19667506 0.36562267 -0.0545373 0.54856884
-0.53619784 0.37236297 0.41231298 0.31811517 1.0569494 0.32984194 0.4396278 0.42116243
0.24471076 0.36879557 0.48007333 0.024398355 0.25206622 0.44855082 0.3319495 0.026897913
-0.2743467 0.14843284 0.3817102 -0.16190101 -0.14056921 1.3669441 0.18411775 0.2136617
0.5074656 -0.2596566 -0.5984049 0.015489935 0.27240583 0.9263623 0.2601492 1.2847254
0.36731738 0.29030007 -0.33624667 0.9908337 0.1226443 0.47270772 -0.12630635 0.88842857
-0.641495 0.82510734 0.4203171 0.20843334 1.214148 0.7401244 0.72848886 -0.7838269
0.5466841 0.6288053 -0.22340745 1.3173634 -0.17198339 0.71335566 -0.04758979 0.60816234
0.81225824 -0.21227203 0.8363623 0.407682 1.4764522 0.30854303 -0.4265342 1.3204076
-0.68768007 -0.6848381 -0.5792283 -1.0465875 -0.81894654 -0.9487493 -0.99103874 -0.76307994
-0.786387 -0.56938857 -0.8184769 -0.71498394 -0.9476168 -0.8054133 -0.6695038 -1.0212771
-1.1527659 -1.152267 -0.8414178 -0.8267875 -0.9592329 -0.8339836 -0.8601242 -0.6436081
-0.9479507 -0.98994625 -0.85248226 -0.9480024 -0.6476404 -1.060559 -0.95581365 -0.7976986
-0.8849671 -0.68853164 -0.79610187 -0.7552277 -0.89211065 -0.742716 -0.9354062 -0.8227622
-0.69246227 -0.7510216 -0.53153056 -0.5758002 -0.9300636 -0.8868976 -1.1049993 -0.5067512
-0.99935734 -0.7692036 -0.6947822 -0.6762438 -0.8175152 -1.0378579 -0.618249 -0.65654135
-0.81026375 -0.6917891 -0.96794516 -0.84305894 -0.9723678 -0.7696848 -0.57399094 -0.7042953
-0.84566957 -0.91347694 -0.6032933 -0.90522367 -0.79825526 -0.80826694 -0.89228415 -0.43485585
-0.75607926 -0.8315572 -1.1001247 -0.70961285 -0.70474774 -1.1387177 -0.5955474 -0.80153555
-0.9269402 -0.79814976 -0.7432926 -0.86629575 -0.7666546 -0.93045056 -0.90140283 -1.036468
-0.9614533 -0.8123056 -1.0001442 -0.8828984 -0.9664455 -0.9264512 -0.8118353 -1.0845528
-0.76819086 -1.0643399 -1.0580552 -0.94463134 -0.7116381 -0.834411 -0.584539 -1.3020158
-0.7423374 -0.85533404 -0.77993685 -0.7131158 -0.93073106 -1.1369942 -0.72429097 -0.7299245
-1.0382665 -0.7086194 -1.0344061 -0.81721044 -1.2408098 -0.61157143 -0.64637214 -0.8199857
-0.83963 -0.80786717 -1.0134122 -0.8188977 -1.0357771 -1.0627302 -0.8010724 -1.0719006
