models/model_mlp2.pth (torch, 61207 bytes, 6 tensors)

fc.weight f4 [100, 35]
000000 64 f9 c7 bd ae 04 17 be 73 d1 10 3d 42 dc ad bf
       -0.09764364 -0.14747879 0.035355996 -1.3582842
000010 d1 e4 34 c0 96 49 a0 3e d7 f7 02 be 83 e1 af 3e
       -2.8264658 0.31306142 -0.12789856 0.3435174
000020 45 38 9b 3e a9 8a 5e 3e e0 10 1d 3d ad c3 9c 3f
       0.30316368 0.21732582 0.03834617 1.2247216
000030 79 b1 15 3e ff ba 05 3e f1 65 7c bf 11 6e 55 c0
       0.14618482 0.13059615 -0.9859305 -3.334843
000040 8d 53 0c c0 eb 01 8c c0 a4 93 b2 be fb 97 5f 3f
       -2.1925995 -4.375234 -0.34878266 0.8734128
000050 3f f5 0a bd 88 90 40 bf cd 7e 17 bf 6d 90 8d bf
       -0.03392529 -0.7522054 -0.5917786 -1.10597
000060 18 cc f5 be ba aa c4 be e0 44 b3 bf c6 18 00 bf
       -0.48007274 -0.38411504 -1.4005394 -0.500378
000070 b8 97 5f bf 04 c4 15 3d 5e 6d e0 3d 46 e6 f7 be
       -0.8734088 0.03656389 0.1095836 -0.48417872
000080 ee e6 bb bd 6d 1b 3e bf ee ae 6e bf 3c 39 66 be
       -0.09174906 -0.742606 -0.9323567 -0.2248277
000090 ff a4 12 bf 01 7a 86 3e ca 68 20 40 12 e1 85 40
       -0.57283014 0.26264957 2.5063958 4.1837244
0000a0 e5 15 a3 3d 6e 87 a7 bd 1a 38 d4 be 5a 00 68 be
       0.079631604 -0.08180128 -0.41449052 -0.22656384
0000b0 da fe f7 be cc 21 82 3c 71 bc 22 c0 52 b6 0c 3b
       -0.48436624 0.015885256 -2.5427516 0.0021470976
0000c0 9b f8 8c 3d 27 b6 e6 3f f7 5e 7f 40 cb a0 5c 40
       0.06883355 1.8024338 3.9901712 3.447314
0000d0 44 0d a2 40 f0 72 21 3e e6 78 8e bf 96 81 04 3d
       5.0641193 0.15766501 -1.1130645 0.032350145
0000e0 73 20 aa 3f 09 0b 90 3f 6f bb 6a 3f 9b 8b 3b 3f
       1.3291153 1.1253368 0.9169225 0.73259896
0000f0 fc f2 b2 3e 57 b8 d9 3f 53 c7 d7 3e 18 71 43 3f
       0.34951007 1.7009381 0.4214426 0.7634444
000100 25 5c a4 3d 08 45 71 3e 89 a8 34 3f 31 88 f4 3e
       0.08025388 0.2356149 0.70569664 0.47760156
000110 03 f7 72 3f 29 a9 a6 3f fd 45 ff 3c 8e 9a 9c 3e
       0.9490816 1.3020374 0.031161303 0.30586666
000120 19 e4 a6 bd 76 b9 54 bd d3 28 df bf aa d1 ec bd
       -0.08148975 -0.05193468 -1.7434334 -0.11563428
000130 93 2c b2 3c 84 f8 08 3e 36 03 91 be 8f f1 f8 ba
       0.02174977 0.13376051 -0.28322762 -0.0018992889
000140 05 ad 24 3e d2 ce a4 be 12 af ab 3d 3b b1 cb bd
       0.16081627 -0.3218904 0.083830014 -0.099459134
000150 b0 a2 b1 3e 08 28 c6 bf 4e 28 68 bf 0f 46 58 c0
       0.34694433 -1.5480967 -0.906865 -3.379276
000160 7f ec 28 3e 67 70 1d bf e9 dd aa bd de dc a9 bf
       0.16496466 -0.6149964 -0.08343107 -1.3270528
000170 80 7e 85 bf 53 e0 b6 3e b8 e5 6e 3b 7d 11 c2 bd
       -1.042923 0.3571802 0.003645284 -0.09475992
000180 80 20 34 be 3b f6 92 3e 0c da a8 3e 22 7e 6b 3e
       -0.17590523 0.28703484 0.32978857 0.22997335
000190 7d 76 98 3d e3 d3 c3 3e f7 23 ac 3e ff 93 e7 bd
       0.07444475 0.38247594 0.3362119 -0.11307525
0001a0 94 66 b6 3d 7d 23 4a 3e 68 d2 aa bd c3 ea 4f 3e
       0.08906284 0.197401 -0.08340913 0.20304398
0001b0 05 ba 81 3f a3 50 89 40 e3 1b eb bc af db 5d bd
       1.0134894 4.2910933 -0.02869982 -0.054164585
0001c0 eb 36 ed bd d2 53 75 3d 00 98 3d be 7c 0e 16 3e
       -0.115827404 0.05989439 -0.18515015 0.14653963
0001d0 4e ba 00 bf 09 f0 f0 3d 09 0b 7a 3d 22 56 e0 3c
       -0.5028428 0.11764533 0.06104568 0.027384821
0001e0 a0 ff 3f 40 42 49 45 40 55 d4 bf 40 d6 d7 e5 3e
       2.999977 3.0825963 5.9946694 0.44891232
0001f0 c2 68 72 3f 9a 4c 97 3e b5 b9 2f 40 6f 4f 0f 40
       0.946911 0.2955063 2.7457097 2.2392232
000200 e1 80 88 3e 76 2a b0 3c 8c 53 b6 3e 11 07 23 3f
       0.26660827 0.021504622 0.35610616 0.6368266
000210 88 1d 6a 3e dd 52 b8 3d 08 74 25 be e4 14 a5 bc
       0.22862828 0.0900018 -0.16157544 -0.020151563
000220 a2 a0 64 be 2d 74 04 bf e2 41 8a 3e 16 4a bb 3e
       -0.22326902 -0.5173977 0.2700339 0.3657996
000230 e1 2e cd bc eb 64 37 3e a2 8f bb be be 14 89 3f
       -0.025046768 0.17909591 -0.3663302 1.0709455
000240 b7 46 f6 3f 65 02 b7 be 16 3b 6a bd 0b c9 de 3c
       1.924033 -0.35744014 -0.057185255 0.027195474
000250 8e f5 0e bf a6 db 02 3e d5 fa 1a bd bf 14 a8 bf
       -0.55843437 0.12779102 -0.03783687 -1.3131331
000260 8e 7d 3b 3c 2c ae d5 bd 38 5e 3a 3f 18 9d c9 3f
       0.011443509 -0.10433611 0.72800016 1.5751066
000270 d4 7d b1 3f 0a ed 31 40 6e b6 00 3e 41 28 b1 3d
       1.3866525 2.7800927 0.12569591 0.08650256
000280 f9 4d 4f 3e 31 54 0f 3f aa 98 d9 3e d2 c8 da 3e
       0.20244588 0.5598784 0.42499286 0.4273134
000290 f4 96 74 3e 3c 4b 36 3e eb 62 b7 3f 56 69 23 3f
       0.23885709 0.17802137 1.4327062 0.63832605
0002a0 f7 fa a0 3f 26 91 24 3e a9 02 be bd b3 80 7d 3f
       1.2576588 0.16070995 -0.09277851 0.99024504
0002b0 a9 ed 40 3f 55 68 d1 3e 9a 2d 29 3f 1c 1c 1f be
       0.7536264 0.40899912 0.6608521 -0.15538067
0002c0 ef 7b 6c 3e 03 0e d4 be d4 ab 8c bf 8a 71 6c c0
       0.23094152 -0.4141694 -1.0989938 -3.6944299
0002d0 cf 0b ed 3e 8d 7b 2c be 6f 4a 2b 3e 67 6d a0 3d
       0.46298072 -0.16844006 0.16727613 0.07833367
0002e0 d8 51 4b be c1 88 8a 3d 0e 55 8c 3f b5 a8 5a be
       -0.1985544 0.06764365 1.0963457 -0.21353419
0002f0 b0 59 3a 3d b8 43 78 be da 6a 55 c0 6d df 31 c0
       0.04549569 -0.24244583 -3.3346467 -2.7792618
000300 1c 0a ae c0 ea 58 a0 be 93 9d 2c bf d8 8b 3f bc
       -5.438734 -0.31317836 -0.6742794 -0.011691056
000310 5e f6 0b c0 68 6a a6 bf 6c 14 fb be 7f 3a 60 be
       -2.186912 -1.3001223 -0.49039018 -0.21897314
000320 b0 a6 00 bf b6 95 92 bf d2 b3 71 bd f6 c0 3f be
       -0.50254345 -1.1451938 -0.05900938 -0.18725953
000330 d8 a7 84 3d 8e 4d 21 3e 0e 5d 53 3e 43 bc 65 3f
       0.06477326 0.15752241 0.20640966 0.8974039
000340 58 94 1d bf c1 24 3d bf 56 3d 97 be 37 75 2a bd
       -0.6155448 -0.73884207 -0.29538983 -0.04161569
000350 bd a3 8c be 43 3c ea 3c ab c4 a8 3f c0 27 68 bd
       -0.27468672 0.028593188 1.3185018 -0.056678534
000360 6f 47 9a be 11 bf ca 3d 6f cb df bd ee 82 51 bd
       -0.30132625 0.09899724 -0.10927474 -0.051150255
000370 70 ed 47 3e 21 47 9c 3e 8a 26 e1 3d 65 69 f6 3b
       0.19524169 0.30523017 0.10993679 0.007519888
000380 60 f6 38 be 89 14 ae 3f d6 e7 62 3f 58 67 1f 40
       -0.18062735 1.3600017 0.88635004 2.4906826
000390 6c b8 21 be 20 7b 6f 3f e7 10 53 3e 86 d5 51 3f
       -0.15793008 0.9354725 0.20611916 0.81966436
0003a0 f3 a0 61 3f 87 26 a3 be d8 f2 0c bc a4 47 ff 3d
       0.88136214 -0.31865332 -0.00860282 0.12464836
0003b0 8c 34 67 3e 41 9a e9 3d a6 ba 83 3d a3 d5 f7 3d
       0.22578639 0.11406375 0.06432085 0.12101295
0003c0 4f fe 08 3e 81 35 85 3e 70 b1 8a 3e eb 83 73 3e
       0.13378261 0.26017383 0.270885 0.23780791
0003d0 5e a2 37 be 4c 81 5b 3e 02 cf 4e be b7 fc 7c be
       -0.17933032 0.21436042 -0.20196155 -0.24705778
0003e0 17 f5 55 3e d7 aa 8d bf b7 94 f0 bd 2c b3 e6 3d
       0.20894276 -1.1067761 -0.11747115 0.11264643
0003f0 eb 96 99 be a9 8d 1c 3d a0 84 ef bd 94 00 b9 bd
       -0.29997954 0.038221035 -0.11695218 -0.090333134

fc.bias f4 [100]
000000 58 5c fe bc 1d 49 25 bd 7d 40 04 be 32 5f 1d 3c
       -0.031049892 -0.04035293 -0.12915225 0.009605216
000010 4c da 07 3d 7d af 30 3c a0 d7 2d 3c fc cc 89 bd
       0.03316717 0.010784027 0.010610491 -0.06728551
000020 66 fc 90 3c 62 9b 12 3d ab 55 f4 3c 22 2f 4d 3d
       0.017698478 0.035792716 0.029826006 0.050093777
000030 17 57 2f 3e 19 ce 5a be c4 a1 ae 3c b4 95 9d 3e
       0.17123066 -0.21367683 0.02131737 0.30778277
000040 b1 a6 6b 3e 7a 30 28 3e 32 2b 88 3d cc 9b 20 3e
       0.23012806 0.16424742 0.06648864 0.15684432
000050 d8 d6 72 bc 38 dc 22 3d eb 2b 4c 3e 22 df 54 be
       -0.014821731 0.0397608 0.19938628 -0.20788243
000060 f1 92 ee 3b a6 f7 8c 3e 3d 44 d4 3b 91 31 9f be
       0.0072807004 0.2753269 0.006477861 -0.31092504
000070 f0 c6 4b bd e1 cc 6e be 9d 88 bb 3d 2c 5c 54 3e
       -0.04975027 -0.23320343 0.09156916 0.20738286
000080 13 4c fe 3d c6 82 6f 3c 89 cc 1e bc fe ba 68 3e
       0.12416854 0.014618581 -0.00969232 0.22727582
000090 c7 fd 07 3e a2 50 a2 bd 43 ac c8 bb 23 57 8a bd
       0.13280402 -0.07925536 -0.006124051 -0.06754901
0000a0 65 ef 51 3e 48 ab 70 bd 9c 42 d3 3d c9 91 a2 3e
       0.20501478 -0.058757097 0.10315439 0.3175185
0000b0 d3 58 95 bd 8b 00 78 be bc b6 01 3e 88 aa 20 be
       -0.072923325 -0.24218957 0.12667364 -0.15690053
0000c0 8f 03 b3 bd 46 37 08 3d 50 f3 89 bc 99 99 f9 bd
       -0.08740913 0.033255838 -0.016839653 -0.121874996
0000d0 1f 17 5a 3e 9d cb 70 be 54 69 a7 bb 92 3b cb bd
       0.21297882 -0.23515172 -0.0051089916 -0.099234715
0000e0 4d 81 a1 3e 23 3b 97 be 55 f7 32 3e be 15 0e 3e
       0.3154396 -0.29537305 0.17477162 0.13875481
0000f0 0a 27 fe bd 2d d4 45 be 23 f5 95 3e f1 82 b4 bd
       -0.1240979 -0.1931922 0.29288587 -0.088140376
000100 ca 34 14 3e 5e 3e b1 3d e4 cf 0c be 3c 04 0d 3e
       0.14473262 0.08654474 -0.13751179 0.13771147
000110 be 6d dd 3c 94 e8 7b 3e 8a 05 77 be b8 a4 55 be
       0.027029868 0.2460044 -0.24123207 -0.20863616
000120 81 9c 6e 3e 74 0b 67 be 24 79 5f 3e af 1c 51 be
       0.23301889 -0.22562963 0.21823555 -0.20421098
000130 d9 c2 bf bd d8 ec 86 3e 86 1c 98 3d fb bf 98 3d
       -0.09363336 0.26352572 0.074273154 0.07458492
000140 77 c2 4d 3e bb a1 6f bd 2a c4 2e 3d 81 a2 d8 bb
       0.20093714 -0.058503848 0.042667545 -0.006611169
000150 c1 d5 e6 bd 20 33 6c 3e 82 30 ed bd b2 9e db bb
       -0.11271239 0.23066378 -0.11581518 -0.0067022676
000160 f9 2d 82 3e 15 54 2f 3d 69 8f c3 bd 91 19 68 be
       0.254257 0.042804796 -0.09548838 -0.22666003
000170 0c 8f 81 3e 2d 77 49 3e 95 e9 1d 3d 8d 7e 8b 3e
       0.2530445 0.19674368 0.03855284 0.27244988
000180 28 ba 76 3e e7 0f c0 3b c6 ae f6 3d 33 34 d9 3d
       0.2409445 0.0058612707 0.12045054 0.10605659

fc2.weight f4 [100, 100]
000000 4c ae 09 be 0c a6 39 3e 9f a4 ea bd cf bb 3b bc
       -0.13445395 0.18129748 -0.1145718 -0.011458351
000010 bd ba d9 3e 95 b1 4a be 33 3f 14 3e c4 f6 0f 3e
       0.42525283 -0.19794305 0.14477234 0.14058977
000020 6b ba 83 bd 14 16 6d 3d 73 f0 9f be 53 08 d4 3e
       -0.06432041 0.057882383 -0.31238136 0.414126
000030 3c ae 20 be f3 bd ee 3b 93 97 3b 3e b2 70 d6 bd
       -0.15691465 0.0072858273 0.1831954 -0.10470714
000040 9d 28 11 3d 54 4a a3 bc 58 03 cb 3e 16 cd 00 3e
       0.035439122 -0.019932903 0.3965099 0.12578234
000050 a8 7f 81 3e 5f 4a 8c be e8 30 3a 3e 46 9a 4e 3d
       0.25292706 -0.2740049 0.18182719 0.050440095
000060 86 ae 1f 3c 75 89 83 3d ea 8c f0 3c 7c 5f 5c be
       0.0097461995 0.06422702 0.029364068 -0.215208
000070 e6 33 79 3e 65 1c ee 3d 98 c1 89 be 3e 0f 09 be
       0.24336204 0.116265096 -0.26905513 -0.1338472
000080 6d 58 38 be 54 55 a4 bd 89 ee d8 3e c8 09 b4 bc
       -0.18002482 -0.080240875 0.42369488 -0.02197732
000090 b3 30 12 3e 6c 5a c3 bc 52 e0 64 be dd 53 03 be
       0.1427639 -0.023846827 -0.22351196 -0.1282496
0000a0 75 d1 af be a0 10 b2 3a 07 41 23 3d f2 e4 66 3e
       -0.3433949 0.0013585277 0.039856937 0.22548273
0000b0 7a 1d ee be 97 cd d4 3e 54 c3 15 3d de 7d 18 3e
       -0.46506864 0.41563103 0.036563233 0.14891765
0000c0 8e 82 ed be d4 05 61 3e 8a 29 81 3d 26 1b a7 3e
       -0.46388668 0.2197488 0.06306751 0.326379
0000d0 27 e8 bc 3d 36 7f 31 3d d2 77 0c 3e 8f 8c 36 3e
       0.09223967 0.04333421 0.13717583 0.17827056
0000e0 a3 09 93 3e af 45 51 be 68 f6 20 3e df 98 74 be
       0.2871829 -0.20436738 0.15718997 -0.2388644
0000f0 0f 8b 87 be f0 47 63 bd d5 83 8b 3e f5 d9 6b be
       -0.2647328 -0.055488527 0.27249017 -0.23032363
000100 15 31 e4 3c 79 55 d9 be ff 62 dd 3b c4 f7 da bc
       0.027855435 -0.42448023 0.006756186 -0.026729472
000110 c0 a5 5d 3e d0 85 cb bd d7 d8 98 3e b5 c6 2f be
       0.2164526 -0.09937632 0.29852936 -0.17165644
000120 36 31 13 bd 0e 59 f0 3d 26 45 6f 3d 20 c0 10 bc
       -0.035935603 0.11735736 0.058415554 -0.008834869
000130 36 15 6a 3e 68 81 43 bd 6b 80 5b 3f 1e 45 85 be
       0.22859654 -0.047730833 0.85742825 -0.26029295
000140 e5 7e 9e 3e 64 3c 62 be 93 b2 7e bc 47 57 cd bd
       0.30956188 -0.2209335 -0.015545505 -0.100264125
000150 76 83 38 bd 26 5d 06 be c3 0a b1 3d a7 00 82 3c
       -0.045047246 -0.13121471 0.08644631 0.015869452
000160 ec 57 c6 3d 2a 1e 86 3d 99 b4 4a be 5d 88 a1 bd
       0.096847385 0.06548722 -0.19795455 -0.07887337
000170 44 68 4b bd 33 df 5f 3d 8d c0 a3 bd e6 e7 7a be
       -0.049659982 0.05465622 -0.079957105 -0.24502525
000180 a0 ea 91 bc 54 b5 5e be ea 3f 06 be f6 c5 80 3e
       -0.017812073 -0.21748859 -0.13110319 0.25151032
000190 60 af 3b be 69 ca b0 3e b5 0c a3 bd 15 25 2d 3e
       -0.18328619 0.34529427 -0.07961408 0.16908677
0001a0 6c 48 70 be 6e 11 f8 3e bd 53 3d 3d 55 34 73 3e
       -0.23465127 0.48450798 0.046222437 0.23750432
0001b0 93 58 6d bd 63 49 ac 3d 26 5c fa 3d fd f3 6f bd
       -0.0579458 0.08412435 0.12224607 -0.058582295
0001c0 09 9f dd 3d ac 75 53 bd 18 c4 4c 3e 7f 6e 83 3d
       0.10821349 -0.051625893 0.19996679 0.0641756
0001d0 b9 d4 3a be 1c 60 0a be 12 99 3c 3e cb 18 70 3e
       -0.1824521 -0.13513225 0.18417767 0.23446958
0001e0 9e 94 c5 be ef c3 6e 3d 8b fa 6b 3e 86 82 57 3e
       -0.38589948 0.058292326 0.23044793 0.21045884
0001f0 04 01 44 be f8 7c 1a 3e 66 cf 96 3e 91 22 37 bd
       -0.19141012 0.15086734 0.29455107 -0.0447107
000200 75 96 1f 3c e6 ce 9f be 75 bd 0e 3d 78 01 52 3e
       0.009740462 -0.31212538 0.03484865 0.20508373
000210 5c 34 67 be cd 22 25 be 90 b0 77 be a3 12 47 bd
       -0.22578567 -0.16126557 -0.24188447 -0.048601758
000220 44 14 a2 be 7d 87 13 bd 0a cc a8 3e 93 09 1c 3e
       -0.31656086 -0.036017884 0.3296817 0.15238027
000230 e1 13 52 3e 08 e1 90 bd 41 46 1e be 61 63 d7 3e
       0.20515396 -0.07074171 -0.15456487 0.42068008
000240 fe 97 87 bd 5a 68 75 be 55 f0 90 3d 61 55 a9 be
       -0.06620787 -0.23965588 0.0707709 -0.3307295
000250 71 14 02 bd 09 29 d2 bd 21 75 43 bd 9e dc b8 3d
       -0.031757776 -0.10261733 -0.047719125 0.090264544
000260 58 f8 08 3e d7 b3 9b be 0a 4c 68 be 8b 3d b2 bd
       0.13375986 -0.30410644 -0.22685257 -0.08703145
000270 68 48 0f 3f 63 09 cf be b1 90 82 3e 25 68 5e 3e
       0.5596986 -0.4043685 0.25501016 0.21719415
000280 37 8f d2 3c c1 d0 7a bc 1b 84 05 3e 38 6c 55 be
       0.025703056 -0.01530856 0.13038675 -0.20842063
000290 55 a2 4a bc 94 ad a3 3e 1b f4 09 be 41 bd d1 3e
       -0.012367805 0.31968367 -0.13472025 0.40964702
0002a0 2a 38 ea bd 0a 13 90 3e f2 00 66 be cf 03 cd 3d
       -0.11436494 0.28139526 -0.22461298 0.10010492
0002b0 02 51 03 3c 05 0a 83 be 1e 7c e5 3c c6 dc 9d bd
       0.008014919 -0.25593582 0.028013285 -0.07708125
0002c0 e2 fb 25 3e 85 0b 3e 3e 3c 31 7c be d9 11 95 3d
       0.16209367 0.18559082 -0.24628156 0.07278795
0002d0 80 e2 85 3d 2a 25 81 3e be 6d 44 3e 64 b6 60 be
       0.06537342 0.25223666 0.19182488 -0.21944577
0002e0 21 ed 01 3d 95 c3 77 3e 19 f8 a5 bd fe 7c 20 be
       0.031720284 0.24195702 -0.081039615 -0.1567268
0002f0 da b8 49 be 00 19 3e 3e 2f df a7 3c 2b d0 0d bd
       -0.19699422 0.18564224 0.020492164 -0.034622353
000300 e9 99 92 3e 1c dc 05 bd 5d 98 db 3d 8b 5b 0d be
       0.2863305 -0.032680616 0.1072242 -0.13804452
000310 f6 b7 d7 3e ee 94 91 3e 94 ac 67 3e 8d 3e 65 3d
       0.4213254 0.28433937 0.22624427 0.055967856
000320 46 e7 79 3e 2e 11 99 3d 16 67 a2 3d 1c 7a 62 3b
       0.2440463 0.0747398 0.07929818 0.0034557646
000330 5d 13 c3 bd ce f2 7a 3e 55 0d 3e 3d 80 2e 59 3e
       -0.09525178 0.24506685 0.046399433 0.21209145
000340 c4 e1 cb bd 79 cc 01 be a3 4f 5a 3e 86 8b 02 be
       -0.09955171 -0.12675656 0.21319441 -0.12748536
000350 74 16 32 3d d1 6a 44 3e e1 85 16 3e 54 69 64 bd
       0.043478444 0.19181372 0.14699508 -0.05576451
000360 4f 20 41 be e4 b9 8e bc c0 87 45 be 52 9d df bd
       -0.18859981 -0.017422624 -0.19290066 -0.10918678
000370 15 e5 f2 bb f0 a4 b2 3d b1 4d 56 bd ec 9f 7b 3c
       -0.0074125626 0.087228656 -0.052320186 0.015357953
000380 63 c9 15 bc 03 59 54 be c0 03 eb bd e2 bd 49 3e
       -0.009142253 -0.2073708 -0.11475325 0.19701341
000390 96 28 71 bd 30 42 02 3e 14 c4 47 bd 53 25 b2 bd
       -0.058876596 0.12720561 -0.04877098 -0.08698525
0003a0 cc a9 5c 3d f5 64 9a 3d 32 f3 f9 3b 28 0f 09 3d
       0.05387287 0.07538787 0.007627868 0.03346172
0003b0 fb 56 7b 3d 31 05 30 be 69 93 01 3e b2 08 07 3e
       0.061362248 -0.1718948 0.12653889 0.13186911
0003c0 1a f0 54 bc c3 ef 4c 3e 2b d7 06 be c2 06 ae be
       -0.012996698 0.20013337 -0.13168018 -0.3398953
0003d0 b7 82 b7 3d 87 6b b7 bc 17 e3 b8 3d ba 25 9f bb
       0.08960479 -0.02239014 0.09027689 -0.0048567923
0003e0 d9 1f 7a 3e 0b 2f 11 be b6 5f b9 3d ef 02 b1 bd
       0.24426211 -0.14178102 0.090514585 -0.08643138
0003f0 2e 14 a1 be 99 97 88 3e e6 92 8b bc 91 6c a3 3d
       -0.31460708 0.2667816 -0.01703782 0.07979692

fc2.bias f4 [100]
000000 e1 4b 82 bd 0f 48 6d 3e 9b e1 42 3d bb 78 a0 3d
       -0.06362129 0.2317202 0.047578435 0.078355275
000010 08 0f 5a 3e 42 2f 15 3d 51 93 22 3e a5 fd f8 bd
       0.21294796 0.03642202 0.15876509 -0.12157754
000020 36 94 4f be 44 ab 29 3e c0 b8 41 3e 73 22 f5 3d
       -0.20271382 0.16569239 0.18918133 0.11969461
000030 03 b8 0b 3e e2 5a 32 bc b8 04 6d 3e 59 cc 3d 3e
       0.13644414 -0.010885926 0.23146331 0.18534984
000040 b8 51 be 3d 59 4a 66 bc fd 02 0a 3d 17 c0 7f bc
       0.0929293 -0.014055812 0.033694256 -0.015609763
000050 cd 2a cf 3d ca e7 77 bd 5a c9 36 3e 2d 9d 5e 3e
       0.101155855 -0.060523786 0.17850247 0.21739645
000060 7a ab 20 3e cb 3d 13 bc a7 c6 11 be ad 37 07 be
       0.15690413 -0.008986901 -0.14235936 -0.13204832
000070 8d 2b 05 3e e8 4a 7e 3b fb 67 3d be 00 0d c4 bc
       0.13004895 0.0038801972 -0.18496697 -0.02393198
000080 4f 1d 00 3e 60 f9 45 3e 0e f7 af 3c 35 bf 53 3e
       0.1251118 0.1933341 0.02148011 0.20678408
000090 49 0e 26 bd d6 d5 22 bd 3f 15 42 be 2c b4 6a 3e
       -0.040540967 -0.03975471 -0.18953417 0.22920293
0000a0 7a 82 97 bc 6c 0e 07 be 92 bf 23 3e 45 dd 95 3d
       -0.018494833 -0.13189095 0.15991047 0.073175944
0000b0 c6 23 0e bd 9b d6 b9 bc f9 64 d6 3d 2d 1e 00 3e
       -0.034702085 -0.02268534 0.10468478 0.12511511
0000c0 33 7b c9 bd 2d e9 05 be 47 66 4c be 77 8e 35 3e
       -0.098379515 -0.13077231 -0.1996089 0.17730127
0000d0 74 21 8f 3b ab e2 2c bd ac 46 91 bd b3 e2 04 be
       0.0043680016 -0.042208355 -0.07093558 -0.12977104
0000e0 2b e7 68 3e 47 55 76 be 55 62 b0 3a 5e a0 47 3d
       0.22744434 -0.24055968 0.001345704 0.048736922
0000f0 fb ae 07 be 63 8c 53 be 03 ba b3 3d 7e bd d3 bb
       -0.13250344 -0.20659022 0.08775713 -0.006461798
000100 7b ba 27 3e 39 7a 40 be c3 ac b9 bc d0 ee 81 3e
       0.1637973 -0.18796624 -0.022665387 0.25377512
000110 a6 19 a3 bd 27 94 17 3d 9d ab 26 3c d1 59 5c bd
       -0.079638764 0.037006523 0.010172752 -0.053796593
000120 ed cd 05 3e 4a ba 9d bd 49 ea 6e 3e 41 cf 7e bd
       0.13066836 -0.077015474 0.2333156 -0.06220937
000130 27 20 7b 3e e3 c7 33 3e 66 7a f1 3d 28 98 db bc
       0.24523984 0.1755672 0.11790924 -0.026805952
000140 a5 34 cf 3d 20 5b d2 bc 7c 7f 35 3b fb b3 34 bc
       0.10117463 -0.025678217 0.0027694395 -0.011029239
000150 7a ba ce bb 35 43 56 3d 52 4a c7 bd 24 b2 bd 3c
       -0.006308851 0.052310187 -0.09730972 0.023156233
000160 0f 83 2d 3d de 33 29 be fa 38 4a be b3 37 79 bd
       0.042361315 -0.16523692 -0.19748297 -0.060844135
000170 a1 6a 05 3e 20 68 1d 3d 9e 1b 6c bd ec 27 8f 3d
       0.13028957 0.03842938 -0.057643525 0.06990036
000180 34 3f c5 bc 35 4e 2c be d1 dd 0a be 3d 98 a6 bb
       -0.02407799 -0.16826709 -0.13561179 -0.005084066

output.weight f4 [11, 100]
000000 a5 d0 0e 3e 51 84 e0 be 32 e4 3a be 7d 51 09 be
       0.13946779 -0.4385095 -0.18251112 -0.13409992
000010 d7 f8 63 3e fc c6 a9 be 36 45 de 3d f7 5c 3d be
       0.22262894 -0.33159626 0.10853045 -0.18492495
000020 09 aa 3b be 28 ed 39 be 44 43 eb bd cf 54 59 3e
       -0.18326582 -0.18156874 -0.11487439 0.21223758
000030 d6 90 67 3e ba fc 08 be 7a 8a 93 be f3 4d 88 3e
       0.22613844 -0.13377658 -0.28816587 0.2662197
000040 b5 62 26 be a0 55 a3 3e 84 bc ad be 1f 50 b2 bd
       -0.16248591 0.31901264 -0.33932889 -0.08706688
000050 d5 c9 19 3e 74 8b c9 bd 8a fe 19 bd 5d 23 d7 be
       0.15018399 -0.09841052 -0.037596263 -0.42019168
000060 60 4f 87 3e 93 bb 39 be 57 06 7d be 90 e0 2a 3c
       0.26427746 -0.1813796 -0.2470945 0.010429516
000070 4e 21 4e 3e a2 45 85 3e f7 e2 57 be f9 aa 6a be
       0.20129892 0.26029688 -0.21082674 -0.22916783
000080 8f 40 b6 3e f9 b8 8e 3e 53 af 32 3e 54 31 91 3e
       0.3559613 0.27875498 0.17449693 0.28357947
000090 9d 65 ca 3d 3a 83 9f be 03 74 88 be 35 52 23 bd
       0.098826624 -0.31154805 -0.2665101 -0.03987332
0000a0 53 27 84 be b2 6b a9 be 80 c0 81 3e c1 b4 27 3e
       -0.25811252 -0.33089978 0.25342178 0.16377546
0000b0 2f 88 19 3f 8f 56 81 3e 90 c9 99 3d 4b 58 c9 bb
       0.59973425 0.2526135 0.07509148 -0.0061445585
0000c0 62 35 34 be 9a f2 29 3e 45 31 83 3e dd 51 f9 bd
       -0.17598489 0.16596451 0.25623527 -0.12173817
0000d0 3b a9 80 be 43 93 3c 3e 3c b9 77 3e cd 6a be bd
       -0.25129113 0.18415551 0.24191755 -0.092977144
0000e0 ff 15 21 3e 55 25 71 be 48 48 47 be 93 e3 62 be
       0.15731047 -0.23549397 -0.19461167 -0.22157125
0000f0 a7 7d a6 3b a9 ce eb be ef a8 9d bc 2c f8 c5 3d
       0.005080897 -0.46056107 -0.019245593 0.09666476
000100 2a d4 5d 3e ab d7 2d be 69 12 a0 3d 87 17 0e be
       0.21662965 -0.16976802 0.078160115 -0.13876162
000110 01 6f 2f 3e d2 52 9f be 44 62 d7 3d 01 4f ad be
       0.17132188 -0.31117874 0.105167896 -0.33849338
000120 3e 0a 96 3e 82 18 c4 3e fc 54 65 3d b9 0b 5d be
       0.2930469 0.38299948 0.05598925 -0.21586503
000130 03 78 1f be 0b c4 98 3e 22 f3 0b 3e 80 e1 7d 3e
       -0.15573125 0.2983707 0.13666967 0.24793053
000140 02 c0 02 3e 09 e1 ab 3d f4 b6 e0 be 9b 31 61 3e
       0.12768558 0.083925314 -0.43889582 0.21991579
000150 70 51 c5 3d 82 8b b2 be f7 b4 0b 3e b6 1e 5b be
       0.096346736 -0.3487206 0.13643251 -0.21398434
000160 6c 65 95 3e 72 60 6d be 62 b7 61 be fe f1 85 bd
       0.2917894 -0.23181322 -0.22042611 -0.06540297
000170 ed a6 99 bc 8a 62 6d be 73 20 3b bd ca 96 a6 3e
       -0.018756354 -0.23182121 -0.045685243 0.32536918
000180 25 1e 65 be de ee 76 be ee fe 6c be f8 46 61 be
       -0.2237478 -0.24114558 -0.23144123 -0.21999729
000190 f5 cd 44 3d 60 9b ea 3d d9 34 2f 3e 26 31 88 be
       0.04804798 0.11455417 0.17110004 -0.26599997
0001a0 18 3c da 3e b1 ba e0 3b ea d7 e7 3c 23 89 3c 3d
       0.42623973 0.006858193 0.028301198 0.04602922
0001b0 42 14 95 be 0e a9 dc 3d 8a 3f e2 ba 1c f8 ea bd
       -0.29117018 0.10774432 -0.0017261368 -0.11473104
0001c0 c7 a9 5a 3e ea 1f e5 3d 20 23 13 3e 38 25 fd 3d
       0.21353827 0.11187728 0.14368868 0.123606145
0001d0 a8 8c 40 be 07 fc f1 3c 55 be f6 3d 04 74 57 be
       -0.18803656 0.029539121 0.12048022 -0.2104035
0001e0 53 ff 3c 3f ab 83 d5 bd e9 18 7f 3e 90 18 3f 3d
       0.73827094 -0.10425504 0.24911846 0.046654284
0001f0 9f 4a 82 3e d5 18 44 bd c0 b9 af bf 72 94 57 3d
       0.25447556 -0.047875244 -1.3728561 0.052631803
000200 78 6f e3 bc f6 5b 80 3e c9 84 1b bf ad 02 ba 3d
       -0.027763113 0.2507016 -0.6074949 0.090825416
000210 59 88 8e bd c1 91 46 3f 72 91 52 3e af 5e 10 3c
       -0.069596 0.7756615 0.20563295 0.008811637
000220 4e ee 9b 3e 9c 2f d9 be 49 3b 84 bd 5d 87 20 3d
       0.3045525 -0.42419136 -0.0645662 0.039191592
000230 1c af 0e bf 5c 5c 52 3e 1a fc 82 bd 21 e1 b3 bb
       -0.55735946 0.20543045 -0.06395741 -0.005489484
000240 d9 1f 32 be 68 8e 30 be e9 75 ba 3d af 6f 93 3e
       -0.17394961 -0.17241824 0.09104521 0.28796145
000250 30 7c 5e 3d 3c f6 d7 bc 91 36 61 3e 02 e8 a5 3e
       0.054317653 -0.02636253 0.21993472 0.3240357
000260 31 90 52 be fb 7e be 3e 34 58 13 3e 9e 5c 2d 3e
       -0.20562817 0.37206253 0.14389116 0.16929862
000270 22 b2 74 be 34 91 15 3e 3a ea ab bd 1d bc 94 bd
       -0.23896077 0.14606172 -0.083942845 -0.07262442
000280 58 d9 02 be f5 aa 3f 3e 34 eb 22 be ad a0 2c 3d
       -0.12778223 0.18717559 -0.15910035 0.04214542
000290 83 d1 c2 3e 23 6a 32 be e9 06 71 3e 5f 67 86 be
       0.3805047 -0.174233 0.23537792 -0.2625074
0002a0 ee 91 6a be 47 e1 b0 bd aa af 9a 3e 65 74 31 3e
       -0.2290723 -0.08636718 0.30212146 0.17329557
0002b0 36 30 89 3d f8 a8 00 bc 11 44 0a 3e 1f 5c 8a 3d
       0.06698649 -0.007852785 0.13502528 0.06755852
0002c0 da 41 e2 3d d6 45 97 bc a8 a4 6f 3d ed ce b7 be
       0.110477164 -0.018465918 0.058506638 -0.3590006
0002d0 bb 4c ec bd 1e 80 18 3d 6e c3 d1 3d 8e 68 ba 3b
       -0.11538073 0.037231557 0.102423534 0.0056887334
0002e0 8c b7 0c 3e 38 34 a6 bd fd e7 dd 3e 5a 8f 9c 3e
       0.13741893 -0.08115429 0.43341056 0.3057812
0002f0 22 71 a4 bd 61 b6 46 3c 13 47 fd 3c df 6d 76 3e
       -0.08029391 0.012128443 0.03091768 0.2406535
000300 0b 87 47 bd e4 bc bf 3d 3e c8 4e 3e 36 54 5b 3e
       -0.04871277 0.093622 0.20193574 0.21418843
000310 38 b0 34 3c 85 d4 74 be 6c b9 c7 be 99 a2 50 3e
       0.011028342 -0.23909195 -0.39008653 0.20374526
000320 59 f9 8b bd 3f 82 fc 3d d3 dc c8 bc 03 34 2d bd
       -0.06834669 0.1232953 -0.02451936 -0.04228593
000330 20 53 74 3e 15 58 13 bd d1 a6 89 be d7 8b e1 3d
       0.23859835 -0.035972673 -0.26885083 0.110130005
000340 10 f9 64 be 65 d2 49 3e 86 13 a7 be ea cb ab 3e
       -0.22360635 0.19709165 -0.32632083 0.33554012
000350 68 e8 51 3e dd 80 df bd 1b de b7 b9 a6 5f 31 bd
       0.20498812 -0.109132506 -0.0003506996 -0.043304108
000360 ff 11 f5 bd 32 6e 6a 3d 79 ca 2d 3e 76 49 ed 3d
       -0.11966323 0.057233997 0.16971768 0.11586277
000370 f2 83 4f 3c 98 2d 94 be b0 a9 71 3d 77 b7 4e 3b
       0.012665736 -0.28941035 0.058999717 0.003154246
000380 2f 81 a9 3d 6a 0c 38 be 1f 14 e0 bc 1c 68 33 3e
       0.08276593 -0.17973486 -0.027353344 0.17520183
000390 51 2c ec 3e 29 1c 30 3d 4a d1 0f bf c8 f8 35 be
       0.4612756 0.042995606 -0.56178725 -0.17770684
0003a0 51 d5 1a bd 49 35 78 3d f7 00 14 3e 31 ac c1 bd
       -0.03780109 0.06059769 0.14453493 -0.09456671
0003b0 98 54 c9 bb 51 84 c9 be 36 d9 47 be 0c f4 67 bd
       -0.0061441176 -0.39358762 -0.19516453 -0.056629226
0003c0 c4 a7 d2 be e1 d9 c6 bd 37 a3 b1 bd 07 63 a1 3e
       -0.4114362 -0.09709526 -0.08673709 0.31520864
0003d0 b0 77 89 bd 41 f9 3b 3e bf 35 5b bc 13 e2 a3 be
       -0.06712282 0.18356802 -0.013379513 -0.32008418
0003e0 ec c9 e7 be 27 99 b6 3e 5b ba c0 3c 4e ef 34 3e
       -0.45271242 0.3566372 0.023526361 0.17669412
0003f0 59 92 2b bd 32 45 d5 3e 8f f0 e5 3d 39 db a0 be
       -0.041887615 0.41654354 0.112275235 -0.31417254

output.bias f4 [11]
000000 d4 1b c9 3d cf eb 5a 3e 2e 0d 99 bd 12 d5 b2 3d
       0.09819761 0.21379016 -0.07473217 0.08732046
000010 bb 55 c3 bd 4c ce fd 3a 8d d8 50 3d 3e 0e 1f bf
       -0.09537836 0.001936385 0.05098777 -0.62131107
000020 e6 a3 e6 3d 74 5a d4 3f 02 97 27 bf
       0.1126173 1.6590104 -0.65464795
