models/model_blstm1.pth (torch, 21795 bytes, 10 tensors)

blstm.weight_ih_l0 f4 [48, 35]
3.5406122 17.519611 2.8971508 2.2016208 -2.211803 7.007862 3.9323022 0.86217225
-3.3066058 -2.1924362 -6.983088 -5.633757 10.410707 -3.5844812 2.706387 1.6348122
-1.8520591 -1.8516527 -14.421036 0.024730619 2.446587 -1.465647 -3.1923783 3.1323578
-4.7487965 -0.7479364 -5.3914547 1.026243 4.67948 1.0914052 17.345758 6.0717993
5.5247087 -1.1509051 6.1597395 22.012611 2.483259 -0.16948579 18.397408 1.7585552
3.4763758 22.603413 -16.96863 -5.151819 3.8983703 -1.458665 -12.918446 6.058405
7.5913715 18.730043 17.740826 1.5249792 2.0472035 -22.576937 4.7117896 4.8724303
-8.279558 -3.7600534 3.3148336 -6.4206023 -6.692878 -19.56864 1.4656392 8.333699
0.27609622 16.836185 16.910868 19.125145 9.923484 11.150918 1.8989756 -5.240529
-5.030822 0.7841186 -23.229874 14.499446 1.440622 35.65114 33.022125 -6.4595037
-0.75652283 -0.1625294 43.896152 4.820156 -1.4159825 4.01665 5.201628 -50.266735
-5.396633 -2.748297 -11.277156 3.351732 -13.585348 11.7385435 32.49191 23.835785
51.446136 -3.884575 -9.85172 4.825572 1.6711086 -2.5065894 -7.473718 30.936039
10.400035 2.1737535 -10.144019 16.491495 -6.0466146 16.994339 43.36073 2.0321743
20.31011 28.031057 2.2109156 -5.5347247 0.13045618 7.0277095 -4.714216 2.2876797
-17.47879 14.328136 18.696775 -3.4132226 -1.1755353 17.829067 9.291765 1.2793049
-4.504743 -10.663075 -5.1532054 -6.3090243 -0.83638954 0.51308405 -1.9849303 -4.735878
-4.4355955 -2.094655 -15.676358 -7.4978914 1.3769127 -3.6272962 2.6829371 -32.58238
-23.297102 5.6021233 1.1516781 -13.533338 -31.134426 2.4800935 4.892119 -11.958226
8.778865 2.5535696 -40.815796 3.9624872 -18.641344 -23.546833 -3.1557581 -1.3877358
-4.7617254 -45.581158 -41.53906 -52.302444 -40.63007 -38.851967 -34.193527 -3.8149903
-12.941157 2.8967693 -0.21003458 -7.516158 -4.070888 -20.135382 -35.54502 5.784564
17.429258 16.651505 -12.08098 -2.396502 22.035881 6.175077 -4.509558 -5.7677307
19.000458 18.363655 -12.004254 9.995892 14.738864 3.8377862 -34.63418 -2.013058
-5.4918942 8.658653 -5.2851534 -5.396421 -34.922283 -21.322102 -21.429745 -13.233099
-18.726393 -15.204887 -23.20649 -7.350971 2.836566 -4.121173 -5.924519 -8.790171
7.043988 -2.9313226 -1.0475129 -6.746878 -0.007856163 0.37107378 -0.24374598 16.304937
-0.69078887 -2.9131625 -5.096839 17.318878 24.747759 -14.925579 -12.09078 14.047853
13.584997 -19.071177 -5.2736516 7.4883094 -11.844384 1.7206011 3.4544456 -24.400509
-19.908485 -12.173876 -10.036073 -21.574057 -28.37806 10.91714 21.686605 6.653987
1.778683 19.822796 22.455847 3.7504501 1.4831922 1.2124369 19.896973 26.251999
8.365004 3.852123 23.978897 0.95100313 0.53526276 -4.194034 -2.5040717 -1.6584852
00000000: 6499 6240 2a28 8c41 eb6a 3940 5be7 0c40
00000010: 2e8e 0dc0 6840 e040 d7aa 7b40 52b7 5c3f
00000020: 6e9f 53c0 e050 0cc0 7575 dfc0 bd47 b4c0
00000030: 4292 2641 2468 65c0 7235 2d40 8741 d13f
00000040: 4610 edbf f502 edbf 90bc 66c1 de97 ca3c
00000050: e294 1c40 529a bbbf ed4f 4cc0 8d78 4840
00000060: 24f6 97c0 c378 3fbf cc86 acc0 ee5b 833f
00000070: 4dbe 9540 2ab3 8b3f 1dc4 8a41 2e4c c240
00000080: 6aca b040 dc50 93bf 961c c540 d419 b041
00000090: b7ed 1e40 af8d 2dbe e42d 9341 5618 e13f
000000a0: f17c 5e40 cad3 b441 c1bf 87c1 b4db a4c0
000000b0: e67e 7940 89b5 babf f4b1 4ec1 74de c140
000000c0: 84ec f240 21d7 9541 36ed 8d41 8532 c33f
000000d0: 6205 0340 919d b4c1 fbc6 9640 f3ea 9b40
000000e0: 1279 04c1 b7a4 70c0 3c26 5440 9375 cdc0
000000f0: 0e2c d6c0 938c 9cc1 119a bb3f d556 0541
00000100: 7c5c 8d3e 82b0 8641 7549 8741 4c00 9941
00000110: 97c6 1e41 296a 3241 a211 f33f 6ab2 a7c0
00000120: 7efc a0c0 ffbb 483f c8d6 b9c1 bbfd 6741
00000130: 4d66 b83f c49a 0e42 a816 0442 41b4 cec0
00000140: 7bab 41bf 1b6e 26be a995 2f42 b83e 9a40
00000150: ea3e b5bf 6688 8040 bd73 a640 2311 49c2
00000160: 38b1 acc0 19e4 2fc0 3b6f 34c1 c782 5640
00000170: 965d 59c1 13d1 3b41 b7f7 0142 b0af be41
00000180: d8c8 4d42 e09c 78c0 a5a0 1dc1 166b 9a40
00000190: e3e6 d53f f66b 20c0 b328 efc0 027d f741
000001a0: 8b66 2641 c71e 0b40 e74d 22c1 95ee 8341
000001b0: de7d c1c0 68f4 8741 6371 2d42 250f 0240
000001c0: 1b7b a241 9b3f e041 a47f 0d40 771c b1c0
000001d0: 4e96 053e ffe2 e040 dcda 96c0 5869 1240
000001e0: 90d4 8bc1 0c40 6541 ff92 9541 3d72 5ac0
000001f0: f177 96bf eea1 8e41 12ab 1441 43c0 a33f
00000200: db26 90c0 f59b 2ac1 0fe7 a4c0 87e3 c9c0
00000210: a01d 56bf 7a59 033f 3212 febf 508c 97c0
00000220: 66f0 8dc0 d40e 06c0 5dd2 7ac1 baee efc0
00000230: ad3e b03f 9f25 68c0 3eb5 2b40 5b54 02c2
00000240: 7760 bac1 9844 b340 306a 933f 8d88 58c1
00000250: 4e13 f9c1 dab9 1e40 3d8c 9c40 e554 3fc1
00000260: 3b76 0c41 af6d 2340 6043 23c2 6499 7d40
00000270: 7921 95c1 ea5f bcc1 f1f7 49c0 54a1 b1bf
00000280: 0e60 98c0 1b53 36c2 ff27 26c2 b435 51c2
00000290: 3185 22c2 6a68 1bc2 2cc6 08c2 cd28 74c0
000002a0: fb0e 4fc1 ab64 3940 4e13 57be 5e84 f0c0
000002b0: b744 82c0 4315 a1c1 1a2e 0ec2 261b b940
000002c0: 1f6f 8b41 4836 8541 b24b 41c1 4a60 19c0
000002d0: 7c49 b041 3b9a c540 4d4e 90c0 4091 b8c0
000002e0: f000 9841 c4e8 9241 6d11 40c1 2cef 1f41
000002f0: 63d2 6b41 4a9e 7540 6689 0ac2 f1d5 00c0
00000300: 99bd afc0 d889 0a41 fa1f a9c0 7baf acc0
00000310: 6bb0 0bc2 aa93 aac1 1e70 abc1 c6ba 53c1
00000320: a7cf 95c1 3847 73c1 e4a6 b9c1 283b ebc0
00000330: 4c8a 3540 a6e0 83c0 a995 bdc0 8aa4 0cc1
00000340: 5a68 e140 ca9a 3bc0 e714 86bf 6de6 d7c0
00000350: 23b7 00bc 62fd bd3e 8c98 79be 8370 8241
00000360: 8ad7 30bf 4171 3ac0 4e19 a3c0 108d 8a41
00000370: 69fb c541 2ccf 6ec1 d673 41c1 02c4 6041
00000380: 265c 5941 c591 98c1 c1c1 a8c0 3ba0 ef40
00000390: 9982 3dc1 a83c dc3f a315 5d40 3e34 c3c1
000003a0: 9444 9fc1 32c8 42c1 c193 20c1 ab97 acc1
000003b0: 4406 e3c1 9bac 2e41 2b7e ad41 76ed d440
000003c0: e2ab e33f 1695 9e41 93a5 b341 6007 7040
000003d0: 3ed9 bd3f 2231 9b3f 002d 9f41 1804 d241
000003e0: 0ed7 0541 2f89 7640 c8d4 bf41 f174 733f
000003f0: fb06 093f 8735 86c0 b642 20c0 3e49 d4bf

blstm.weight_hh_l0 f4 [48, 12]
0.035980437 -0.059474736 0.050202593 0.09710015 -0.045103315 0.07638733 -0.0078116707 0.06361534
0.017883515 0.036594227 -0.003957147 -0.039319485 -0.11166394 -1.0946647 -0.049831625 0.060798626
-0.04829868 0.38058636 -0.038389485 0.024321143 -0.08512462 0.19008718 -0.21390408 0.13455324
-0.026357068 -0.009984172 -0.061500303 -0.020004697 -0.02419443 0.022533001 -0.010662633 -0.02004757
-0.034204457 -0.030791612 0.0098324055 0.00025251534 -0.011190653 0.037372135 0.02234345 0.027447257
0.0363128 -0.0013085486 -0.033217732 0.009688559 -0.053981338 -0.072722375 0.05400876 -0.00088261475
-0.013131516 0.036874525 -0.014469605 0.022269448 0.043017507 0.0028291764 0.04484919 -0.013501136
-0.0189213 -0.0016616462 0.07158629 -0.00601754 0.019817892 0.01890603 0.081597015 -0.041616473
-0.010475106 0.049671922 0.072049774 0.056886192 -0.04458198 0.07696819 0.060181454 -0.0645008
-0.048328374 0.031957783 0.028855637 -0.025272276 0.0023767988 0.06515365 -0.049113248 0.0072278245
0.089286126 0.053942163 -0.013435961 0.019615365 -0.06921754 0.06302741 0.0670814 -0.043962076
-0.008380889 0.0011370785 -0.06906817 -0.031614967 -0.07913948 0.024768567 0.04113383 0.043782443
0.0027190489 -0.049217086 0.040917497 -0.1400715 0.09764931 0.04522706 -0.050916206 0.007712382
-0.044780586 0.019253686 -0.059044607 -0.008183318 -0.0038026643 -0.0623351 0.05801909 0.04773737
-0.012856902 -0.042613007 0.0675927 0.06531779 -0.019344147 0.030365247 0.0017709711 0.01740149
0.0114806825 0.0009560843 -0.0059547517 0.032058578 0.00903939 0.00079307734 -0.011954347 -0.03395693
-0.03745328 -0.012110904 -0.03039742 0.03229948 0.008447532 0.022049151 0.0036134662 0.0008902165
0.07250184 0.00018412095 -0.000558735 -0.055185456 -0.05032049 0.021932233 0.033895936 -0.01742422
-1.2589089 0.0569696 0.29790232 0.03529544 0.3031637 -0.047400374 0.066816285 -0.057695877
-0.01636145 0.19909565 -0.34711912 -0.03977398 0.086512044 -1.5578253 -0.1447338 -0.008925999
-0.13170242 0.04144186 -0.15028216 0.024850477 -0.11484008 0.092420965 -0.2188516 0.13217114
-0.2903522 -0.07698553 -0.93814915 -0.24482241 0.02191364 -0.09025424 -0.13176464 -0.12329244
-0.18584411 0.15584993 -0.0546097 -0.17730115 0.14470144 -0.1411889 0.27373642 -1.4416683
-0.017359225 -0.16691466 0.16359118 0.2783537 -0.118462324 0.04985933 0.046767943 0.21025832
0.36974224 0.05087306 -0.016213328 -0.16568176 1.016589 0.29407394 -0.10628283 0.31446198
0.012237923 0.2198731 -0.35092655 -0.024934871 0.4745425 0.36033115 0.18964493 -0.28399494
-0.2639538 1.2585189 0.024862563 0.04246636 0.19809853 -0.49307063 0.08142124 -0.0457682
0.28259578 0.19007431 0.0690626 0.40256274 0.01207112 -0.43190792 -0.68908966 -0.30728805
-0.48007205 0.32837433 0.08387623 0.28832713 0.12896757 0.3303651 -0.11514039 -0.31532007
0.01577614 0.091276884 -0.26481867 -1.2466464 -0.4235521 -0.16457881 -0.33511713 0.14101811
0.20166467 -0.56797534 0.71246123 -0.23997499 0.30780545 -0.24808972 -0.18906614 -0.15487012
-0.8819834 0.034661964 0.46691057 0.23391458 -0.07921053 0.026944926 0.020609826 0.19420075
00000000: 3960 133d c89b 73bd 3ca1 4d3d 72dc c63d
00000010: 41be 38bd f670 9c3d 0bf9 ffbb c248 823d
00000020: 7380 923c d4e3 153d f4aa 81bb 780d 21bd
00000030: 10b0 e4bd f91d 8cbf 3f1c 4cbd fb07 793d
00000040: d6d4 45bd 37dc c23e 4b3e 1dbd 223d c73c
00000050: d155 aebd 37a6 423e ac09 5bbe 53c8 093e
00000060: c7ea d7bc a794 23bc bee7 7bbd e4e0 a3bc
00000070: 6633 c6bc 2197 b83c 53b2 2ebc cd3a a4bc
00000080: f919 0cbd b13e fcbc 1918 213c 0964 8439
00000090: 0059 37bc 8613 193d 9c09 b73c 12d9 e03c
000000a0: bbbc 143d 9b83 abba 510f 08bd c3bc 1e3c
000000b0: 891b 5dbd 78ef 94bd 4a38 5d3d 465f 67ba
000000c0: 9225 57bc be09 173d ec11 6dbc 6b6e b63c
000000d0: 2033 303d b469 393b c9b3 373d de33 5dbc
000000e0: d800 9bbc 98cb d9ba d59b 923d c92e c5bb
000000f0: 2259 a23c d2e0 9a3c 561c a73d 0976 2abd
00000100: c79f 2bbc c974 4b3d d58e 933d 7f01 693d
00000110: 989b 36bd 80a1 9d3d d480 763d ff18 84bd
00000120: f9f3 45bd 2ae6 023d a862 ec3c ce07 cfbc
00000130: 11c4 1b3b 476f 853d f92a 49bd 63d7 ec3b
00000140: a5db b63d 75f2 5c3d 8122 5cbc 67b0 a03c
00000150: edc1 8dbd 8414 813d f961 893d 9411 34bd
00000160: ff4f 09bc 060a 953a 9d73 8dbd b27e 01bd
00000170: e113 a2bd 73e7 ca3c f27b 283d 3855 333d
00000180: 1232 323b db97 49bd 1b99 273d e76e 0fbe
00000190: 5dfc c73d 0240 393d 838d 50bd 26b8 fc3b
000001a0: d96b 37bd e8b9 9d3c c2d8 71bd 5313 06bc
000001b0: 1f36 79bb 1753 7fbd 6da5 6d3d 4388 433d
000001c0: c1a5 52bc fa8a 2ebd 0b6e 8a3d 55c5 853d
000001d0: 9e77 9ebc 8ac0 f83c ee1f e83a 928d 8e3c
000001e0: 7919 3c3c bba1 7a3a 1420 c3bb db4f 033d
000001f0: f319 143c 85e6 4f3a 2adc 43bc 6c16 0bbd
00000200: 9c68 19bd d06c 46bc 0304 f9bc 764c 043d
00000210: 8467 0a3c 6ca0 b43c e7cf 6c3b 6b5d 693a
00000220: d87b 943d 9710 4139 1278 12ba 250a 62bd
00000230: dc1c 4ebd 3aab b33c 77d6 0a3d 3dbd 8ebc
00000240: ed23 a1bf f558 693d a786 983e f491 103d
00000250: 4638 9b3e e526 42bd fad6 883d 8352 6cbd
00000260: 7308 86bc bbdf 4b3e 99b9 b1be 0aea 22bd
00000270: 3a2d b13d d266 c7bf 1935 14be 5a3e 12bc
00000280: 00dd 06be f1be 293d 91e3 19be 3a93 cb3c
00000290: 4731 ebbd 3447 bd3d a21a 60be df57 073e
000002a0: 0ba9 94be 97aa 9dbd 8b2a 70bf bab2 7abe
000002b0: 3c84 b33c 37d7 b8bd 4fed 06be bf80 fcbd
000002c0: eb4d 3ebe 2097 1f3e 6cae 5fbd 6f8e 35be
000002d0: 9d2c 143e d393 10be 2e27 8c3e 9688 b8bf
000002e0: ef34 8ebc adeb 2abe 7284 273e 6084 8e3e
000002f0: 609c f2bd 4c39 4c3d be8f 3f3d f54d 573e
00000300: db4e bd3e 4560 503d d0d1 84bc 7ba8 29be
00000310: 971f 823f dc90 963e d0aa d9bd 2901 a13e
00000320: 9281 483c 6a26 613e a5ac b3be 3744 ccbc
00000330: 3cf7 f23e 537d b83e 4832 423e c967 91be
00000340: f424 87be 2617 a13f 93ac cb3c 35f1 2d3d
00000350: 57da 4a3e c173 fcbe 2ec0 a63d 7077 3bbd
00000360: 65b0 903e d7a2 423e b170 8d3d b41c ce3e
00000370: f2c5 453c 0923 ddbe 2e68 30bf dc54 9dbe
00000380: 01cc f5be ae20 a83e 4dc7 ab3d 9d9f 933e
00000390: 1310 043e 9d25 a93e bace ebbd a271 a1be
000003a0: f73c 813c 60ef ba3d 5096 87be 1c92 9fbf
000003b0: d2db d8be 5987 28be 7994 abbe 0d67 103e
000003c0: 2f81 4e3e d566 11bf dc63 363f 01bc 75be
000003d0: ad98 9d3e 3b0b 7ebe 8e9a 41be 4696 1ebe
000003e0: aac9 61bf b4f9 0d3d e70e ef3e 4e87 6f3e
000003f0: 2139 a2bd 9bbb dc3c f0d5 a83c 90dc 463e

blstm.bias_ih_l0 f4 [48]
-0.9809467 -1.0093458 -3.8619988 3.5820553 0.9001373 -2.0867352 -1.7488017 -3.558588
-0.97212315 -2.0221663 -3.9069035 -3.197576 -1.5369134 -1.9992571 -1.8274913 -2.713754
-1.844166 -3.283036 -1.5669588 -2.6480436 -2.5371003 -1.4875174 -2.0209513 -2.839564
-2.8791661 -3.1475904 -3.4608552 -2.247707 2.0314264 1.6066785 0.41551343 1.2083079
-2.4009528 -0.298479 -0.6688711 -0.52760446 0.71310997 -0.6843034 -3.029729 5.8055286
-3.2666457 -2.6592534 -0.2400648 -1.6140927 -0.42947307 0.92534846 -4.2418113 -2.1929853
00000000: 531f 7bbf 3e32 81bf fd2a 77c0 6540 6540
00000010: 666f 663f 128d 05c0 bcd8 dfbf e8bf 63c0
00000020: 10dd 78bf 2c6b 01c0 b50a 7ac0 16a5 4cc0
00000030: 94b9 c4bf a8e7 ffbf 3ceb e9bf 25ae 2dc0
00000040: a20d ecbf 431d 52c0 1b92 c8bf 8c79 29c0
00000050: da5f 22c0 f866 bebf 4457 01c0 6bbb 35c0
00000060: 4244 38c0 1f72 49c0 a77e 5dc0 6eda 0fc0
00000070: e402 0240 a4a7 cd3f 2dbe d43e d5a9 9a3f
00000080: 36a9 19c0 3dd2 98be 233b 2bbf 1611 07bf
00000090: 608e 363f 822e 2fbf 14e7 41c0 e4c6 b940
000000a0: b910 51c0 3531 2ac0 8cd3 75be 979a cebf
000000b0: e5e3 dbbe a3e3 6c3f ebbc 87c0 df59 0cc0

blstm.bias_hh_l0 f4 [48]
-1.0808214 -1.0701923 -4.105456 4.083379 1.0505459 -2.3373663 -2.0021899 -3.549214
-1.028408 -1.8590757 -3.6278546 -3.0583975 -1.7008244 -2.021502 -1.8894535 -2.6622355
-1.642842 -3.724631 -2.0385392 -2.299759 -2.334374 -1.1732578 -2.4195883 -2.4290845
-3.2143095 -2.812965 -3.3714774 -1.7410724 1.8140461 1.5162078 0.19019076 1.3728496
-2.3037827 0.06624784 -0.69424516 -0.67440236 0.8735257 -0.4121149 -3.3700871 5.5461383
-3.168374 -2.7059238 -0.2431062 -1.578 -0.58108103 1.3217758 -3.7598135 -1.8236758
00000000: 5b58 8abf 10fc 88bf e55f 83c0 0aab 8240
00000010: 4a78 863f 6997 15c0 e123 00c0 5226 63c0
00000020: e0a2 83bf 31f6 edbf c52e 68c0 c9bc 43c0
00000030: 9db4 d9bf 4a60 01c0 9dd9 f1bf 1162 2ac0
00000040: a648 d2bf 5b60 6ec0 6d77 02c0 402f 13c0
00000050: 6266 15c0 502d 96bf 89da 1ac0 1f76 1bc0
00000060: 3fb7 4dc0 9e07 34c0 49c6 57c0 76db debf
00000070: aa32 e83f 1913 c23f 5ec1 423e 89b9 af3f
00000080: 2d71 13c0 f3ac 873d 0dba 31bf a2a5 2cbf
00000090: 619f 5f3f b900 d3be 82af 57c0 f779 b140
000000a0: a4c6 4ac0 db2d 2dc0 d5f0 78be e7fb c9bf
000000b0: bac1 14bf f32f a93f c9a0 70c0 356e e9bf

blstm.weight_ih_l0_reverse f4 [48, 35]
7.9322853 5.4417048 -5.2285213 -21.299524 -8.770547 -0.6467993 8.268706 -1.3795123
6.422292 5.8428063 2.8406684 -19.00045 2.2109282 -0.43038267 -11.7585745 -34.6942
-12.26674 -3.9157984 -1.507145 -0.22572897 -8.233614 -23.853231 -22.250874 -2.9919724
0.3784209 -1.3236582 -7.214201 -0.9674256 -4.882003 1.5593449 -2.1828234 -2.1631365
-0.13205807 -0.9819066 -4.9509187 1.7839797 1.0246365 11.653278 6.9103894 10.196708
24.491833 1.3542526 12.230037 36.78408 20.295395 5.2512937 0.14791891 23.432156
9.7049675 -11.556848 42.76096 3.2431176 19.893509 -6.675176 -1.5905616 -15.565801
14.824254 26.176035 -6.5915112 0.39776492 0.08038483 20.746042 -8.995479 -17.740261
2.0530355 -3.3160274 -13.187972 -12.332686 -15.874439 -25.901434 5.1042223 2.452541
20.487078 0.09908294 -0.07714091 1.2378508 4.6631665 12.406698 -3.351781 2.3800755
2.0214102 1.956764 0.738201 2.5186965 0.24912971 -0.22931091 0.026358265 -0.19106947
1.560817 0.29660785 0.16191524 0.7083988 0.8507155 1.9327617 1.5729359 7.386171
0.09416341 1.8001391 1.6021835 18.249662 12.823089 1.1347215 1.2886785 2.0391474
1.328999 1.0588013 -2.6599805 8.483169 0.8584862 0.5026225 -5.0813622 1.3840178
-0.6159719 1.4584548 2.8926558 -1.6588686 2.359781 -3.1190507 -0.49544293 1.5241086
0.24425627 0.5075307 0.22335981 1.1674805 0.3260046 0.6576588 1.5001489 1.6622933
3.6770544 3.8734717 4.6562223 2.3020725 0.49385417 0.5411565 1.3911501 -0.005154298
0.49404183 0.41320267 3.001141 2.3261974 5.2331486 -5.3857656 16.06363 -0.00076212373
0.10114399 14.6110115 4.8424478 12.202282 10.98457 -3.2965302 9.373585 2.4320586
-5.086922 -1.9714345 -0.2919022 0.8591904 -0.34243447 0.36907652 1.863221 0.9127117
-1.0857418 -1.5437422 -1.6613061 2.2751331 0.48657355 -1.0936852 -6.8740067 -1.7235365
-5.0989413 11.179573 2.547759 -4.4313993 -3.9410238 1.7383614 1.5702778 0.5915173
4.179534 33.753933 -55.932774 -32.18548 -12.427461 0.9831254 1.9929765 -10.193535
10.28331 -0.45634806 -16.728167 4.011516 -2.8401806 -46.294075 -70.06341 -34.334957
-26.550161 -8.442883 -1.8695521 -18.94432 -91.29404 -83.375275 -58.86087 -50.252277
-54.316715 -51.200275 -11.864338 -24.544703 3.545801 2.605559 -7.61883 -14.623803
-12.340074 -17.387999 1.8513005 3.9517052 6.7988567 -18.442377 -16.81534 6.4700727
2.0997834 -4.9108024 31.694134 11.602719 -1.129982 -38.36341 51.0177 2.862785
20.361265 -99.99179 -12.742928 -29.95052 4.7220364 3.2694042 -7.1525793 -19.886791
-20.937698 6.323814 7.4797506 3.1428351 -5.758436 9.453826 14.979468 2.8016882
2.4851959 11.302238 10.062568 31.598541 31.443737 -3.1090713 -7.6569166 4.2194557
14.711377 -14.302548 12.269129 -3.060875 25.103746 2.2860243 3.0822248 10.437017
00000000: 48d5 fd40 7222 ae40 0c50 a7c0 6d65 aac1
00000010: 2954 0cc1 a494 25bf 9f4c 0441 dc93 b0bf
00000020: 6b83 cd40 45f8 ba40 83cd 3540 ec00 98c1
00000030: d97f 0d40 1e5b dcbe 1f23 3cc1 dcc6 0ac2
00000040: 9144 44c1 719c 7ac0 21ea c0bf 7f25 67be
00000050: e2bc 03c1 6bd3 bec1 ca01 b2c1 7a7c 3fc0
00000060: 62c0 c13e a26d a9bf bcda e6c0 34a9 77bf
00000070: 5e39 9cc0 9d98 c73f 61b3 0bc0 d470 0ac0
00000080: 3b3a 07be 3b5e 7bbf ed6d 9ec0 7259 e43f
00000090: 4a27 833f d473 3a41 e921 dd40 b725 2341
000000a0: 46ef c341 2658 ad3f 3bae 4341 e622 1342
000000b0: f85c a241 990a a840 0e78 173e 0e75 bb41
000000c0: 8c47 1b41 d9e8 38c1 390b 2b42 3d8f 4f40
000000d0: e825 9f41 0b9b d5c0 8697 cbbf 850d 79c1
000000e0: 2530 6d41 8568 d141 a9ed d2c0 d8a7 cb3e
000000f0: cda0 a43d e5f7 a541 7bed 0fc1 0eec 8dc1
00000100: ef64 0340 cb39 54c0 ef01 53c1 af52 45c1
00000110: b4fd 7dc1 2336 cfc1 ca55 a340 6ff6 1c40
00000120: 89e5 a341 ffeb ca3d 0efc 9dbd e571 9e3f
00000130: a938 9540 d681 4641 9483 56c0 2853 1840
00000140: c95e 0140 3e77 fa3f befa 3c3f 5332 2140
00000150: dc1b 7f3e 7bd0 6abe 4aed d73c b7a7 43be
00000160: dac8 c73f fcdc 973e 1ccd 253e a059 353f
00000170: 7ec8 593f bc64 f73f f755 c93f 835b ec40
00000180: bfd8 c03d f56a e63f 5914 cd3f 4fff 9141
00000190: 5f2b 4d41 8e3e 913f 6bf3 a43f 6481 0240
000001a0: a41c aa3f cd86 873f 1f3d 2ac0 0fbb 0741
000001b0: c0c5 5b3f deab 003f 859a a2c0 7f27 b13f
000001c0: 56b0 1dbf a6ae ba3f 4621 3940 ce55 d4bf
000001d0: a706 1740 879e 47c0 b2aa fdbe fe15 c33f
000001e0: 511e 7a3e 88ed 013f 6fb8 643e 0070 953f
000001f0: 13ea a63e 545c 283f e104 c03f 07c6 d43f
00000200: dc54 6b40 f6e6 7740 c6ff 9440 2855 1340
00000210: 74da fc3e 3b89 0a3f 3511 b23f 63e5 a8bb
00000220: 0df3 fc3e 4d8f d33e b212 4040 6be0 1440
00000230: f475 a740 3158 acc0 5082 8041 42c9 47ba
00000240: 9524 cf3d b4c6 6941 55f5 9a40 8c3c 4341
00000250: ccc0 2f41 5afa 52c0 34fa 1541 d9a6 1b40
00000260: 11c8 a2c0 f757 fcbf 3574 95be e7f3 5b3f
00000270: 9253 afbe 99f7 bc3e 077e ee3f 79a7 693f
00000280: 96f9 8abf 5899 c5bf aea5 d4bf c89b 1140
00000290: 2b20 f93e e0fd 8bbf ddf7 dbc0 d89c dcbf
000002a0: 872a a3c0 88df 3241 7c0e 2340 06ce 8dc0
000002b0: bc39 7cc0 a082 de3f ddfe c83f ae6d 173f
000002c0: bebe 8540 0704 0742 29bb 5fc2 eebd 00c2
000002d0: e1d6 46c1 1bae 7b3f db19 ff3f b818 23c1
000002e0: 7088 2441 74a6 e9be 49d3 85c1 575e 8040
000002f0: 85c5 35c0 222d 39c2 7720 8cc2 ff56 09c2
00000300: bb66 d4c1 0c16 07c1 7c4d efbf f88d 97c1
00000310: 8c96 b6c2 24c0 a6c2 8871 6bc2 5502 49c2
00000320: 5144 59c2 15cd 4cc2 54d4 3dc1 8d5b c4c1
00000330: 67ee 6240 7bc1 2640 75cd f3c0 19fb 69c1
00000340: f170 45c1 9f1a 8bc1 6af7 ec3f bde8 7c40
00000350: 3c90 d940 fd89 93c1 d185 86c1 d60a cf40
00000360: da62 0640 4b25 9dc0 968d fd41 bda4 3941
00000370: 40a3 90bf 2274 19c2 2012 4c42 df37 3740
00000380: dfe3 a241 ccfb c7c2 08e3 4bc1 aa9a efc1
00000390: ec1a 9740 eb3d 5140 eee1 e4c0 2618 9fc1
000003a0: 6880 a7c1 af5c ca40 1e5a ef40 3624 4940
000003b0: 1c45 b8c0 df42 1741 e7ab 6f41 dc4e 3340
000003c0: 730d 1f40 f8d5 3441 4700 2141 d0c9 fc41
000003d0: c68c fb41 06fb 46c0 7605 f5c0 c805 8740
000003e0: cd61 6b41 3dd7 64c1 5a4e 4441 60e5 43c0
000003f0: 79d4 c841 394e 1240 2c43 4540 06fe 2641

blstm.weight_hh_l0_reverse f4 [48, 12]
-0.06201288 -0.016568027 -0.041234493 -0.0062694782 0.005932618 -0.03015401 0.06157528 -0.07323481
0.014905113 0.054219566 0.029275306 -0.079313226 -0.0055182544 -0.01951426 0.017379917 0.014632036
-0.010113147 0.005614783 -0.0020124756 -0.02841513 0.013819688 -0.04620815 -0.010014988 0.042019006
-0.016035035 0.12816073 -0.093474284 0.010296383 -0.1030186 0.006840226 0.022604816 0.09264217
-0.0029027478 0.13396916 -0.015398904 -0.057634562 0.35454488 0.2921073 -1.2851026 0.08986425
-0.6599763 -0.8768905 -0.44062626 -1.0641656 0.03509235 -0.62679565 -0.35637677 1.1416882
0.020890959 0.15528978 0.13960221 0.052546743 0.076066256 0.0035969773 -0.049223747 -0.13248168
-0.12870996 0.030339258 -0.0715263 -0.009178107 0.039305378 -0.052087627 0.030969318 0.050745286
0.07007845 -0.11032889 0.012329351 -0.013539281 0.018067408 0.0054338486 -0.048995536 0.03653861
0.1045706 -0.034035884 0.10766901 -0.097439244 0.06669748 0.0480381 0.033595074 -0.03843885
-0.08757134 -0.016975466 -0.07600753 0.1500849 0.006214904 -0.055632733 0.076091394 -0.04606714
-0.041154634 0.029142153 -0.040942326 -0.022293987 0.07302071 -0.07538459 0.040261496 0.00910036
-0.012787458 0.028937133 0.03546158 0.019615022 0.040374763 -0.021033477 -0.04122077 0.032837592
0.015599536 -0.0095300805 -0.028119393 0.010292491 -0.0066837594 -0.040560696 -0.021331022 -0.050172925
-0.12589867 0.055871777 0.007849343 0.024803212 -0.03958662 0.14497289 0.09342133 0.020035626
-0.005195756 0.028093295 -0.034753613 -0.05850235 -0.0055000097 -0.041087072 0.091201395 -0.052376658
0.07649751 0.013904131 0.045552686 0.012497051 0.0025545605 -0.010813716 0.018139495 -0.001065763
-0.010179449 -0.0022642086 -0.014133376 -0.018159844 -0.010507276 0.0011931226 -0.019062366 0.053626325
1.1387236 -0.05326016 -0.47107917 0.38100195 -0.07555617 0.32819015 -0.26228148 0.19871023
-0.13753389 -0.10712624 -0.44777438 0.084992535 0.02448665 -0.87143975 0.010114756 0.6795494
-0.40333232 -0.1336233 0.5203855 -0.011633263 0.34344184 0.30022088 -0.29390684 0.21017675
0.2060765 0.46608183 -1.5111985 0.259542 -0.50262773 -0.36690116 -0.753292 -0.3066429
0.007812535 0.38924906 0.12487172 -0.10892083 0.14701551 -0.76447713 -0.1255312 -0.790533
0.3253236 0.24591504 0.39422998 0.13025194 0.1423065 0.013204594 0.091221385 0.9222433
0.25467682 -0.23311138 0.057844453 -0.45301265 0.86853135 -0.07782015 -0.365423 0.32198876
0.08664183 0.47323316 -0.39501092 0.2585968 0.12085995 0.6579899 0.40715802 0.26566714
0.06385328 -1.4146206 -0.4706614 0.79567206 1.5768441 -0.24622892 -0.5266715 -0.5986
0.08199557 -0.085150495 0.53048867 -0.05315972 -0.84740704 0.26019955 -1.0882535 0.36358485
0.413013 0.26854047 -0.28309083 -0.26159987 -0.8208876 0.15618008 -0.11555721 -0.56124306
0.5019238 -0.682798 0.45838773 0.7692389 0.6122271 0.40079582 -0.9469888 0.13141316
-0.13005069 -0.28448194 -0.11371719 0.25543344 -0.052923683 0.07328661 0.13084513 0.1705374
-1.249442 0.4084137 0.09686442 -0.2656545 0.24847834 -0.044859562 -0.35837168 -0.12849161
00000000: 3801 7ebd acb9 87bc 80e5 28bd 3270 cdbb
00000010: 6866 c23b 8b05 f7bc 5c36 7c3d 22fc 95bd
00000020: 9334 743c 5615 5e3d c4d2 ef3c f96e a2bd
00000030: 79d2 b4bb 5fdc 9fbc 5460 8e3c 35bb 6f3c
00000040: 9db1 25bc 37fc b73b bde3 03bb d9c6 e8bc
00000050: f96b 623c c244 3dbd e715 24bc 1f1c 2c3d
00000060: e85b 83bc 913c 033e 726f bfbd 29b2 283c
00000070: 6afb d2bd f923 e03b bc2d b93c 2ebb bd3d
00000080: 073c 3ebb 362f 093e af4b 7cbc 3812 6cbd
00000090: e886 b53e 178f 953e 3e7e a4bf bf0a b83d
000000a0: 35f4 28bf e57b 60bf c499 e1be 9436 88bf
000000b0: ffbc 0f3d ae75 20bf 0477 b6be d722 923f
000000c0: 8423 ab3c 4904 1f3e e2f3 0e3e 413b 573d
000000d0: a0c8 9b3d 44bb 6b3b d79e 49bd 47a9 07be
000000e0: 8bcc 03be 098a f83c 617c 92bd c55f 16bc
000000f0: adfe 203d d659 55bd 5eb3 fd3c 4ada 4f3d
00000100: 4a85 8f3d 1df4 e1bd 0c01 4a3c dcd3 5dbc
00000110: 1a02 943c 6d0e b23b 8baf 48bd 82a9 153d
00000120: 1c29 d63d 3669 0bbd 9281 dc3d 3a8e c7bd
00000130: b098 883d 99c3 443d fd9a 093d 0e72 1dbd
00000140: 9a58 b3bd 2210 8bbc d6a9 9bbd dbaf 193e
00000150: 65a6 cb3b 26df 63bd ced5 9b3d e6b0 3cbd
00000160: c391 28bd 86bb ee3c 24b3 27bd e1a1 b6bc
00000170: e28b 953d 3c63 9abd 3de9 243d ad19 153c
00000180: 7c82 51bc 910d ed3c 2940 113d afaf a03c
00000190: 0260 253d 664e acbc 1cd7 28bd b680 063d
000001a0: 3295 7f3c 0e24 1cbc a45a e6bc d6a1 283c
000001b0: 7003 dbbb f922 26bd 65be aebc 2082 4dbd
000001c0: 95eb 00be ced9 643d 889a 003c 1b30 cb3c
000001d0: 9425 22bd c673 143e af53 bf3d c121 a43c
000001e0: 2941 aabb e923 e63c ce59 0ebd 29a0 6fbd
000001f0: 6d39 b4bb eb4a 28bd ccc7 ba3d e888 56bd
00000200: baaa 9c3d 27ce 633c 7495 3a3d 6ec0 4c3c
00000210: 6a6a 273b 032c 31bc 4799 943c 12b1 8bba
00000220: b4c7 26bc 1e63 14bb ad8f 67bc f4c3 94bc
00000230: b626 2cbc 8d62 9c3a ae28 9cbc 47a7 5b3d
00000240: b2c1 913f 5327 5abd 4a31 f1be b012 c33e
00000250: 31bd 9abd 8a08 a83e c249 86be b27a 4b3e
00000260: afd5 0cbe 0165 dbbd af42 e5be 9110 ae3d
00000270: 3a98 c83c ad16 5fbf 5db8 253c f3f6 2d3f
00000280: 9381 cebe 8cd4 08be fc37 053f 7199 3ebc
00000290: 9cd7 af3e 8db6 993e f57a 96be 9338 573e
000002a0: b805 533e 47a2 ee3e f46e c1bf b0e2 843e
000002b0: 36ac 00bf 78da bbbe bfd7 40bf 4c00 9dbe
000002c0: 2600 003c a74b c73e bfbc ff3d e211 dfbd
000002d0: 3c8b 163e c6b4 43bf 408b 00be 5f60 4abf
000002e0: d190 a63e 27d1 7b3e 83d8 c93e c460 053e
000002f0: ccb8 113e 1558 583c 47d2 ba3d 2318 6c3f
00000300: 0065 823e c0b4 6ebe 4eee 6c3d 46f1 e7be
00000310: 1258 5e3f 2c60 9fbd b918 bbbe b6db a43e
00000320: 4671 b13d 9e4b f23e df3e cabe cd66 843e
00000330: 6c85 f73d 0772 283f 0477 d03e 8605 883e
00000340: 82c5 823d 4a12 b5bf 88fa f0be 2ab1 4b3f
00000350: 07d6 c93f 6f23 7cbe f2d3 06bf d93d 19bf
00000360: 4bed a73d 6263 aebd 1bce 073f 02be 59bd
00000370: abef 58bf e038 853e e44b 8bbf cb27 ba3e
00000380: 7176 d33e 237e 893e 48f1 90be 6bf0 85be
00000390: b125 52bf aced 1f3e 42a9 ecbd a0ad 0fbf
000003a0: 147e 003f dacb 2ebf ccb1 ea3e d7ec 443f
000003b0: eaba 1c3f 1c35 cd3e dc6d 72bf 2c91 063e
000003c0: 022c 05be 9ea7 91be 8fe4 e8bd 2cc8 823e
000003d0: 81c6 58bd 4a17 963d 44fc 053e 5ba1 2e3e
000003e0: b7ed 9fbf 9a1b d13e da60 c63d de03 88be
000003f0: 1b71 7e3e a9be 37bd 7e7c b7be 4e93 03be

blstm.bias_ih_l0_reverse f4 [48]
-2.8432176 0.25721166 5.0686727 4.028994 -2.4187164 -3.2152905 -1.4429972 -4.5177846
-5.3816085 5.6995325 0.048015393 -3.376667 -2.087195 -3.7355134 -3.1545134 -3.5640085
-1.9855452 -2.6884243 -2.1154032 -3.4467707 -1.8179896 -4.254106 -2.2120955 -2.0794756
0.16562644 -1.181321 2.7698011 2.853405 3.036149 -0.6874401 -1.5025111 2.1467564
-1.5276244 1.4450895 -2.6441953 1.9318156 -4.0623226 -4.0569134 5.267092 -2.0838835
0.092151605 -4.4581127 -3.2841656 -2.215864 -3.9387574 1.3568708 1.682979 -2.806777
00000000: 47f7 35c0 3fb1 833e 9132 a240 85ed 8040
00000010: 40cc 1ac0 52c7 4dc0 22b4 b8bf b191 90c0
00000020: 2336 acc0 9262 b640 caab 443d 501b 58c0
00000030: 9a94 05c0 a712 6fc0 8ce3 49c0 b718 64c0
00000040: 5826 febf 250f 2cc0 c462 07c0 e497 5cc0
00000050: e2b3 e8bf a321 88c0 f992 0dc0 2116 05c0
00000060: fa99 293e 8735 97bf 6c44 3140 309e 3640
00000070: 4450 4240 13fc 2fbf 4952 c0bf 7564 0940
00000080: 3289 c3bf b1f8 b83f 7f3a 29c0 bc45 f73f
00000090: 8cfe 81c0 3cd2 81c0 058c a840 595e 05c0
000000a0: fbb9 bc3d dca8 8ec0 c52f 52c0 b7d0 0dc0
000000b0: 9a14 7cc0 f1ad ad3f db6b d73f 3ca2 33c0

blstm.bias_hh_l0_reverse f4 [48]
-3.0751867 0.16189662 5.134351 4.0229087 -2.6385365 -3.4324124 -1.8005503 -4.5617266
-5.254225 5.701689 0.5521565 -3.2577968 -2.4718468 -4.0966363 -3.0443873 -3.3391895
-2.0980754 -3.1308894 -2.0210066 -3.5154006 -2.2238798 -4.232395 -2.5563087 -2.3489637
0.31126264 -1.5159092 3.0832682 2.7210565 3.0319662 -0.61716247 -1.3856528 2.159648
-1.3830432 1.1066958 -2.4543927 1.7048564 -3.822458 -4.173447 4.8513155 -1.733107
-0.14091341 -4.30911 -2.8264496 -2.5809343 -3.8703125 1.267409 1.9281243 -2.8604863
00000000: dccf 44c0 3ac8 253e 9a4c a440 abbb 8040
00000010: c8dd 28c0 a5ac 5bc0 6f78 e6bf aaf9 91c0
00000020: 9c22 a8c0 3c74 b640 215a 0d3f be7f 50c0
00000030: bd32 1ec0 a517 83c0 3ed7 42c0 48b5 55c0
00000040: de46 06c0 7e60 48c0 2c58 01c0 53fc 60c0
00000050: 0c54 0ec0 c86f 87c0 909a 23c0 6c55 16c0
00000060: d15d 9f3e 5009 c2bf 4454 4540 ca25 2e40
00000070: bc0b 4240 5cfe 1dbf 125d b1bf ac37 0a40
00000080: 8f07 b1bf 35a8 8d3f c514 1dc0 bc38 da3f
00000090: 27a3 74c0 e18c 85c0 fa3d 9b40 73d6 ddbf
000000a0: 9b4b 10be 3be4 89c0 8de4 34c0 072e 25c0
000000b0: 33b3 77c0 753a a23f c7cc f63f 3512 37c0

output.weight f4 [11, 24]
-4.1487684 2.8876147 -40.028305 9.996375 16.66076 14.743865 -3.3083804 18.150492
-16.240112 9.065577 5.2052326 4.356327 20.290949 -16.166777 8.753051 -22.992708
24.224981 -17.802147 -13.432002 9.388592 -25.276669 14.691607 -8.382416 3.0333486
-12.5490885 3.7334132 -97.950806 -6.802484 27.616693 1.2367761 -0.68698436 -2.5542521
-11.259555 -7.214848 -24.952454 0.2778841 7.1319036 -15.163221 -5.723305 -3.1279583
17.303581 -25.446632 -19.337929 7.5572367 9.068453 -2.646815 -31.49571 8.773154
3.2492743 5.543628 -38.47591 4.3989115 29.48298 -3.1411834 3.4491794 -2.9511259
-1.5653491 -2.14095 -6.76133 0.5088164 -0.13800558 -0.16194955 7.913745 -7.2303777
-7.313811 -69.895485 -8.075157 4.0490227 -1.5254115 -3.9295177 -8.584305 -1.9883522
-10.316195 -20.021194 -60.89922 -5.3442345 -6.489677 50.479404 -30.597841 -8.437983
6.1655846 1.9553553 -19.800568 -19.103613 15.924324 -2.5320847 -4.3576307 2.926148
17.449978 -7.4646354 0.28664705 13.019159 -27.960651 -1.5885276 0.24360661 11.378025
15.77138 -1.6197044 77.49932 -2.1307464 -10.024115 -13.327458 11.104668 -0.3591059
3.2487147 1.009119 0.42846236 6.8251524 -20.66249 14.288581 -2.7076468 5.4420896
-16.700281 23.475426 16.949617 -13.101266 0.55917156 0.5158342 25.888882 -15.120341
-5.73075 -2.1280727 43.23691 9.669333 -28.750628 -0.4901952 1.7986246 1.3201388
6.950216 4.0285344 5.5760446 -8.106894 -6.820212 4.225185 10.895915 -6.7061253
1.4696515 40.213 -5.6955476 2.039992 -8.093819 0.76898575 7.708877 9.424968
5.952404 27.669374 66.094635 10.814933 -17.086168 10.143779 -25.593285 9.751245
1.9281178 7.2678337 52.628963 14.581784 19.641178 -1.4505681 1.375099 3.2329175
-11.585862 25.072845 8.568281 -9.352457 7.775664 0.7002562 5.8012614 -8.9891205
20.211557 3.0753012 38.768112 11.048122 -17.371788 -15.611598 -6.389755 32.098667
1.6113623 7.9716806 16.11362 -5.6703 -3.753128 2.7414527 -1.3909955 5.882633
-24.705544 -26.25499 6.971456 7.0447464 -5.5244823 2.3067389 3.3217952 -60.73367
22.27989 10.701546 27.241915 14.259882 10.940576 -12.772267 -20.071478 24.018787
6.384574 -10.412077 13.4402075 -13.173419 -7.8386965 -1.3376404 -6.44449 -6.4325275
-18.839499 4.526859 13.473627 -33.869205 -7.240974 1.186137 -0.42083508 46.84119
-8.064787 -36.582092 -57.626537 -2.631212 29.0958 -1.9490151 15.251639 -2.9592645
-15.24515 -10.97096 -25.320337 15.1817255 25.13669 4.1612086 11.281346 1.6012892
12.450058 -0.17090441 -9.64893 5.1451015 3.2746909 -32.0498 -34.155212 1.1898327
-9.863114 -22.960093 -65.22725 -1.6756827 16.75085 -9.6264305 13.1504345 -17.121952
-0.01534905 -12.926132 -15.890645 20.4172 16.288918 7.207483 13.869558 11.8094845
00000000: b6c2 84c0 aece 3840 fc1c 20c2 27f1 1f41
00000010: 3d49 8541 dfe6 6b41 81bc 53c0 3534 9141
00000020: c0eb 81c1 9a0c 1141 4491 a640 0867 8b40
00000030: dd53 a241 8f55 81c1 7f0c 0c41 11f1 b7c1
00000040: c3cc c141 cc6a 8ec1 7be9 56c1 ac37 1641
00000050: 9e36 cac1 d310 6b41 601e 06c1 6222 4240
00000060: 11c9 48c1 3ef0 6e40 d0e6 c3c2 f3ad d9c0
00000070: fdee dc41 ae4e 9e3f 35de 2fbf de78 23c0
00000080: 2327 34c1 09e0 e6c0 a09e c7c1 d346 8e3e
00000090: 8e38 e440 8e9c 72c1 5125 b7c0 7830 48c0
000000a0: bc6d 8a41 b492 cbc1 14b4 9ac1 e2d4 f140
000000b0: 6218 1141 6b65 29c0 37f7 fbc1 d75e 0c41
000000c0: 1cf4 4f40 6765 b140 55e7 19c2 e2c3 8c40
000000d0: 25dd eb41 2609 49c0 5bbf 5c40 3fdf 3cc0
000000e0: 5c5d c8bf 5305 09c0 d15c d8c0 cb41 023f
000000f0: 5651 0dbe 1ad6 25be 663d fd40 415f e7c0
00000100: bd0a eac0 7dca 8bc2 d833 01c1 9891 8140
00000110: af40 c3bf 387d 7bc0 5059 09c1 5382 febf
00000120: 220f 25c1 682b a0c1 cd98 73c2 f803 abc0
00000130: 6fab cfc0 e9ea 4942 61c8 f4c1 fa01 07c1
00000140: 784c c540 1549 fa3f 9067 9ec1 33d4 98c1
00000150: 08ca 7e41 ad0d 22c0 b671 8bc0 0246 3b40
00000160: 8e99 8b41 4bde eec0 67c3 923e 7a4e 5041
00000170: 6aaf dfc1 df54 cbbf 0374 793e 640c 3641
00000180: 9357 7c41 7952 cfbf a7ff 9a42 265e 08c0
00000190: c662 20c1 453d 55c1 b8ac 3141 bbdc b7be
000001a0: f1ea 4f40 d02a 813f 6b5f db3e a667 da40
000001b0: c84c a5c1 079e 6441 164a 2dc0 9925 ae40
000001c0: 2d9a 85c1 accd bb41 d198 8741 c99e 51c1
000001d0: de25 0f3f b60d 043f 6e1c cf41 ebec 71c1
000001e0: 4e62 b7c0 5832 08c0 99f2 2c42 97b5 1a41
000001f0: 4901 e6c1 defa fabe 5539 e63f 4ffa a83f
00000200: 2b68 de40 c1e9 8040 f56e b240 d6b5 01c1
00000210: 2d3f dac0 b734 8740 ab55 2e41 9498 d6c0
00000220: 8a1d bc3f 1dda 2042 ed41 b6c0 3b8f 0240
00000230: 4880 01c1 40dc 443f 1faf f640 abcc 1641
00000240: 187a be40 e15a dd41 7430 8442 f709 2d41
00000250: 79b0 88c1 eb4c 2241 0cbf ccc1 1905 1c41
00000260: 90cc f63f 1892 e840 0f84 5242 fd4e 6941
00000270: 2221 9d41 37ac b9bf 3e03 b03f 1fe8 4e40
00000280: b15f 39c1 3095 c841 ae17 0941 aaa3 15c1
00000290: 3dd2 f840 fe43 333f efa3 b940 70d3 0fc1
000002a0: 45b1 a141 bcd1 4440 8c12 1b42 1cc5 3041
000002b0: 6cf9 8ac1 1bc9 79c1 df78 ccc0 0965 0042
000002c0: 1f41 ce3f 0218 ff40 b2e8 8041 1973 b5c0
000002d0: 4033 70c0 f673 2f40 240c b2bf 883e bc40
000002e0: f4a4 c5c1 380a d2c1 2b16 df40 906e e140
000002f0: 8fc8 b0c0 9ca1 1340 4b98 5440 47ef 72c2
00000300: 373d b241 8839 2b41 71ef d941 7a28 6441
00000310: 990c 2f41 355b 4cc1 6392 a0c1 7a26 c041
00000320: 6e4e cc40 de97 26c1 170b 5741 53c6 52c1
00000330: 9ad6 fac0 cd37 abbf 4339 cec0 44d7 cdc0
00000340: 4bb7 96c1 07dc 9040 fa93 5741 117a 07c2
00000350: 0fb6 e7c0 56d3 973f b277 d7be 615d 3b42
00000360: 5e09 01c1 1054 12c2 9381 66c2 c765 28c0
00000370: 33c4 e841 5479 f9bf b706 7441 9764 3dc0
00000380: 22ec 73c1 0d89 2fc1 0d90 cac1 59e8 7241
00000390: f117 c941 9f28 8540 6580 3441 0bf7 cc3f
000003a0: 7033 4741 9101 2fbe 0462 1ac1 aca4 a440
000003b0: 8994 5140 ff32 00c2 f09e 08c2 704c 983f
000003c0: 51cf 1dc1 45ae b7c1 5a74 82c2 c57c d6bf
000003d0: be01 8641 dc05 1ac1 2e68 5241 c2f9 88c1
000003e0: 957a 7bbc 70d1 4ec1 1540 7ec1 6d56 a341
000003f0: b44f 8241 b3a3 e640 b6e9 5d41 a6f3 3c41

output.bias f4 [11]
4.2589645 1.2603807 2.6682913 0.0068631447 -1.1057785 -1.3298736 -1.7394572 -2.6613643
-3.402488 1.4248443 12.23481
00000000: 7049 8840 2854 a13f 49c5 2a40 3be4 e03b
00000010: 268a 8dbf 4c39 aabf 89a6 debf cb53 2ac0
00000020: 5dc2 59c0 4c61 b63f c8c1 4341
