models/model_rnn1.pth (torch, 27491 bytes, 6 tensors)

rnn.weight_ih_l0 f4 [60, 35]
000000 6f b8 6b c0 06 e1 bb c1 0c 1a ce 3f 55 0c 5f 42
       -3.683132 -23.484875 1.6101699 55.762043
000010 fd 7b b6 42 94 93 c0 40 72 5b 75 c0 d9 2a 0c c1
       91.242165 6.018015 -3.8337064 -8.760461
000020 55 7c ce 40 32 9b bc 3f e9 20 d6 3f 34 1f 97 c1
       6.4526772 1.4734862 1.6728793 -18.890236
000030 75 73 28 40 61 4a e1 bf 9a 67 36 42 51 ae 87 42
       2.632047 -1.7600824 45.601173 67.84046
000040 43 5b 8c 42 0e 37 dd 42 74 80 5e bf cf 61 55 c0
       70.178246 110.60753 -0.86914754 -3.3340948
000050 58 91 91 41 5c 6b c3 42 c5 18 bc 42 99 59 f8 41
       18.195969 97.70969 94.04838 31.043749
000060 89 6a ee 41 10 f7 11 42 2a 98 4f 42 9e 3e 1e 41
       29.80202 36.491272 51.898598 9.890287
000070 03 b5 da 3f ef d0 21 bf f3 4e 8b bf 54 54 52 c0
       1.708649 -0.6320943 -1.0883468 -3.286397
000080 b5 c8 1c 41 d0 d1 26 42 59 0a 25 42 5e 12 89 3f
       9.799001 41.704895 41.260105 1.070873
000090 b1 84 18 c1 fd c0 98 40 4c 9c 9c 42 30 4e 84 42
       -9.532395 4.773558 78.30527 66.15271
0000a0 44 51 e3 bd ac 5e 83 3f 70 26 27 c0 25 20 24 c2
       -0.110994846 1.0263267 -2.611721 -41.03139
0000b0 0a dd 00 3f 9b 4b 06 41 c8 4e 0d c2 e9 47 3d 3e
       0.5033728 8.393458 -35.326935 0.18484463
0000c0 65 e3 8d 3e 8f b4 94 42 5f 14 5c 42 e4 4c 65 42
       0.2771255 74.35265 55.019894 57.32509
0000d0 2d 72 8b 42 8c 99 51 41 15 30 da c0 a2 f1 3f c1
       69.723 13.099987 -6.8183694 -11.996492
0000e0 ab e4 89 42 59 d8 94 42 a6 76 7f 42 02 6a 89 42
       68.94662 74.422554 63.865868 68.70705
0000f0 d7 dd 8c 42 35 04 a2 42 52 a9 65 40 ab 1f ea c0
       70.43328 81.00822 3.5884595 -7.3163657
000100 f3 b1 db 3e 4b 2b 43 c0 6b a9 a8 c1 80 fb 83 c1
       0.42909202 -3.0495174 -21.082724 -16.497803
000110 db 43 9c 42 50 74 93 42 9c de 73 40 79 1a 57 3f
       78.13253 73.72717 3.810462 0.8402477
000120 90 82 21 41 45 bb a4 be 6c 80 21 c2 e1 eb 6d c1
       10.094376 -0.32174125 -40.375412 -14.870088
000130 6c 4e 81 40 eb 4d bc 3e ac 05 3d 3f fc a1 65 c0
       4.040823 0.36778197 0.7383678 -3.5880117
000140 da bc 9e bf d8 c4 d1 c1 97 81 6d 41 5a e4 c4 3f
       -1.2401383 -26.221115 14.844138 1.5382187
000150 43 b6 95 41 98 05 d7 c1 ad 31 bc c1 cf 93 46 c2
       18.713995 -26.877731 -23.524256 -49.644344
000160 6a 7a b2 40 d9 67 76 3e 37 4c 42 c2 f9 0d 7d c2
       5.577443 0.24063052 -48.57443 -63.263645
000170 84 78 32 c2 dd 92 34 41 de 2e b7 41 0a 94 54 41
       -44.61769 11.285855 22.897884 13.286142
000180 0d 69 8c 41 cd 00 71 3f 54 bc aa 40 96 63 64 40
       17.551294 0.94141847 5.3354893 3.5685782
000190 69 6c a8 3f 5b 2e cb 40 88 2f a6 3e 2b f2 a1 42
       1.3158084 6.3494086 0.32458138 80.972984
0001a0 9d f8 94 42 ee 0e 08 bf 5f 00 40 40 d2 c3 24 c1
       74.48557 -0.5314778 3.0000226 -10.297808
0001b0 e4 81 8e c1 62 7f 24 c2 e5 f1 cc 3f 2f ba 43 be
       -17.813423 -41.124397 1.601132 -0.19113992
0001c0 24 87 05 bf 4f 17 71 c1 72 42 12 c0 ee c8 ce be
       -0.52159333 -15.068191 -2.2853055 -0.40387672
0001d0 af 61 f3 c1 88 55 b6 be fe a7 87 3e a6 20 df c0
       -30.422697 -0.3561213 0.26495355 -6.9727354
0001e0 44 11 1c c2 5b 94 09 c2 35 d3 29 c2 8f 72 f2 3d
       -39.01686 -34.39488 -42.456257 0.118382566
0001f0 9d fe 45 be f3 14 39 c2 74 9d 65 c2 6f c9 46 c2
       -0.19335409 -46.27046 -57.403763 -49.696712
000200 b2 84 66 c0 06 38 4c 40 6a e0 5d c0 56 bc 34 c1
       -3.601849 3.1909194 -3.4668221 -11.29598
000210 48 17 8d 40 cc f6 03 40 81 e0 fb 40 27 96 04 40
       4.409092 2.0619383 7.8711553 2.0716646
000220 4d a3 d4 40 43 9a 0f 41 5a 91 bb 41 96 8e a0 41
       6.644934 8.975162 23.445972 20.069622
000230 ab 76 af bc fe 57 a9 3f b2 73 a2 c1 4d 7c 5c 42
       -0.02141889 1.3229978 -20.306492 55.121387
000240 70 71 d8 41 5d 17 68 c0 72 37 d6 be 9d f7 21 c1
       27.05539 -3.626426 -0.41839176 -10.122952
000250 e7 f5 b2 42 44 a7 0b c2 16 c8 14 c2 6b 0d e4 c1
       89.48028 -34.913345 -37.195396 -28.506552
000260 04 fd e6 bf 7d c9 f0 c1 fe a4 2b 42 b2 ae ba 42
       -1.8045964 -30.098383 42.911125 93.3412
000270 c9 a4 30 42 a7 1b 21 41 7e fe 84 bf 02 20 d7 40
       44.160923 10.069251 -1.0390165 6.722657
000280 fe f6 d7 40 69 9b a9 c1 99 4b 9f c1 77 44 62 c1
       6.7489004 -21.200884 -19.911913 -14.141715
000290 e4 0e 7a c1 1c a8 53 c1 8b 5f 98 c1 e2 c0 8d 3f
       -15.628635 -13.228542 -19.046652 1.1074488
0002a0 ea 1b 0e 40 a1 9f 1d c0 ed 2f 17 40 47 b8 25 41
       2.2204537 -2.462868 2.3623002 10.35749
0002b0 a2 31 bc 40 cc 5e 6c 41 6b 16 74 41 9f e6 5a 40
       5.8810587 14.773144 15.255473 3.420326
0002c0 8c a2 e4 40 84 69 54 c0 df 7d 5e c2 00 90 84 c2
       7.144842 -3.3189402 -55.62292 -66.28125
0002d0 97 61 54 c0 b5 ed 69 40 4d 07 7c 40 f6 72 a4 41
       -3.3184564 3.6551335 3.9379456 20.556133
0002e0 f8 fc 39 40 3d a4 89 c1 26 a1 31 42 a5 c7 84 40
       2.906065 -17.205194 44.40737 4.1493707
0002f0 1a 4b be bd 32 8b f2 c1 2a eb ce c2 bd 5f 63 c2
       -0.09291668 -30.317966 -103.459305 -56.843494
000300 a2 39 97 c2 c0 ed 36 40 54 1a f6 40 e6 a3 04 41
       -75.612564 2.858261 7.690714 8.290014
000310 07 6d b0 c2 98 38 ad c2 ee b2 9c c1 e6 f9 9f c1
       -88.212944 -86.610535 -19.587368 -19.99702
000320 a9 b9 ce c1 5d 69 0d c2 27 53 75 c0 99 3a b6 3f
       -25.840654 -35.352894 -3.8332002 1.4236633
000330 9f 0f 30 3f d6 dc b1 3f 75 49 4a 40 12 1b 80 3f
       0.68773836 1.3895519 3.1607335 1.0008261
000340 11 74 7b c1 94 63 4f c1 4f ec cd c0 6c 2e 80 3f
       -15.715837 -12.961811 -6.4350963 1.0014167
000350 8b 45 fb 3f 7d 9f b1 41 f2 ca 95 42 56 43 b4 bf
       1.9630598 22.202875 74.89638 -1.4083049
000360 85 c3 d5 c0 71 f1 f0 be 98 f9 e0 41 da c2 0b 3e
       -6.680117 -0.47059205 28.121872 0.13648549
000370 b2 7f a0 be e0 51 46 42 49 54 b3 bf f8 8f 16 40
       -0.31347424 49.579956 -1.4010097 2.3525372
000380 28 2a 61 3e 81 fd 84 42 f8 99 89 42 eb 91 8b 42
       0.21988738 66.495125 68.80072 69.784996
000390 3f 64 da 40 3c 10 84 41 2c 7a 89 42 29 1f a0 42
       6.824737 16.507927 68.73862 80.06086
0003a0 ba 08 72 42 85 45 ba 40 86 5a fe c0 e4 b6 54 c0
       60.508522 5.8209863 -7.94855 -3.3236628
0003b0 ec 20 63 c0 36 6b d9 3f 1a 56 00 41 42 0a 7d c0
       -3.5488844 1.6985843 8.021021 -3.953751
0003c0 8a 7e bb 40 9f 69 dd 40 bc 5f 10 41 2c af 05 c2
       5.8591967 6.919143 9.023373 -33.421066
0003d0 e3 50 a8 c1 44 2e 98 bf bb 85 3f 40 af 71 e9 c1
       -21.039495 -1.1889119 2.9925373 -29.18051
0003e0 93 62 e2 41 99 27 83 41 98 fe 28 40 8f f9 e2 bf
       28.298132 16.394335 2.6405392 -1.7732409
0003f0 4b 4e 02 3e c4 3a d3 c0 ae 05 1f c2 52 52 68 c2
       0.12725179 -6.6009235 -39.755547 -58.08039

rnn.weight_hh_l0 f4 [60, 60]
000000 fc 7b bb bc 5b d3 de bc a8 27 ea bc d0 ca 52 bd
       -0.022886269 -0.027200392 -0.028583363 -0.05146295
000010 0d 69 96 bd 17 f4 06 bd 3b 40 d2 3c 7e 52 ba bc
       -0.073442556 -0.032947626 0.025665393 -0.022744413
000020 49 06 56 3c 85 42 53 3d 6f 5b f0 3c 30 27 eb bc
       0.013063022 0.05157711 0.029340474 -0.02870521
000030 69 3f 04 bd af 04 ac 3d 2e f6 e6 bb b6 51 f6 3c
       -0.032287035 0.08399331 -0.00704839 0.03006826
000040 c8 b3 ad bb a2 32 06 3d ed 2b d3 bc 36 81 b9 3d
       -0.0053009726 0.03276313 -0.025777781 0.09057848
000050 bb d0 e7 3d ec f6 a5 3c ef 32 9a bd 48 15 34 3c
       0.11319109 0.020259343 -0.07529246 0.010991402
000060 64 64 e6 3c 81 3f 70 3d 85 de 04 bd a8 62 ec 3c
       0.028124042 0.058654312 -0.032438774 0.028855637
000070 63 d7 43 3d de 38 8d bd 62 46 13 bd 61 ea fe 3c
       0.04781283 -0.06895612 -0.035955794 0.03111762
000080 b5 6a 84 3b e0 1f 0a bc d2 50 10 3b e7 94 3f 3d
       0.004041041 -0.008430451 0.002202083 0.046772864
000090 c9 a0 85 bd 2a f3 37 3c 8e 62 4f bc 40 29 6e 3d
       -0.06524808 0.011227408 -0.012657775 0.058144808
0000a0 14 29 8e bc b3 d2 2b 3c 13 77 01 3c b9 17 02 3d
       -0.017353572 0.010487246 0.007901925 0.031760905
0000b0 72 b1 89 bc 0f b4 1e bd 3c 6a a4 3c cd d2 ee 3c
       -0.016808245 -0.038745936 0.020070188 0.029153252
0000c0 9f 58 aa 3b 66 51 75 bd 56 22 a2 3d e8 03 0d 3d
       0.0051985527 -0.05989208 0.07916705 0.034427553
0000d0 1f c3 54 bd e5 d6 13 3d 07 08 be 3c 4a 12 14 3d
       -0.051943894 0.03609361 0.023197187 0.036150254
0000e0 bb 77 fe 3a 5b 66 4c 3d 94 3f e0 bc d4 cb f6 bc
       0.0019414345 0.0499023 -0.027374066 -0.03012649
0000f0 73 d9 2d 3d c1 2a fd bc 5c 41 13 3d 0a 94 f4 3c
       0.042443704 -0.030904176 0.035951003 0.029855747
000100 dd 5e de 3c 56 4d d7 bc 98 91 88 ba 6c 4d 8f 3d
       0.027144844 -0.026281994 -0.0010419367 0.06997189
000110 a3 9e af 3b 9c 4c 84 3d 28 31 05 bd e0 7e 4a 3c
       0.005359487 0.064599246 -0.032517582 0.012359351
000120 04 77 2b 3d 9b 0e 63 3d 94 7c 8b b9 0b 59 75 3b
       0.04186155 0.05543385 -0.00026604964 0.0037437107
000130 74 9b e4 bc 46 b7 54 3b 17 4d 26 bc 4c bc 58 bc
       -0.027906157 0.0032457872 -0.010150216 -0.013228487
000140 73 ce e3 3c 83 d1 06 3d dd 39 43 3d b4 d5 25 3c
       0.027808404 0.03291465 0.047662605 0.010121752
000150 7f 8e c2 3d b5 5b 15 3d 5d 72 a5 3b d8 25 f7 3b
       0.09499835 0.03646441 0.0050490336 0.007542353
000160 08 a6 fd bc d7 b8 fc 3b 3b ad 87 bb bd 45 93 3c
       -0.030962959 0.0077124643 -0.0041405237 0.01797759
000170 88 4e b3 bc 44 ed 84 bd 91 dc ff 3b aa 65 0b bd
       -0.021888033 -0.06490567 0.007808276 -0.0340325
000180 c3 ed f1 3c e5 1e b3 3b 79 cd 0d bc 37 80 fd 3b
       0.029532319 0.0054663294 -0.0086549455 0.0077362317
000190 10 9a e7 bc 98 1b e3 3c ff 87 ef bc b8 b1 f4 bb
       -0.028271705 0.027723119 -0.029239653 -0.007467475
0001a0 40 30 ec bb d6 d2 24 bd e4 de c8 3b 7a ee c2 bc
       -0.0072079003 -0.04024013 0.0061300863 -0.023795355
0001b0 1f 2f 05 bd f4 bd e1 3c 42 56 9b 3b 34 aa 5d 3c
       -0.03251564 0.027556397 0.0047405073 0.013529349
0001c0 0c 45 8d bc 40 ac 84 bb db f3 07 3d f6 28 12 bd
       -0.017244838 -0.004048854 0.033191543 -0.035683595
0001d0 74 93 9b bc f2 65 06 3c 20 5f 6a 3d 2a 17 17 ba
       -0.01899121 0.008203017 0.057219625 -0.00057636446
0001e0 19 7c 09 bb c8 c6 4f 3c bd a2 26 bc 30 1a 37 bc
       -0.002097851 0.0126816705 -0.010170636 -0.011175677
0001f0 bf 73 94 bc a6 97 6e 3b cf 66 78 bc c8 f9 d5 bc
       -0.018121598 0.0036406307 -0.01516123 -0.026120082
000200 f8 c0 3b bc 5e 87 d6 bc 57 7f a6 3c ef 6c 19 bc
       -0.011459582 -0.026187595 0.020324392 -0.009364351
000210 c8 dc a9 3c a8 bf 48 3c e3 14 e8 bc 36 63 d1 3b
       0.02073516 0.012252726 -0.028330272 0.0063900007
000220 dc 42 50 bb fd 71 0d 3d 7b a1 38 bc 49 ac 95 3b
       -0.0031778133 0.034532536 -0.011268969 0.004567657
000230 4a c5 7f bc a2 db 26 3c 5d 73 88 3b b9 04 9f bc
       -0.015611002 0.0101842005 0.004164143 -0.019411432
000240 ea 7a f1 3b a5 8e 8a 3c cd 43 1b 3d 40 64 f6 bc
       0.007369389 0.016913721 0.037906457 -0.0300771
000250 51 c4 54 3c 25 e7 84 bc fc 67 36 3b 8a 28 2c bc
       0.012986259 -0.0162235 0.0027832976 -0.010507712
000260 22 ad b6 bc 5d 8f 81 3c 67 ce 7f 3b ff 95 05 bd
       -0.022299353 0.015815431 0.0039032937 -0.03261375
000270 c1 a0 20 ba 6c fc 52 ba 51 ed 0a 3c a1 4f 88 3c
       -0.000612747 -0.0008048478 0.008479432 0.016639533
000280 a8 3c e3 bc 14 c6 e3 bc a0 a3 67 3b c8 b3 dc bc
       -0.027738884 -0.027804412 0.003534533 -0.026941195
000290 91 78 6d bc 92 99 83 bc 4e c6 a5 bc dc db 97 bb
       -0.014494077 -0.016064439 -0.02023616 -0.0046343636
0002a0 c4 f1 0d 3c 0f 4d 0a bb db ea 99 bc 57 b0 ff bc
       0.008663598 -0.002110306 -0.018788746 -0.031212015
0002b0 18 7d a3 bc d9 0f 1e bd de 5a ba bb 83 97 f5 bc
       -0.01995711 -0.038589332 -0.0056871017 -0.029979473
0002c0 f9 e8 26 bc ad 88 15 bd 6b e1 5f bb eb 5f 65 3c
       -0.010187381 -0.036507297 -0.003416146 0.013999919
0002d0 c1 cd ad 3d 41 e1 85 3d 31 dd c4 3d e2 3a c6 bd
       0.0848651 0.065371044 0.096125014 -0.096792
0002e0 81 e8 10 3e c5 48 19 be d6 64 64 3d 43 42 6e bd
       0.14151193 -0.14969166 0.055760227 -0.05816866
0002f0 8f dd f0 bd e6 60 d2 3d f3 ce 3e 3c 40 de 4c bd
       -0.11761009 0.10272388 0.01164602 -0.05001664
000300 d4 2b 87 3d 6a 84 a7 3d 96 db 54 3d 97 2b 03 be
       0.066001564 0.08179553 0.051967226 -0.12809597
000310 4a ff 98 3d 6d a2 0b 3d ac 4a 86 3d 37 d4 bf bd
       0.074705675 0.03409045 0.06557211 -0.09366649
000320 14 a9 7b 3e 2f 81 56 bc 2d b9 80 3d 0d 17 d5 bd
       0.24576217 -0.013092323 0.062853195 -0.10404787
000330 14 b3 ea 3c 91 9e ff bb 8e de 8c 3d 50 1c c0 3c
       0.028649844 -0.007800885 0.068783864 0.023451
000340 c4 b5 55 bd d5 29 a5 bd f0 ad 69 bc 94 03 28 3d
       -0.0521753 -0.080646195 -0.014262661 0.041019037
000350 1e 03 35 3c 59 c4 53 bd 18 46 8e 3d e1 0a 0c 3e
       0.0110481065 -0.051700924 0.06946963 0.13676025
000360 de b1 14 be 23 f9 08 bc 16 6a 8c bd 96 0a 20 be
       -0.14520976 -0.00836018 -0.06856172 -0.15629038
000370 ac c7 57 bc b1 f6 18 bd 72 26 45 bc 25 df 79 3c
       -0.013170164 -0.03734464 -0.012033092 0.015250956
000380 70 c3 10 3d 80 71 61 bd 8c 9e 73 3c 40 48 4f 3d
       0.035342634 -0.055039883 0.0148693435 0.050606012
000390 35 be 19 bc 76 4c 1f be ce c8 7f 3c 2b 24 9e bc
       -0.009383728 -0.15556511 0.01561184 -0.019304356
0003a0 8d 6d 12 3d ad f4 1b 3e 7b de 1a 3d 54 fa 9e 3d
       0.035749007 0.15230055 0.03780983 0.0776259
0003b0 ba 13 03 3e 4e 50 36 be 90 b9 2f 3d 2e ff 3f 3c
       0.12800494 -0.17804071 0.042901576 0.011718554
0003c0 c6 6e cd 3c b8 75 16 bb 7c dc 3a 3d 6b c7 94 bc
       0.025077235 -0.002295835 0.045620427 -0.018161496
0003d0 4b 3f 35 3c 48 70 98 bc 42 fe 8e bc 59 9d f3 3c
       0.0110624535 -0.018608227 -0.017455224 0.029738115
0003e0 3f 73 1d bd bc 97 43 3c 78 98 00 3d 9d 96 9c 3b
       -0.038439985 0.011938032 0.031395406 0.0047786967
0003f0 b9 e5 10 3b a7 db 9d bc 87 2e 36 3b 89 ff 12 3b
       0.0022109582 -0.019269777 0.0027798729 0.0022430143

rnn.bias_ih_l0 f4 [60]
000000 8d 4d 15 40 10 db 93 bd 9e 7f 98 c0 f5 e4 57 c0
       2.3328583 -0.07219517 -4.7655783 -3.3733494
000010 0b d0 aa 3f f0 14 82 c0 93 5e 0d 40 7c b5 27 40
       1.334474 -4.065056 2.2088974 2.620452
000020 fe 69 5a c0 06 6a 0e c0 4b ea 29 bc 1f e0 70 40
       -3.4127192 -2.2252212 -0.010370801 3.7636793
000030 0b 33 ab bf 50 3d 56 be 19 44 0e c0 00 fc 21 40
       -1.3374952 -0.20921826 -2.2229064 2.5310059
000040 09 cd f8 3f 26 bc 27 40 a9 35 85 c0 57 cb 0a 40
       1.9437572 2.6208587 -4.1628003 2.1686609
000050 21 56 4d c0 a0 d7 9d 3f ae 67 12 c0 e5 98 6d bf
       -3.208382 1.2331429 -2.287578 -0.92811424
000060 5a 1d 52 bf 29 6e 49 c0 c8 cc d6 3e a0 f5 10 40
       -0.82076037 -3.1473486 0.4195311 2.2649918
000070 73 01 22 3f 77 d4 79 40 9a 45 42 40 db 58 36 40
       0.6328346 3.9035928 3.0354981 2.8491733
000080 17 34 7c bf 17 4c 4d 40 a7 03 57 c0 7c bd 57 3f
       -0.9851698 3.2077692 -3.359598 0.84273505
000090 f9 eb fb bf 6a b8 1e 40 ee 7c 1f 40 82 37 1b c0
       -1.9681388 2.4800057 2.492 -2.425263
0000a0 d8 b9 d7 be 00 93 38 c0 b4 cd 08 40 2d 88 b6 3f
       -0.42133975 -2.8839722 2.1375551 1.4260308
0000b0 a8 c9 5e 40 37 42 d2 bf 7c 55 a3 bf 61 8b ff 3f
       3.4810581 -1.6426457 -1.2760463 1.996441
0000c0 a8 c6 fc 3f 55 7b 2c c0 3b 33 bd 3f ca 71 cf bf
       1.9748125 -2.6950276 1.4781259 -1.6206601
0000d0 7b 40 c1 c0 fc 3f e4 3f 57 1f 35 3f 58 49 c4 3f
       -6.039121 1.7832026 0.70750946 1.5334883
0000e0 3a 3a b8 3f d4 e3 5a 3c f6 62 63 40 55 86 f2 3f
       1.4392769 0.0133599825 3.552915 1.8947245

rnn.bias_hh_l0 f4 [60]
000000 26 f9 0f 40 8e fe 82 be fd b9 97 c0 05 80 48 c0
       2.2495818 -0.25584835 -4.7414536 -3.1328137
000010 c0 21 c7 3f 30 b3 7f c0 17 2f 12 40 21 37 2f 40
       1.5557175 -3.9953117 2.2841241 2.7377398
000020 0b ae 5e c0 65 e8 16 c0 12 bd ba 3c f3 3b 6d 40
       -3.4793727 -2.3579342 0.022795234 3.706784
000030 ca 0b c3 bf 4f dd d0 bd da 87 10 c0 c6 f3 24 40
       -1.5237973 -0.10198461 -2.2582917 2.5773787
000040 ed 31 ea 3f c3 67 2c 40 96 35 89 c0 88 a9 11 40
       1.8296486 2.693833 -4.2877913 2.2759724
000050 1c 34 42 c0 da 07 8d 3f 7e 76 0e c0 23 8f 86 bf
       -3.0344305 1.1018021 -2.2259822 -1.0512432
000060 e4 bd 4c bf a1 62 49 c0 99 bd fb 3e 97 01 1a 40
       -0.7997725 -3.1466448 0.4916809 2.406347
000070 c5 e4 f1 3e 1b a3 6f 40 c3 82 41 40 12 33 36 40
       0.4724485 3.7443302 3.023606 2.846867
000080 db 89 6a bf b8 9d 55 40 8e 61 5b c0 e7 27 27 3f
       -0.916166 3.3377514 -3.4278293 0.6529526
000090 0f fb e4 bf 78 f4 21 40 80 8c 18 40 d3 82 23 c0
       -1.7889117 2.5305462 2.3835754 -2.5548599
0000a0 79 70 d9 be f7 7f 36 c0 d9 00 02 40 eb e2 b3 3f
       -0.42468622 -2.8515604 2.0313017 1.4053625
0000b0 61 6b 5c 40 3c 58 bc bf 41 d4 a0 bf b9 75 02 40
       3.444054 -1.4714427 -1.2564775 2.0384352
0000c0 8c 8d 02 40 b1 d4 38 c0 d4 b4 c5 3f 83 0c bd bf
       2.0398893 -2.8879817 1.5445809 -1.4769443
0000d0 11 b8 be c0 4f b0 f7 3f a5 af 69 3f c6 df c9 3f
       -5.959969 1.935068 0.9128364 1.5771415
0000e0 e9 82 98 3f 3c 5f 80 ba 43 c3 69 40 9a 55 ee 3f
       1.1914951 -0.0009794007 3.6525428 1.8619874

output.weight f4 [11, 60]
000000 e5 e2 81 40 66 a3 d7 3f bc 84 dc 3f 7d 7c d4 c0
       4.058947 1.684674 1.7228007 -6.6401963
000010 dc f2 3a c0 d8 53 8c c0 e8 b5 a6 40 44 2c cc bf
       -2.921073 -4.385235 5.2097054 -1.5951009
000020 3e 27 b6 c0 96 68 f3 be d5 da 9d 3f 93 f4 78 40
       -5.6922903 -0.4754073 1.2332407 3.8899276
000030 81 16 a8 c0 15 18 1e c0 d7 4d 4d c0 e4 89 4c 40
       -5.252747 -2.4702199 -3.207876 3.1959162
000040 c3 a9 d4 40 a6 a8 7c 40 eb 3f 8b c0 30 2c 34 3f
       6.645723 3.9477935 -4.3515525 0.70379925
000050 5d 38 0d c0 42 a9 e7 40 97 80 6d 40 47 51 1e c0
       -2.2065651 7.2394114 3.7109735 -2.4737108
000060 3d a0 29 41 98 f3 52 bf 23 43 1e c0 cf 1f 9b 40
       10.601621 -0.82402945 -2.4728477 4.847633
000070 9c f0 f2 be e9 75 31 40 16 33 66 41 4e cc e1 3f
       -0.47449195 2.7728217 14.387472 1.7640474
000080 c4 58 34 bf f7 7a 7a 40 67 24 92 c0 f0 5d ca c0
       -0.70447946 3.9137552 -4.5669436 -6.323967
000090 9d f5 2e c0 59 45 58 41 53 22 c1 40 40 71 a1 c0
       -2.733741 13.516931 6.03544 -5.0450745
0000a0 83 e7 f2 40 3d b5 10 40 16 2f 1c 40 89 cd d5 40
       7.5907607 2.261062 2.440374 6.6813397
0000b0 2d 63 fa 3f 51 b1 73 c0 a1 0b b3 3d c8 02 41 40
       1.9561516 -3.8076975 0.087424524 3.0157948
0000c0 01 ea 8d be d0 79 4e c0 2d 5a ff 40 db 6c 0f c1
       -0.27717593 -3.2261848 7.979758 -8.964076
0000d0 94 14 29 c1 56 68 f0 3e 3b 10 1a 40 ad 15 c5 40
       -10.567524 0.46954602 2.4072406 6.158896
0000e0 a6 4a 81 40 66 b2 00 c0 99 c0 63 40 b8 04 81 40
       4.0403624 -2.0108886 3.5586302 4.031826
0000f0 5a 61 8a bf 69 ad ab c0 14 e4 0e c1 27 57 5b c0
       -1.0810959 -5.364918 -8.930683 -3.4271944
000100 d9 27 d8 40 2b e7 28 40 2c 31 ef 3f d5 4f 0d 41
       6.754864 2.6391094 1.8686881 8.83199
000110 6f ef dd c0 69 a0 9b 3f c8 ad 34 40 a4 1e 0a 41
       -6.9354777 1.2158328 2.8231068 8.632481
000120 71 0f 07 c1 31 03 3e bf bd 26 3a c1 29 90 b0 40
       -8.44127 -0.7422362 -11.634458 5.5175977
000130 d1 e1 58 41 57 85 b4 3f 3a b3 a0 c0 94 68 ae 40
       13.555131 1.4103192 -5.0218782 5.450266
000140 09 c0 fb c0 e6 9a 07 c0 a6 ac f3 3f 75 e5 94 be
       -7.867192 -2.1188293 1.9037063 -0.29081312
000150 a6 30 b0 3f 59 a1 25 c0 3c eb fa c0 34 30 4d 40
       1.3764846 -2.5879729 -7.841215 3.206067
000160 bb cf 13 bf 3b 8a 14 41 1c f2 11 41 3b 9b b2 40
       -0.57738847 9.283748 9.121609 5.581449
000170 22 b6 c8 bf d8 1d 6a c0 26 bf 8a bf 43 b6 36 41
       -1.5680583 -3.6580715 -1.0839584 11.4194975
000180 40 8d 9b c0 88 43 ac c0 af a2 73 40 92 4c 86 3f
       -4.8609924 -5.3832436 3.8068044 1.0492117
000190 06 05 95 40 7d 63 a5 c0 0c f8 5a c0 07 7b c7 3e
       4.656863 -5.1683946 -3.4213896 0.3896105
0001a0 0f b6 aa 40 9e da 6a c1 53 9a bc 40 f4 87 22 c0
       5.334724 -14.678373 5.8938384 -2.539548
0001b0 f5 2c 42 40 59 33 fc c0 ff 8c 4b 3f 48 12 14 bf
       3.033994 -7.881268 0.7951202 -0.57840395
0001c0 15 90 a7 bf b9 da b0 be 88 ed 3a 40 ba 95 b2 3f
       -1.3090845 -0.34541872 2.9207478 1.3951943
0001d0 c5 13 1b 40 78 96 84 bf d2 c4 1c 41 78 fe 83 3f
       2.4230816 -1.035842 9.798052 1.0312033
0001e0 00 3e 3c 40 1c e5 a0 c0 dd c8 a7 3f b0 ce 1d bf
       2.9412842 -5.0279675 1.3108174 -0.61643505
0001f0 4e 2b 13 c0 5a 9b 3e 40 61 34 03 40 09 25 22 bf
       -2.299518 2.978232 2.050072 -0.6333776
000200 8e 8d 57 3f b9 2a 41 40 f0 bc 87 3f 16 57 03 40
       0.8420037 3.0182326 1.0604534 2.0521903
000210 61 84 c7 bf aa 94 77 c0 44 6b 12 c1 14 17 05 40
       -1.5587274 -3.8684487 -9.151188 2.0795336
000220 be 37 b6 40 68 94 a2 bf 98 57 0c 40 47 1f 60 3f
       5.6943045 -1.270154 2.1928463 0.87547725
000230 80 12 30 3f 9a 37 66 40 9d e0 15 bf a1 28 51 c0
       0.6877823 3.5971437 -0.5854586 -3.2681048
000240 e8 59 6a 40 8e 1a 41 3f 57 f6 a3 c0 4a ca ac 40
       3.6617374 0.75431144 -5.123821 5.3996935
000250 6f 5f 81 3e 43 e0 16 3f 9d ec 77 c0 7c c3 86 40
       0.25268123 0.58935946 -3.8738167 4.211363
000260 44 a6 7e c0 20 58 d7 40 c4 04 96 c0 9e ec 97 c1
       -3.978898 6.7295074 -4.6880817 -18.990536
000270 ef be 1e c0 fd 4b 6e c0 1f b9 55 c0 4f b6 13 c0
       -2.4804037 -3.723388 -3.339424 -2.3080022
000280 1a ff 9c 40 76 44 a3 bf 96 d5 fc 3f 17 23 1e bf
       4.9061403 -1.2755268 1.9752681 -0.6177229
000290 63 23 0a bf 07 ce 9c c0 c5 6c 9e 3f d3 42 11 c0
       -0.53960246 -4.90015 1.2376944 -2.2697036
0002a0 9a 9f cc 3d b7 a7 e3 3e 06 ac fd be b2 79 18 3f
       0.09991379 0.44463894 -0.49545306 0.5956069
0002b0 6a b1 11 c0 7d 32 2d 40 d2 70 b2 3d c8 43 d3 3e
       -2.2764535 2.7062066 0.08712925 0.4126265
0002c0 09 b2 32 c0 98 6b c0 bf de fc 30 40 8d 3c 84 c0
       -2.7921164 -1.5032835 2.7654338 -4.1323915
0002d0 5a 87 03 41 d9 12 e1 40 a6 91 b7 3f 5f ce 94 3f
       8.220545 7.0335507 1.4341323 1.162548
0002e0 a4 52 0a 3f 96 dd 9b c0 47 31 26 3f 20 74 1c be
       0.5403235 -4.870799 0.6491894 -0.15278673
0002f0 44 b3 1a c1 c5 03 60 c1 c1 8f 86 c0 b4 21 30 3e
       -9.668766 -14.00092 -4.205048 0.17200357
000300 b0 b4 9b c0 23 9f 79 40 cb 30 b8 40 df 2d e3 be
       -4.8658066 3.900338 5.755956 -0.44370934
000310 94 a9 cb 40 67 c4 70 40 b1 db e9 bf 4a 01 c9 3f
       6.3644505 3.7619874 -1.827017 1.5703518
000320 77 49 01 c0 e8 a2 76 c0 ad 0d 18 40 be 02 07 40
       -2.020109 -3.853693 2.3758347 2.1095424
000330 bc 43 16 41 19 88 a8 c0 13 3e dc 3f d6 a2 2a c0
       9.391537 -5.2666135 1.7206444 -2.6661887
000340 1d 17 16 40 43 92 95 bf 9a 1a 88 40 84 18 39 40
       2.3451607 -1.168526 4.2532473 2.8921213
000350 b0 67 46 c0 3d 0c b7 3e e9 d1 81 c0 17 b5 2b 40
       -3.1000786 0.35751525 -4.056874 2.6829278
000360 09 a9 7e 3f ba 12 02 41 93 02 82 c0 47 13 81 c0
       0.9947668 8.129572 -4.062814 -4.033603
000370 e2 6a e0 be 77 da e5 3f 4c 00 09 41 31 f3 2a c0
       -0.43831545 1.7957295 8.5625725 -2.6710932
000380 a9 38 b5 3e 08 f0 a4 3f a5 52 2e c0 18 2b 3d 41
       0.3539479 1.2885752 -2.7237942 11.823021
000390 4b 9f c2 40 6e 1e 74 c0 7a 2a 22 c0 b3 65 23 40
       6.081945 -3.8143573 -2.5338426 2.5530822
0003a0 29 1b 52 c1 10 36 d8 c0 e0 2e 91 c0 14 c5 e5 3f
       -13.131631 -6.7565994 -4.536972 1.7950768
0003b0 85 5e 05 41 95 38 4f 41 61 0e c1 40 f5 1e d4 3f
       8.335576 12.951314 6.033005 1.6571947
0003c0 95 03 9e c0 ff 67 de bf 20 2a 8d 3f f5 eb 86 40
       -4.9379373 -1.7375487 1.102848 4.2163033
0003d0 a6 64 0e c1 91 7f 3a 40 41 59 28 be 42 8a 76 c0
       -8.899572 2.914036 -0.16440298 -3.8521886
0003e0 24 f4 a3 40 9a 6c aa 40 a6 1d 07 3e 59 9c 40 c1
       5.1235523 5.325757 0.13194904 -12.038171
0003f0 83 8e 84 40 67 b3 6c 40 22 d6 65 3f 82 2c 5a c0
       4.1423965 3.6984499 0.89779866 -3.4089665

output.bias f4 [11]
000000 9b d7 32 40 33 5b c9 bf 09 2f ca be d3 6c 00 40
       2.7944095 -1.5730957 -0.3948901 2.006642
000010 dc 6a 01 40 35 d8 cd bf 78 13 10 c0 27 81 b3 bf
       2.0221472 -1.6081606 -2.2511883 -1.4023789
000020 a8 cb d6 be 86 19 2c bf a2 aa da 40
       -0.41952252 -0.67226446 6.833329
