models/model_mlp1.pth (torch, 61207 bytes, 6 tensors)

fc.weight f4 [100, 35]
000000 66 36 02 3e 19 69 92 3e 7f b4 01 bf e1 08 48 3f
       0.12716064 0.28595808 -0.5066604 0.7813855
000010 13 0c 66 bf a7 a2 56 3d 7f 30 93 3e 7d 05 3c be
       -0.89862174 0.05240121 0.28747937 -0.18361469
000020 a9 3b 6f 3f 96 ad 99 be 79 e4 93 bc 12 d0 69 40
       0.9345041 -0.30015248 -0.01805328 3.6533246
000030 17 0c a4 3e 27 e1 f1 3d c5 45 05 40 f6 5a 06 c0
       0.32040474 0.118105225 2.0823834 -2.0993018
000040 2c 2e 25 3f d9 1c a9 c0 9b 67 c9 bf 2c 9e c9 be
       0.6452358 -5.2847714 -1.5734743 -0.39378488
000050 10 84 70 3f 8a c0 52 c0 ba b0 ab bf 8b 44 f5 be
       0.9395151 -3.2930017 -1.3413308 -0.47903857
000060 f6 85 a1 3e 96 92 e1 bf a2 c3 81 bf 89 5e a7 3e
       0.31547517 -1.762286 -1.0137827 0.32689312
000070 c0 fd e0 3f c8 c0 09 3e 2b 6b df 3d 45 eb 4f 40
       1.7577438 0.13452446 0.109091125 3.2487347
000080 89 79 22 40 de 78 7a bd 41 22 84 bf 8a f3 65 be
       2.538668 -0.061150424 -1.0322953 -0.22456184
000090 a3 3d e0 bd eb 7c f5 bd d7 98 4b bd 1f 7c a7 3f
       -0.10949256 -0.11986717 -0.049706306 1.3084754
0000a0 90 17 be bd e2 40 ca be fd b0 36 bc b1 1c df 3d
       -0.09281838 -0.39502627 -0.011150596 0.10894144
0000b0 36 57 9d 3d dd 42 07 bd f8 62 6b c0 58 d0 c9 bd
       0.0768265 -0.03302275 -3.6779156 -0.098541915
0000c0 80 58 ce 3d ae d8 bd bf 3b 5e 25 40 57 21 04 bf
       0.10075474 -1.483175 2.5838764 -0.5161337
0000d0 0a d5 c4 40 e5 a2 f9 3e 5a 79 e1 3f ee 33 a1 3e
       6.1510057 0.4875709 1.7615159 0.31484932
0000e0 ff 82 b9 be f5 90 2b bf bc 4e 34 3e 42 e6 4b 3c
       -0.36232755 -0.6701806 0.1760816 0.012445034
0000f0 4a 8a 94 3f 0b 13 ca bd 18 65 ed 3e 04 60 4b be
       1.1604702 -0.098669134 0.4636619 -0.19860846
000100 89 c8 2b 3d 75 89 01 be 9c 15 ec be ce 8d af bd
       0.041939292 -0.12650092 -0.46110237 -0.08571969
000110 c6 16 a0 3e 90 73 41 3f d7 05 bc 3e 95 75 93 bb
       0.31267375 0.7556696 0.36723205 -0.004500101
000120 42 03 90 3e f5 0e 4e 40 00 2a 3d 41 e2 03 39 be
       0.28127486 3.219663 11.822754 -0.18067887
000130 d9 11 dc 3d d5 4f f4 be cb 1a 8e 3f 65 d2 9a 3d
       0.10745592 -0.47717157 1.1101927 0.07559661
000140 65 22 4b 3d 7a 7a 45 40 77 ef bb 3d 66 84 22 3d
       0.049593348 3.0856004 0.09176534 0.039677046
000150 d9 65 c1 3f e8 5a e2 40 a7 8d 18 41 80 8d 7b 41
       1.5109206 7.073597 9.534583 15.722046
000160 a7 f1 25 40 96 19 36 c0 42 5d c0 3f 09 a6 ff 40
       2.5928743 -2.8453116 1.502846 7.989018
000170 af 72 f3 40 7d 0d c6 3f 68 4b b8 3f 64 76 03 40
       7.6077495 1.5472866 1.4398012 2.054101
000180 6b 85 bb 3f 33 d6 f7 3f c9 6f 32 3f bb e2 17 bd
       1.4650091 1.9362243 0.6970182 -0.03708146
000190 ff 4c 4e bd 54 c4 c4 bf 0b 2a ae bf d8 18 72 3e
       -0.050366398 -1.5372415 -1.360658 0.2364229
0001a0 2e 7f 90 3f b9 00 86 be 16 9d b2 be d6 b9 cd 3d
       1.1288812 -0.26172426 -0.34885472 0.10045211
0001b0 9b ef da bd d5 da 47 40 de fc 9d 3e 16 6e 98 be
       -0.10690232 3.1227314 0.30856985 -0.2977149
0001c0 b2 a8 d4 bd a5 6d 05 bf f9 3b d9 3e bd c5 49 3d
       -0.103837386 -0.5212043 0.42428568 0.049260844
0001d0 34 9e 95 bf 6a b5 16 3e d3 be 98 be 98 9b b0 bf
       -1.1688905 0.14717641 -0.29833087 -1.3797483
0001e0 77 e1 21 40 0f 78 87 3f ee ac fa 40 06 40 08 40
       2.5293863 1.0583514 7.8336096 2.1289077
0001f0 94 bf 48 40 97 b2 93 3e 5e 81 7f 40 27 18 4b 40
       3.136693 0.2884719 3.992271 3.1733491
000200 07 03 08 3e 76 fb e9 be eb bb 95 3f 30 2a b6 3f
       0.13282405 -0.45699662 1.1697973 1.4231625
000210 25 8f 18 3f 1a 5e dd be 1d 1b e5 bd 0b ad c6 bc
       0.5959342 -0.43235856 -0.11186812 -0.024252435
000220 95 03 08 c0 55 e9 d3 bf f5 1c 82 3e cf 13 30 3f
       -2.1252186 -1.6555582 0.25412717 0.68780226
000230 2a 1c 94 bd c7 4c 5a 3b 59 6c aa 3e 8b b0 ef 3f
       -0.07231934 0.0033309923 0.33285788 1.8725752
000240 65 e9 fc 40 66 68 91 bd 48 9f 93 bd b2 19 4d be
       7.9034905 -0.070999905 -0.07208115 -0.20029333
000250 10 62 12 bf 67 b0 f9 3d 0f 1c 7f 3c cf 95 d9 c0
       -0.5718088 0.12191849 0.0155706545 -6.799537
000260 0c eb 12 be c4 da 5f 3d 10 85 59 bf 7a c9 df 40
       -0.14347476 0.05465199 -0.8496866 6.9933443
000270 fc 3d a3 40 f9 f3 4a 41 9a 2b 10 40 d2 bf b7 bf
       5.1013165 12.684564 2.2526612 -1.4355414
000280 20 f1 52 bf bb de de 40 c2 0b 88 40 65 64 0f 40
       -0.8239918 6.964689 4.2514353 2.2405026
000290 1e be 49 3f 69 da 6a 40 9f 67 1a 40 df a4 67 3f
       0.7880572 3.6695807 2.4125745 0.9048595
0002a0 8a ab 65 bf 39 c8 bb 3c 5e 49 36 bd b9 bc 46 c0
       -0.8971487 0.022922622 -0.044503562 -3.1052687
0002b0 a4 08 20 c0 23 de ce 3e a8 6b 2c 40 59 42 f2 bc
       -2.5005274 0.40403852 2.6940708 -0.029572653
0002c0 15 8c 00 3f 1c 56 d8 bd d9 a5 cf be c4 b6 a3 40
       0.5021375 -0.10563299 -0.4055622 5.1160603
0002d0 7e 88 30 be e9 76 ad bd 29 72 73 be 59 5e 0a 3f
       -0.17239568 -0.08469946 -0.23774017 0.54050213
0002e0 05 6f 2a 3e 66 7c 92 bc 3e d0 0e 40 b7 f7 9f 3d
       0.16643913 -0.017881583 2.23146 0.0781092
0002f0 a2 19 1f 3e 0e 87 00 c0 67 05 3d 40 95 89 34 40
       0.15537122 -2.008243 2.9534547 2.8208973
000300 2e 66 10 41 21 c1 02 40 b3 ba 56 3f 2f a5 2a 3f
       9.024946 2.0430377 0.8387863 0.666583
000310 18 e5 a0 40 4e 7e 6f 40 28 73 68 3d 37 52 21 be
       5.0279655 3.742084 0.056750447 -0.15754019
000320 3b 83 ae 3f f4 f5 ee 3f 7f f4 91 3f 8c f0 65 bc
       1.3633798 1.8668809 1.1402739 -0.014034402
000330 67 98 e9 bc 42 6d 81 be bd 17 13 c0 7a df 02 c0
       -0.028515054 -0.2527867 -2.2983239 -2.04489
000340 ae a4 38 3e 1f 4c ca 3e 0e b2 e3 bd e7 df d2 3c
       0.1803157 0.395112 -0.111179456 0.02574153
000350 bd dd 97 be cf e5 2a bf 60 45 89 40 b8 b1 f0 bd
       -0.2966136 -0.6675691 4.2897186 -0.11752647
000360 d9 9a 66 be b4 08 f4 bd ea 34 5b 3f 9f c6 31 3d
       -0.22520007 -0.119157225 0.85627615 0.04340231
000370 2f 30 03 be ba 5c 4e 40 fd 3e a0 3d d7 bd 22 be
       -0.1281135 3.2244096 0.07824514 -0.1589273
000380 ed 7b 0e c0 bc da 28 40 8e 53 0a 40 f6 0f 0e 41
       -2.2263138 2.6383505 2.1613498 8.878897
000390 c7 a6 1b 40 04 52 ff 3f a1 a5 58 3f d6 a6 80 40
       2.4320543 1.9946904 0.8462773 4.0203657
0003a0 75 3c 3a 40 34 91 07 be 0a 82 f7 be 52 b0 9d 3f
       2.90994 -0.13238984 -0.483414 1.2319434
0003b0 4d d8 9c 3f 59 ee 8f 3f ac b5 b7 be 17 49 3b be
       1.225351 1.1244613 -0.35880792 -0.182896
0003c0 18 ee f8 3c af f2 1e c0 22 03 00 c0 e3 da 63 be
       0.03038697 -2.4835622 -2.0001912 -0.22251467
0003d0 81 17 de 3c 65 a8 03 bd 2b 2a df 3d 5a 56 41 be
       0.027110817 -0.032143015 0.10896715 -0.18880597
0003e0 91 cc 7d bf 15 82 ff c0 2d 87 9a be 61 ab af bc
       -0.9914027 -7.984629 -0.30181256 -0.021444025
0003f0 8f af 97 3e a1 b3 00 bf 1b a6 0c 3d 06 a2 8c 3d
       0.29626128 -0.5027409 0.034338098 0.06866841

fc.bias f4 [100]
000000 6d ae 8b be 19 1e 8b 3e 6a 55 2f be 84 41 d3 3e
       -0.27281514 0.271714 -0.17122427 0.41260922
000010 5c a5 29 bb 25 48 82 3e c0 b8 a9 3e c2 94 17 bd
       -0.0025885915 0.25445667 0.33148766 -0.0370071
000020 14 99 94 be 36 d6 63 be 6b 04 8e 3e be 7f 78 be
       -0.2902304 -0.22249684 0.27737746 -0.2426748
000030 16 89 ba 3e 60 e6 42 be ad a0 69 3e 4d ea ce 3e
       0.36432713 -0.19033194 0.22815199 0.40413132
000040 81 ad a8 3e f4 39 bf be 09 64 c6 3e 29 4f 22 3e
       0.32944873 -0.37348902 0.38748196 0.1585051
000050 7e 7e d5 3e c4 b0 e5 3d 8e 8c 82 be 80 82 54 be
       0.41698068 0.11215356 -0.2549786 -0.20752907
000060 60 84 d2 3e 44 e2 b7 be cc f4 7e be 89 c3 ca bd
       0.4111662 -0.35914814 -0.2489807 -0.099005766
000070 cd 6f 86 be 4c 56 db 3e 07 aa a0 be f8 27 d4 3e
       -0.26257172 0.42839277 -0.3137972 0.41436744
000080 ed fb e7 be 0c 62 1c 3e da 5b 35 3e 3b f6 06 3e
       -0.45309392 0.15271777 0.1771082 0.13179867
000090 43 d5 b9 3d fb 7f 86 bc 9b 21 53 bc a0 21 34 be
       0.090738796 -0.016418448 -0.01288643 -0.17590952
0000a0 d9 ce 6e be e8 35 d8 be a9 13 c0 bd 93 a6 08 be
       -0.23321094 -0.42228627 -0.0937875 -0.13344793
0000b0 fa 44 6a 3e 73 04 e4 3e d3 70 71 be ae b5 ec 3d
       0.22877875 0.44534644 -0.23578195 0.1155809
0000c0 e7 1e a2 be 68 36 65 bd 17 86 d0 3e 0f c0 da be
       -0.31664202 -0.05596009 0.40727302 -0.42724654
0000d0 ea 67 98 3e 6e 3f 9e 3e 4d fd 13 be 04 47 e8 3e
       0.2976678 0.30907768 -0.14452095 0.4536668
0000e0 24 49 fa 3e c3 6e 97 be 0b ae fa 3d 41 bf 90 3e
       0.48883927 -0.29576692 0.12240227 0.28270915
0000f0 11 bb cb 3e 2f f1 bb 3e 83 b2 8a be 69 e0 ee bc
       0.39791158 0.36707446 -0.2708932 -0.029159741
000100 7d c9 4a 3d 76 f4 6e 3e 31 f0 7d bd 93 b2 e5 3e
       0.04950856 0.23335442 -0.061996643 0.44862804
000110 63 6e cc be 22 79 77 3e 06 5e b5 3e a3 7c 48 3e
       -0.39927968 0.24167302 0.35423297 0.19578795
000120 90 3c a4 3e f3 ad 21 be 70 2f c6 bd 8e 1c 6e be
       0.32077456 -0.15789013 -0.09677017 -0.2325308
000130 24 78 99 3e 5b 66 3e be c8 95 80 be cd da b2 be
       0.29974473 -0.18593733 -0.25114274 -0.34932557
000140 1e 72 c2 be 7a a1 86 3e 42 b6 79 3e e6 9c cd 3d
       -0.3797769 0.26295072 0.24385932 0.100396916
000150 93 df 2b 3e e0 2a 80 3e 42 33 87 be a9 bd ec be
       0.16784506 0.2503271 -0.26406294 -0.4623845
000160 67 5e 3e be fb e6 b8 bd c6 cb 02 bf 85 c9 88 3d
       -0.18590699 -0.09028431 -0.51092184 0.06679062
000170 a9 0c 4b 3d c4 6f 9d 3e b5 7d 17 be 11 6c eb bd
       0.04957262 0.30749333 -0.14794047 -0.114952214
000180 5d 68 4a be db 9e 18 3e 79 42 e1 be d0 98 83 3e
       -0.19766374 0.14904349 -0.43996027 0.25702524

fc2.weight f4 [100, 100]
000000 f6 af 14 3c a7 f5 48 3e 74 9c bb be 1e 91 97 3e
       0.0090751555 0.19624959 -0.36642802 0.29602903
000010 fb 66 eb 3d 24 fa 71 be 51 dd 1e be 5c 88 c7 3d
       0.11494251 -0.23630577 -0.15514113 0.09742805
000020 51 a1 b9 bd d3 6c d7 3c da a6 85 bc 76 0f 36 be
       -0.09063972 0.026297009 -0.016314913 -0.17779335
000030 4a 1f b5 3e 78 3a 9b bd 08 d0 05 3d d8 75 f0 3e
       0.35375434 -0.075795114 0.032669097 0.46964908
000040 4b ca 75 3f dc 61 6f be 34 f9 c2 3e fa 5a de 3e
       0.960118 -0.23377174 0.38080752 0.43428785
000050 8a 62 c0 3e 90 e8 8f 3e fa 41 85 3e 97 4f b6 3e
       0.3757518 0.2810712 0.260269 0.35607597
000060 0d 06 30 bc c1 82 30 3e 6b 5a 1e be d5 a9 bd bd
       -0.01074363 0.17237379 -0.15464179 -0.092609085
000070 03 7f 1e 3d 7e d4 de 3e e6 e2 a4 bd 77 36 c5 3e
       0.038695347 0.43521494 -0.0805109 0.38518116
000080 cb 4a 50 be d6 a7 8d 3c 35 60 30 3e 93 f0 4f be
       -0.20341031 0.017291944 0.172242 -0.20306616
000090 e8 dd 26 be 49 94 43 be 06 9d 03 be 40 01 ec bd
       -0.16295588 -0.19099535 -0.12852868 -0.11523676
0000a0 f6 ba 94 3e 8a 36 61 bf c7 d7 02 be e7 e2 52 3d
       0.2904889 -0.87973845 -0.12777625 0.051485922
0000b0 84 7a 9a 3e 60 4e c6 3c ee 73 a5 3d db 2e 8d 3e
       0.30171597 0.024207294 0.080787525 0.2757481
0000c0 8a f4 42 bd 80 e8 72 bd 8a f7 bb 3e ae 87 e0 be
       -0.047596492 -0.05930376 0.36712295 -0.43853515
0000d0 0a d4 42 3e af 04 91 be 36 2b bb 3e 1f c5 95 3c
       0.19026199 -0.28323886 0.36556405 0.018282471
0000e0 69 8f d5 3e 32 ef 3e bc 73 7b 8b 3e 1e 6c bb 3e
       0.41710976 -0.011653708 0.27242622 0.36605924
0000f0 23 42 33 3e 7e 66 73 3f a8 16 b8 3d 54 67 18 bd
       0.17505698 0.95078266 0.08988696 -0.037207916
000100 99 1d 5e 3e e2 ff e5 3e 48 2c cb 3d 49 05 be bd
       0.21690978 0.44921786 0.09920555 -0.09278352
000110 f1 dc 7e 3e 5d 6f 93 bd b4 34 c4 3d b3 fa 49 3e
       0.2488897 -0.07198975 0.09580365 0.1972454
000120 b0 28 87 3f c2 3d b5 3d a5 4c 4f 3e 31 46 1c 3e
       1.0559292 0.0884967 0.20244081 0.15261151
000130 91 ab b7 3e 6d 4c 1a 3f eb 4f f7 3d 0e f8 f9 bc
       0.35873082 0.60272866 0.1207579 -0.03051379
000140 a7 84 90 be b4 92 09 3f fd ab d5 be 65 15 12 3d
       -0.28226206 0.53739476 -0.4173278 0.035664935
000150 e5 01 ab be a7 ef 8d 3e 86 c9 06 bf 06 7e 13 bf
       -0.33399883 0.27721903 -0.5265125 -0.5761417
000160 fd dd bb be 2c c0 db bd 9a 14 a8 be 28 d2 ed 3e
       -0.366928 -0.10730013 -0.32828218 0.464494
000170 3d d0 1c 3e 7a 1f a4 3e 45 3a ff 3a c2 18 9c bd
       0.15313812 0.32055265 0.0019472322 -0.0762191
000180 b6 fa 83 3f c5 20 d9 be 44 cf 8f bf 72 e6 86 bd
       1.0310886 -0.42407814 -1.1235127 -0.06586923
000190 23 52 61 3e 27 b8 e7 3e 06 e2 e5 3d 65 99 ac be
       0.22003989 0.45257685 0.11224751 -0.3371078
0001a0 77 10 2d be ec 62 79 be c8 35 86 3d ee ca 44 3e
       -0.16900812 -0.24354142 0.06553227 0.19218037
0001b0 1d 9f 8a bc b4 80 f0 bd 6b 50 5b 3f 68 e2 83 be
       -0.016921574 -0.11743298 0.85669583 -0.25758672
0001c0 2b c1 8e bd 07 14 30 be 33 4e f8 bc 03 28 8a bd
       -0.069704376 -0.1719514 -0.030310726 -0.06745913
0001d0 47 63 bc bd 81 61 8c be c9 de 8a 3e 99 fc 70 3e
       -0.09198623 -0.2741814 0.27123097 0.23533858
0001e0 de 95 6e be 37 e0 36 bf d7 13 6c bf ba 3b 81 be
       -0.23299357 -0.71435875 -0.92217773 -0.2524088
0001f0 38 ab 30 bc 0d 25 54 bf 56 c6 47 be c4 fe e1 bc
       -0.010783009 -0.82869035 -0.19509253 -0.027587302
000200 1a b3 3b bf b9 d2 a5 3e 51 d0 3e 3e 59 41 4f 3d
       -0.7332016 0.3238733 0.18634154 0.05059943
000210 3e 86 aa be 3a 19 59 bd b3 d2 14 bf 07 d8 45 be
       -0.33305544 -0.053002574 -0.58134 -0.19320689
000220 65 63 83 3e 80 34 53 bd 7b d1 53 3f 5d 30 14 be
       0.2566177 -0.05156374 0.82741517 -0.14471574
000230 dd 83 ab bd 96 a8 05 3f 63 19 60 bd 9d 19 75 be
       -0.0837476 0.52210367 -0.05471171 -0.23935552
000240 7e dc 55 3a 44 0e cf bd 2c 6d 4a 3e 0a 78 87 3e
       0.0008158161 -0.10110143 0.19768208 0.2645877
000250 15 d0 0c bf d3 25 1a be 91 99 09 be fd fd 9b bd
       -0.5500501 -0.15053491 -0.13437487 -0.07616804
000260 ec ff 59 bf d8 ef 84 bd df 7a 4d bd be a5 97 3f
       -0.8515613 -0.06491059 -0.050166007 1.1847456
000270 1e c8 0a be 36 b0 a9 3e a4 9c ac be 7e 7a 47 be
       -0.13552901 0.3314225 -0.33713257 -0.19480321
000280 68 78 ab 3f d0 75 83 be c0 45 a7 be 12 7a d3 3e
       1.339612 -0.2567582 -0.32670403 0.4130407
000290 06 66 00 be b4 cb 9b bd cb 36 9d be f6 7a 76 be
       -0.12538919 -0.07607213 -0.30705866 -0.24070343
0002a0 08 34 5d bd cf b8 27 3e 06 5f 62 bd 8c 04 40 3e
       -0.0540047 0.16379093 -0.055266403 0.18751734
0002b0 e9 f7 4a be 1d 95 9c 3b 64 cd 60 3e f6 6b 38 3c
       -0.19821133 0.004778518 0.2195335 0.011256209
0002c0 81 7f 48 bf 83 4e e7 be 53 71 87 be 9d b2 4a bf
       -0.78319556 -0.45177087 -0.26453647 -0.7917879
0002d0 d4 93 92 be 9b 2e 21 be 68 93 43 3e 39 83 a4 3e
       -0.2862841 -0.15740435 0.190992 0.32131365
0002e0 4a 1a ad 3e 0d 87 4a 3e c4 e6 8f 3e 26 e0 b4 bd
       0.3380912 0.1977808 0.28105748 -0.088318154
0002f0 0e b6 83 3e db a5 f2 be 69 97 7e be 9c a4 e8 3c
       0.25724834 -0.47392163 -0.24862446 0.028398804
000300 3b 40 5b be 49 9b 77 3e 0d ed 66 be 56 b5 87 be
       -0.2141122 0.2418033 -0.22551365 -0.26505536
000310 8f ac 3c be 55 a7 78 3e e4 50 93 bf 5a 26 d4 be
       -0.18425201 0.24282582 -1.1509061 -0.4143551
000320 e4 b4 0d 3f 47 c6 94 3e ef 95 b5 3e 16 f1 9a be
       0.5535414 0.29057524 0.35465953 -0.3026206
000330 47 7e ee be e6 d6 99 3d 63 d6 de 3d fd 1f 35 3e
       -0.46580717 0.07511692 0.10880735 0.17687984
000340 b5 a6 b5 3e 42 ac 34 3e d1 55 54 3e 88 1f 86 be
       0.3547875 0.17643836 0.20735861 -0.2619593
000350 80 1f dc 3d b1 50 90 bd bf 01 2a 3d d8 a4 6b 3d
       0.10748196 -0.07046641 0.04150557 0.057530254
000360 40 36 8f bd 3d 47 73 be 1a 2d 55 be d4 6f 91 be
       -0.06992769 -0.23757644 -0.20817986 -0.2840563
000370 41 39 78 be 58 95 2a bf 7c c6 b2 be af c2 82 bc
       -0.2424059 -0.6663413 -0.34917057 -0.015961973
000380 94 4b 29 3f 56 3c 31 bf 32 0c 31 bd 27 66 60 be
       0.6613095 -0.6923269 -0.04322452 -0.21913968
000390 08 7a 52 be 8c b4 3c 3f ac 33 41 3e d7 f8 63 3f
       -0.20554364 0.7371299 0.18867368 0.89051574
0003a0 88 65 a9 be 15 63 1d 3f de a1 6b be 8c 9a 01 bf
       -0.33085275 0.6147931 -0.23010966 -0.50626445
0003b0 d2 0b a2 3e 75 be ab bd 1f 99 a1 3e 89 76 2a 3d
       0.31649643 -0.08385936 0.31562135 0.04161695
0003c0 ea 42 56 bd 35 57 ac 3e 99 ff 5f 3e dc 08 db be
       -0.052309908 0.33660284 0.21874847 -0.42780197
0003d0 30 c9 9b bc c1 83 de 3e 34 6a d1 bc f3 c2 f5 bc
       -0.019016832 0.43459895 -0.025563337 -0.030000186
0003e0 2a 11 53 bf 41 86 71 bd 9c 48 a0 3b 7e c4 ab be
       -0.82448065 -0.058965925 0.004891468 -0.3354835
0003f0 8b 89 38 be 02 6f 89 3e 7e 3a 86 be b4 36 19 3f
       -0.18021218 0.26842505 -0.262165 0.59849095

fc2.bias f4 [100]
000000 7c 31 1f 3e 15 89 60 3e aa a1 96 3e 8d b2 61 be
       0.1554622 0.21927293 0.29420215 -0.22040768
000010 e8 62 d0 be a4 4d 26 be 92 3e c0 be 14 6d a0 3e
       -0.4070046 -0.16240555 -0.37547737 0.3133322
000020 c9 c6 ae 3e ef 0a fc 3c a8 5c b6 3e d2 cf 4f 3e
       0.34136036 0.030766932 0.35617566 0.20294121
000030 62 56 e8 be ea 94 34 be f3 3d b4 3e 26 22 84 be
       -0.45378405 -0.17634931 0.35203514 -0.25807303
000040 55 41 1c be 2b d8 6b 3e 41 25 40 be b2 64 e3 3e
       -0.15259297 0.2303168 -0.18764211 0.44412762
000050 83 21 ed be 17 64 c4 be 19 4a ce be a8 aa 85 be
       -0.4631463 -0.38357612 -0.40290907 -0.26106763
000060 b7 9a 96 be ec 50 2e be af 6e f2 be e2 9c 0e 3f
       -0.29414913 -0.17023057 -0.4735007 0.55708134
000070 78 d0 c3 be 43 d6 41 be 02 14 9e 3e 8b 2a af be
       -0.38244987 -0.1892939 0.3087464 -0.34212145
000080 07 89 5f 3c 3f 25 8f 3d c0 16 d4 be f1 fd 54 be
       0.01364351 0.06989526 -0.41423607 -0.20799996
000090 b9 3c 46 bc 66 7c e7 be a2 a0 99 3e f6 16 29 be
       -0.012099438 -0.45212096 0.30005366 -0.16512665
0000a0 24 e4 1c bf be ed 9d 3e 67 9e 30 3e 1f 34 ea bc
       -0.61285615 0.30845445 0.17247926 -0.028589306
0000b0 e0 e4 b6 bc f7 07 51 bf 33 fb 5e bc 62 6e 07 3e
       -0.022325933 -0.8165278 -0.013609695 0.13225701
0000c0 81 3c 43 be b4 76 d8 bb 8a 9b 15 bf b0 00 12 3f
       -0.19066049 -0.0066059474 -0.5844046 0.570323
0000d0 00 41 99 be aa f8 20 bf c1 b8 38 3d 81 77 92 3e
       -0.29932404 -0.6287943 0.04509807 0.286068
0000e0 76 b4 e6 be 5d bf 8e 3e 28 75 77 be da 02 a7 be
       -0.45059556 0.27880374 -0.24165785 -0.32619363
0000f0 43 23 c4 3e f1 ea ec be 2e ce 21 3e 65 9f 6f 3e
       0.38308153 -0.46272996 0.15801308 0.23400648
000100 37 fa b1 be 16 bc 77 3e f1 e6 f0 be 4e e8 44 bf
       -0.3476121 0.24192843 -0.47051194 -0.7691697
000110 5d f3 20 be a0 12 ee be a4 08 cd bd 77 f8 22 3f
       -0.15717836 -0.46498585 -0.10011414 0.6366038
000120 98 b6 aa be 4e ad 9e bd 2b 71 a9 3e f5 07 f6 3e
       -0.33342433 -0.07747899 0.33094153 0.48052946
000130 75 0e 77 be 66 57 84 be 7c 3c ef bd a7 e9 a3 be
       -0.24126609 -0.2584793 -0.11681458 -0.320142
000140 9f bb 1e 3e a2 e7 07 be 6b bc 63 3d fa c7 83 3d
       0.1550126 -0.13271955 0.05559961 0.06434627
000150 56 99 58 3e d6 6c b8 bd 4b 3f 99 3e 2c 46 00 3f
       0.21152243 -0.09005134 0.299311 0.50107074
000160 17 d5 5c 3e d8 dd af 3d 39 d4 91 3e 83 73 5e bd
       0.21565662 0.08587235 0.28482226 -0.05430938
000170 20 7d 8e be 17 08 75 be 87 a0 02 bf b3 cc b4 be
       -0.27829838 -0.23928867 -0.51026195 -0.35312423
000180 82 eb 1b be 31 00 cf 3e d9 c2 d9 3d 8f 96 b2 be
       -0.15226558 0.40429834 0.10632867 -0.34880492

output.weight f4 [11, 100]
000000 65 f7 03 be 9c 4e 11 3f 3c 64 23 3f c9 b1 72 3e
       -0.12887342 0.56760573 0.6382482 0.23700632
000010 b5 9b 9a 3c 4d 80 9c 3f 88 6c 10 bf aa bd 06 3e
       0.018873075 1.2226654 -0.56415606 0.13158289
000020 1e bb e1 be 15 bc 9d 3e dd eb 9f be db dc ed 3e
       -0.44088072 0.30807558 -0.31234637 0.46457562
000030 ad a5 a0 be 1c d2 b0 3e 23 9d 06 bf fd 2b fc be
       -0.313764 0.345353 -0.5258352 -0.4925231
000040 72 ff 56 bf f8 46 83 bf f4 80 d0 3e ed 2f a6 be
       -0.8398353 -1.0256033 0.40723383 -0.3245844
000050 07 55 7c 3e a0 1b 4e bf 21 61 74 3c 11 82 10 be
       0.2464181 -0.805109 0.014915735 -0.14112116
000060 9b f0 5c be 93 c5 db 3c 44 48 fa be 90 76 c4 be
       -0.21576159 0.02682761 -0.4888326 -0.38371706
000070 da af c3 3e 7e d9 0e bf 68 4b 2e 3f 62 86 c9 be
       0.38220102 -0.55800617 0.6808381 -0.39360338
000080 6b d3 e1 3e 5f b2 c5 be b2 e5 27 3e fa 7f 9f be
       0.44106612 -0.3861265 0.16396216 -0.31152326
000090 f2 ed 79 3f 99 33 ea 3d c9 fa b0 be f0 28 58 3f
       0.976287 0.11435623 -0.34566334 0.84437466
0000a0 ff 60 0b bf 40 7c 83 3e af 80 f3 be 06 32 2d be
       -0.5444488 0.25680733 -0.47559115 -0.16913614
0000b0 63 40 4f bd 1e 00 32 bf 02 5b b3 3f 77 3a 78 3d
       -0.050598513 -0.6953143 1.4012148 0.06060263
0000c0 72 25 82 3e ac 94 6b be 87 3e d1 bf 7d 7e c3 3c
       0.25419194 -0.23005933 -1.6347207 0.023864025
0000d0 a3 3b dc 3e 59 c7 66 be a1 81 8f 3d 96 89 a3 be
       0.4301425 -0.22536983 0.070071466 -0.31940907
0000e0 0e b8 0e bf e3 70 4f 3f c3 ea 0f bf 57 c8 f8 3e
       -0.55749595 0.81031626 -0.5621759 0.48590347
0000f0 df a1 3d 3e 76 93 55 bf c2 0f 6d bf f6 91 5d 3f
       0.1851878 -0.8342813 -0.9260217 0.86550844
000100 ae 9a d5 be aa 19 5a 3e 65 69 27 3e 11 1e 40 bf
       -0.41719574 0.21298853 0.16348799 -0.7504588
000110 4d a6 80 3e a6 da 01 3e f2 25 36 bf 57 bc 13 3c
       0.25126877 0.12681064 -0.7115165 0.009017072
000120 4f 58 87 bf 4c b4 9d 3e 32 84 08 3f ae 60 24 3e
       -1.0573825 0.30801618 0.53326714 0.16052505
000130 fb 55 46 be ed 3c 50 bf be d9 82 3e cf cb 8d 3e
       -0.19368736 -0.81342965 0.2555675 0.27694556
000140 b4 41 b4 be cc 7a ce bf 97 71 41 3f 15 5c b4 3e
       -0.35206378 -1.6131225 0.7556395 0.35226503
000150 b9 4f 00 3e ab 02 f0 be d0 93 80 3f 64 51 0e 3f
       0.12530412 -0.46877035 1.0045109 0.5559294
000160 d7 c1 41 3e e7 33 06 bf f4 a2 12 3f 00 26 73 bb
       0.189216 -0.52422947 0.57279897 -0.0037101507
000170 de 7e a7 3e e4 53 d0 be 9f bc 25 3f 89 d3 18 3f
       0.3271398 -0.40689003 0.6474094 0.5969778
000180 18 fb 93 bf df 21 9d 3e 0e 37 cc 3e 24 89 14 bf
       -1.1561003 0.30689904 0.39885753 -0.5802176
000190 85 67 40 bf 7c 51 8d 3f d8 63 c7 3d d5 67 21 3f
       -0.7515796 1.1040492 0.097358406 0.6304906
0001a0 3d 83 2e 3d c1 a4 41 be db 43 b5 3d 4d 98 e0 be
       0.042605627 -0.18910505 0.08850833 -0.43866196
0001b0 b7 9f 89 be a4 e8 63 3f 87 f3 6c 3e 6e bd 76 3e
       -0.26879665 0.89026856 0.23139773 0.24095699
0001c0 bb 01 1d bf e6 6a 19 3e 60 7c 37 3d 6c 08 68 3d
       -0.61330765 0.14982185 0.044796348 0.056648657
0001d0 14 9d 30 3e df a8 26 3e d1 12 d5 3f d8 72 b4 3e
       0.1724742 0.16275357 1.6646367 0.3524387
0001e0 74 72 5e 3f 62 e5 27 3d 40 7a 9d 3e 8c e2 af 3e
       0.8689339 0.04099024 0.30757332 0.3435253
0001f0 61 05 69 3d 76 22 9e 3e 94 f2 8c bb 30 66 a4 3e
       0.056889895 0.30885667 -0.0043013785 0.32109213
000200 ea e2 73 bd 86 02 f3 3d 4b 67 26 3f 39 8c 32 3e
       -0.059542574 0.11865716 0.6500136 0.17436303
000210 0a 04 cc 3f 96 81 5a 3e 0d 7a 33 be 8c 99 d1 bf
       1.5938733 0.21338496 -0.17527027 -1.6374984
000220 45 c6 eb 3d a4 1c a3 bf fa 57 b4 be 43 33 16 be
       0.11512426 -1.2743115 -0.3522337 -0.14667992
000230 99 6e 25 bf 77 25 22 be dc dc 58 3e f4 33 5d 3e
       -0.64621884 -0.15834604 0.21178001 0.2160185
000240 af db 33 3e 31 55 f9 3d 7d 4f 0a be a8 82 72 3e
       0.17564271 0.12174452 -0.13506885 0.23682654
000250 ca f0 91 3e d6 6c 26 bf 50 c0 fa 3d f8 a7 62 bc
       0.2850402 -0.6500982 0.12243712 -0.013833992
000260 82 66 3a 3e 2b a9 6b 3d e7 9b 1d 3e 4c a7 d3 bc
       0.18203166 0.057534378 0.15391503 -0.02583661
000270 e8 d7 18 bd 0f a4 4e 3e 60 6d f4 bd 16 fb 18 3f
       -0.03731528 0.20179771 -0.11934924 0.59758127
000280 60 6f 6c be fb 12 a0 3d 40 a8 05 3e b8 be f5 3d
       -0.23089361 0.0781612 0.13052464 0.11999267
000290 34 7c 2c bf 33 57 cd 3e 1a 97 b0 3e 87 4f 7e bd
       -0.6737702 0.4010559 0.3449028 -0.062087562
0002a0 9d 75 9b 3f 42 5a 85 be 45 6f df bd fd 23 1b 3f
       1.2145268 -0.26045424 -0.10909895 0.6060179
0002b0 dd 02 9a 3d 38 e4 95 be b1 5f 93 3f f5 3a 16 be
       0.075200774 -0.2927568 1.1513578 -0.14670928
0002c0 16 25 1d 3e f5 8d b6 3d 6b 01 2f 3f 84 f6 de 3e
       0.15346178 0.08913795 0.6836154 0.43547451
0002d0 b1 d7 7a 3d 1f 5e 55 3e c8 0d d4 bd f4 ad 0d be
       0.061240856 0.20836686 -0.10354191 -0.13835889
0002e0 07 a0 70 be 60 64 e5 be bc 9f a9 bd d2 7b 12 3d
       -0.23498546 -0.44803143 -0.0828242 0.035762616
0002f0 4e 6c 5b 3d 32 7b 70 bf ce 17 d1 bd a6 72 f7 3e
       0.053570084 -0.9393798 -0.102096185 0.48329657
000300 a6 c6 f4 3e b4 ee c9 be c3 b5 76 3d 10 85 f4 bd
       0.47807807 -0.3943993 0.060231935 -0.11939442
000310 a2 8e 24 3e 4f ff c7 bd ae 0b f8 bd 97 a1 46 be
       0.16070035 -0.09765493 -0.12111603 -0.19397579
000320 d9 71 9f bf 99 c0 0e 3e 0b ea 25 3c 60 2d 41 3f
       -1.2456619 0.13940658 0.010126601 0.7545986
000330 4d 5f 48 3f df da 45 be eb 9b f0 be bd 39 96 bf
       0.7827042 -0.19321774 -0.46993956 -1.173637
000340 51 68 2e bd a5 39 ec bd 34 f5 9f be e0 f2 5c 3e
       -0.042579953 -0.11534432 -0.31241763 0.21577024
000350 45 4d 32 be d4 9e 00 3f 55 32 38 be 7c 02 c3 be
       -0.17412288 0.5024235 -0.1798795 -0.38087833
000360 90 d4 cd be 72 76 b0 be cd bc 9e 3f fe c1 8f 3e
       -0.40201235 -0.34465367 1.2401367 0.28077692
000370 df 35 fa 3e 31 96 59 be 05 b0 d4 3e 8e 13 83 3e
       0.48869225 -0.212487 0.41540542 0.25600857
000380 e1 44 8b be 98 cc 04 3f 94 5f 07 bf b4 46 a3 3e
       -0.27200988 0.51874685 -0.52880216 0.3188988
000390 e1 c4 df 3d ce 7f 85 bd 5c d4 0c be 8d e4 18 be
       0.109262235 -0.065185174 -0.13752884 -0.14930935
0003a0 52 dc 20 3e 0c 3c 42 bf 84 52 ef 3e c2 62 4c bf
       0.15709046 -0.75872874 0.46742642 -0.7983819
0003b0 52 ba 18 be d7 20 cd be fa 84 fe be 80 b4 f5 bd
       -0.14914826 -0.40064117 -0.49710828 -0.11997318
0003c0 39 c9 6d be a6 82 1d be 07 30 cb be b6 c6 cb 3e
       -0.23221292 -0.1538187 -0.3968508 0.39800042
0003d0 b2 ee eb 3e d2 5d 40 be 36 04 71 be 5c 30 dd 3e
       0.46080548 -0.1878579 -0.23536763 0.43200958
0003e0 dd d8 91 3e 1b 77 de bd 6b 3b 58 3e 40 f8 c8 bd
       0.28485766 -0.10862561 0.21116416 -0.09812975
0003f0 53 0b 98 3e 01 e6 c4 be da 95 aa 3e d4 76 85 be
       0.2969614 -0.3845673 0.33317453 -0.2606722

output.bias f4 [11]
000000 04 56 98 bf ae 11 ed 3e d3 0a 26 3e cb 13 ee 3e
       -1.190125 0.4630255 0.16215067 0.46499476
000010 96 a9 32 be 92 60 23 be ec 60 a5 bd bb a1 9c bf
       -0.17447504 -0.15954807 -0.08075127 -1.2236856
000020 f3 21 0f be 45 c8 22 40 01 45 97 bf
       -0.13977794 2.5434735 -1.1817933
